PSG_dataset/ckn/1927.pt (torch, 840791 bytes, 6 tensors)

fc1.weight f4 [256, 190]
00000000: 9af8 b73c 896d be3d 6a6b 4b3e 77bc 87bd
00000010: 3720 55bd 3144 623d ee7c 6d3d 58b8 243e
00000020: 3266 3dbd 1e82 3f3e abe6 48be 0826 683d
00000030: b56e 17be 8c64 23bd 3365 80bd 3a38 40bc
00000040: 6eb0 093d d417 84bd c358 c83e e99e 87bd
00000050: 8eb1 693d 65ca 9a3d 355b 403e 1b20 e9bc
00000060: fc3c f4ba 9822 91bd 1857 653c 8ae0 bfbd
00000070: 7410 58bc 6016 b23d cdc2 32bd 67df 43be
00000080: 35e9 f23d fc64 c5be 5720 69bd ae95 bbbd
00000090: 42ae c9bc 2a37 e1bc d318 263e 7e94 47be
000000a0: 742e 243a cfe8 d9bd ca5a d33d 5ac2 d33c
000000b0: 1b7c 3cbd 7859 323c f70a 0abe c95b aa3d
000000c0: adcc 853d 6983 a83c 2593 c6bc b7b9 e2bd
000000d0: 7539 c8bd a6ab b23d 0ae8 1ebe b8aa 9fbd
000000e0: 22bb acbd 2f7e 74bb 297a 603c 773c a33d
000000f0: 999c c4bd 2596 bebd 70f8 20be 71ec b3bd
00000100: f543 8cbd e29a b43d 8254 10be 1ba4 133d
00000110: 0b37 93bd 4569 debd 8e69 c9bd f3f8 2d3c
00000120: bc37 05be d3fd 273d 9d45 1bbe 8daf 8abd
00000130: df43 0ebd b053 433d a58c 0fbe e9a4 afbc
00000140: 0ecf 0c3e 447a 8fbd 5d33 3dbd 70a1 a53d
00000150: d6a8 a5bd 0818 093e 7e83 d0bc 11d3 05be
00000160: 70f5 cc3c ff39 ec3a 6bea 893c 8d9e 213e
00000170: a29c 913b 2e84 68bd ed8c 56be b078 df3c
00000180: 6e02 c0bd 565f 803d fb53 223d edfd 073d
00000190: f6af cebc 6f6d 93be 996c 303b 52b5 b1be
000001a0: 6470 073b 05fd 8c3d d9bd 8abc 9f9f 1c3d
000001b0: e0cf 3fbd 30e2 d13c abc2 e4bc c8d8 023d
000001c0: 5d84 943d 5ab9 45be 8a9a 4e3d fdd5 f4bc
000001d0: b2fa 13be 1b9d df3d 4e96 07be faf4 bcbc
000001e0: e499 7fbd 2e32 86be 9177 49ba 176d 19be
000001f0: 3c5f 5e3e f465 7b3d 6bca 0bbe 1dd2 4e3d
00000200: ee20 a3bd 1189 ba3d a3e9 0fbd da20 c8ba
00000210: 10a1 ef3d be7d ca3d 3cc3 c83d 873b 8ebd
00000220: a5d1 ba3c 5242 7ebd fc61 c83d 2b1b fd3c
00000230: 4105 873d 6b55 27bc 7596 0bbd 7b48 62bc
00000240: a888 a53d f08e 013d b840 6c3d 5cb4 873b
00000250: 5f49 2f3c 46aa 92bd 30b7 323e 8921 c13d
00000260: 0a74 9a3d b22b c5bd 4369 54bd 4c56 23bd
00000270: 3f39 303e 8792 303d f5ae 1c3d c262 c5bd
00000280: 225f cd3d 7080 c93c c828 033f 0e42 55bc
00000290: ba79 c13e e5a8 873d 4999 973d 5e0c 283d
000002a0: 1af8 e13e 5d9c 4a3c 98e3 c23e 0076 343d
000002b0: 0f36 ef3c f290 813d 8445 053f 1669 1b3d
000002c0: 11f3 d23e efd3 c23c d5d8 183e 6123 29bd
000002d0: 8fb8 fe3e 0588 673d d307 d63e 3c73 f7bc
000002e0: bf5d f33d 0ae7 d23c f5bb 0a3f 5160 1a3d
000002f0: 606e d03e 0525 623c c9f6 9bbd 5593 f0bb
00000300: fc9b 0e3e 5133 2b3d d587 daba ba4d f7bc
00000310: e721 8cbd 3b2e 473d 3c18 6bbd 3b3e 1d3e
00000320: eaca 05be 14ae f93d 43af 8bbd f7bd 6abc
00000330: 041f 2e3d 83a6 06be 3b65 21bc 8947 bebd
00000340: d747 e63d 6c63 08be 3a39 11be d92e e93c
00000350: 3fd4 ff3d 53ce 52bd 6750 883d 318d 4ebd
00000360: 49d2 233d 35e4 2a3d 2046 4f3b d5dd d03c
00000370: d86f 1fbd 8e26 2abe 53b1 293c 29b7 e03b
00000380: 981c 483d b556 94bd 84b5 62bd dba9 ebbc
00000390: 3f90 c73d 33fc e1bc 8bb6 e7bd c63a f2bd
000003a0: a21a d53d f788 993d da63 343e 442c e43c
000003b0: 820a c3bc 9156 a2bc d233 6abc b721 2bbd
000003c0: 8cd6 b2be 3682 04bd d832 163e fa18 993d
000003d0: a806 b53b 1184 9abd f61c a2be 7229 89bc
000003e0: 02b6 583e 594d 503d 9958 8dbd 2840 533d
000003f0: d15a b0be 2293 bebc 3ced ca3d 8854 15bd
0.02245741 0.09298236 0.19865194 -0.06627744 -0.052032676 0.055240814 0.05798047 0.16085947
-0.04624004 0.1870198 -0.19619243 0.056676894 -0.14788325 -0.03989081 -0.06269302 -0.011732155
0.033615522 -0.06449857 0.3913022 -0.066221066 0.057054095 0.07558135 0.18784793 -0.028457692
-0.0018633897 -0.07086676 0.013997816 -0.09368999 -0.0131875165 0.08695674 -0.043642808 -0.1912819
0.11860887 -0.38553607 -0.056915607 -0.091594085 -0.024619225 -0.027492125 0.16220407 -0.19490239
0.00062630256 -0.10640108 0.10320051 0.02584951 -0.046016794 0.010885589 -0.13480745 0.08318288
0.065331794 0.020570474 -0.024240086 -0.110705785 -0.09776584 0.087241456 -0.15518203 -0.07796234
-0.0843413 -0.0037306657 0.013701 0.07970517 -0.09600181 -0.093059815 -0.15719771 -0.08785332
-0.06848899 0.08818604 -0.14094737 0.036045175 -0.07188233 -0.10859922 -0.09834586 0.010618436
-0.13009542 0.04101355 -0.15163274 -0.06771765 -0.034732696 0.047687232 -0.14018495 -0.02144094
0.1375086 -0.07005742 -0.046191562 0.080874324 -0.080888435 0.13388073 -0.025453325 -0.13068797
0.025019377 0.0018022655 0.016835412 0.15783139 0.004443721 -0.05676668 -0.20952196 0.027279228
-0.093754634 0.06268184 0.03963087 0.033201147 -0.02523039 -0.2879443 0.0026920198 -0.3470865
0.0020666355 0.06884197 -0.01693623 0.038238164 -0.046829104 0.02562055 -0.027924856 0.03194502
0.07251809 -0.19308987 0.05044035 -0.029887194 -0.14451101 0.10918637 -0.1324093 -0.023066033
-0.06240262 -0.2621016 -0.0007685358 -0.1498302 0.21716017 0.061376527 -0.13651435 0.05049335
-0.07965265 0.091081746 -0.035134923 -0.001526858 0.11700642 0.09887265 0.09802863 -0.06944948
0.022805044 -0.062074967 0.09784314 0.030896744 0.06592799 -0.010213236 -0.034079034 -0.013811226
0.08082706 0.031630456 0.057678908 0.0041413736 0.010698645 -0.07161383 0.17452693 0.094302244
0.07541664 -0.09627475 -0.051858198 -0.03987722 0.17209338 0.04310849 0.03825279 -0.09637977
0.10027911 0.024597377 0.512341 -0.013016237 0.37788182 0.06624011 0.07402284 0.04102742
0.441346 0.0123663815 0.38064265 0.044057846 0.029200582 0.06326474 0.520592 0.037942015
0.4120107 0.023782698 0.14926465 -0.041293506 0.49750182 0.056526203 0.41802844 -0.030206315
0.11883115 0.025744934 0.5419305 0.03768951 0.4070921 0.013802771 -0.0761543 -0.007341782
0.13926691 0.041796986 -0.0016672561 -0.03018843 -0.06842404 0.048628073 -0.05739616 0.1535577
-0.13065687 0.12191406 -0.06820538 -0.014327518 0.042510048 -0.13149457 -0.009850795 -0.09290988
0.11244171 -0.13319176 -0.14181986 0.028464722 0.124916546 -0.051466297 0.066559605 -0.05042762
0.039995465 0.04172154 0.003162749 0.025496403 -0.038925022 -0.1661627 0.010357219 0.006857772
0.048855394 -0.072431006 -0.055348888 -0.028767517 0.0974431 -0.027586078 -0.11314114 -0.118276164
0.104054704 0.07496827 0.17616215 0.027853139 -0.023808721 -0.019816669 -0.0142945815 -0.0417802
-0.3492931 -0.03235074 0.14667833 0.07475467 0.005524475 -0.07544721 -0.3166272 -0.016743395
0.2116318 0.050855014 -0.06901664 0.051574856 -0.34444287 -0.023263518 0.0990853 -0.03645757

fc1.bias f4 [256]
00000000: 906f 803c 9bc6 053d f0b6 993d 0d85 f3bd
00000010: 4df9 88bd 0ad7 c2bc 1c64 30be f735 4cbd
00000020: 6d5a 72be 9e1a d23a e6d0 edbd 142d 86bb
00000030: 8f02 4fbd 522d 20bd 9040 abbe a799 9bbb
00000040: 4401 b73c 85d1 e2be 3740 293e f7d5 a93c
00000050: 3335 26be 4f09 d03b 67dc bf3d 9a0f 9a3d
00000060: fab6 f93d d9e0 b93b 6d26 e43d c4f8 f8be
00000070: 4993 f4bd 580c 0ebe 7362 703d 52e9 25be
00000080: 5e2f 3b3d 9058 a5bd d07e 85bd 279c cabd
00000090: 3084 21bc 87f8 d93c 8b6a 1bbd 4ae0 59be
000000a0: 382f 8e3d 1b92 81bc e22e c43d 03b0 53be
000000b0: 5231 0a3d 1c48 e03c ead3 853c 3bde 1a3c
000000c0: 31bb c63d 3c89 ce3d a132 113e 1cfc 3bbd
000000d0: 65d6 89bc 9004 3bbe c666 2cbd 813b 383e
000000e0: aa3e f23d 5519 b9b9 f24a 79be 46df 2bbe
000000f0: d0db 17be fa10 c5bc 273b e2bd f280 d03b
00000100: fedf 12bd 40e9 093e 153c 93bc df08 1e3d
00000110: a5f3 25be c767 08bd 3bdb 5ebc 7ca0 ca3c
00000120: 2155 05bd a79f bdbd 12f7 b23d 8b5a 0bbe
00000130: 4db9 74bd af7d a8bd e116 5abd e79a 103e
00000140: 23de 763c 809e d8bc 4791 33be 9385 d53d
00000150: 72e6 6abd 50b3 03bd 6a1e 27be 5d42 fbbd
00000160: 50d5 64bd 87a9 ab3c 7db5 3a3c 4a5f d33b
00000170: 89bc a23d 7d8f 5c3e addc 4d38 44b4 b3bc
00000180: 2d41 9dbd 6af0 4a3c 1b16 0fbc c63c 0abd
00000190: 9620 8fbc 31ee 49bd dcb1 6bbd 64ac 54be
000001a0: 1eec 2e3d f7b4 8b3d 78a7 a83d 6202 18be
000001b0: 40d8 d1be b493 66bd 775b a3bd f8ac 033e
000001c0: f4a5 19be 16a5 1dbe b4d4 21be 7595 3ebe
000001d0: 7693 933b 5275 dcbd 9e36 82be f576 b8bd
000001e0: 1895 a23d 1d2c 98bd d239 473d 8229 10be
000001f0: 6b32 593c 89fc c0bd f74f 4cbd 7b9e 953d
00000200: d181 0fbe dff7 c8b9 7639 28bd f3a9 cc3c
00000210: 91bf 10be f538 3fbe 8d71 64bd dea1 b63d
00000220: 17e0 ea3c e637 413d 7c9f 30be 58b8 02bd
00000230: 0022 dfbd 59a1 50be 7492 71bd 0f46 c83c
00000240: 1d06 8ebd 8f0b 5abd e2fc acbe b173 cf3c
00000250: 0208 15be c785 c03c 172c acbd 951a bf3c
00000260: 1ae8 703d ab0d 653d 17f8 c5bd 11b0 2ebd
00000270: 10ae 593d 5b76 1fbe d558 73bb a6be c93d
00000280: 8201 963b 2e8a 88be 8071 02be cf78 2cbd
00000290: 34a9 c5be 3fdb 093d c4db 48bd 5b2e a33c
000002a0: 2e91 3d3d 1f48 c2bd e7fd 613e f62e 6d3d
000002b0: 29e2 7dbd 8db0 cf3d cda4 833d 47b6 e8bd
000002c0: c4b8 083d 75ae c1bd 1711 343d 3869 013d
000002d0: 28d9 cfbd ac09 7abe 6800 08bd c452 07be
000002e0: 97cb 5abd 8aa9 de3c fd6e 3a3e 03c8 99be
000002f0: 825d cf3d 2e42 83bd 986a 86be f1f8 ae3d
00000300: 5245 19be e8ce e9bc eb73 d13c b472 323d
00000310: d254 81bc 3cf6 b73c 36b7 393d 6a38 a03d
00000320: 8cad f73d ab8c 52bc 0699 18bd 37cd 5fbd
00000330: f3ec efbd 816c c73d 7463 dcbe 4068 573b
00000340: c4ae 913c a671 d73d ad1a 5abd 4fbe b23c
00000350: a4e3 d7bd b339 06be 8790 fcbd 2144 cdbd
00000360: be46 cb3d 3ccf 4fbe 2fe5 7bbe 415e 40be
00000370: 0190 a23d 1655 29bd 3c24 8b3d c526 9ebd
00000380: 8f80 c3bd 9073 e13d b4a6 813d 2c68 58be
00000390: 9090 323d 6d4f 76bd 3c48 c8bd fdfb 06be
000003a0: c28b 1bbe 5858 8fbd b074 923c 4497 e4bd
000003b0: 84e2 c8bd 2846 e1ba 507b bb3a 4a37 7fbe
000003c0: 1547 84bc 887f 193c c904 403d 154c 1d3d
000003d0: f2b2 aa3d 9c1a 1d3e d14b 06be e938 7e3d
000003e0: ee34 5d3d 3d19 a4bd 847f b0bb d6a9 b0bd
000003f0: 6f67 44bd 571e fdbc 5da3 253e 23fd 25be
0.015678197 0.032660108 0.07505596 -0.11890612 -0.06688175 -0.02378418 -0.17225689 -0.049856152
-0.23667307 0.0016029661 -0.1161211 -0.004094729 -0.05053955 -0.03910572 -0.33447695 -0.0047485414
0.02233947 -0.44300476 0.16528402 0.02073191 -0.16231231 0.006348766 0.0936821 0.07522507
0.12193103 0.005672556 0.11140142 -0.48627293 -0.11942155 -0.13871896 0.05868764 -0.16202286
0.04569947 -0.080735326 -0.06518328 -0.09893065 -0.009858176 0.026607765 -0.037943404 -0.21276966
0.069426 -0.015816739 0.09579255 -0.20672612 0.03373844 0.027378134 0.0163364 0.009452398
0.09703673 0.10084769 0.1417947 -0.045894727 -0.016825864 -0.18263459 -0.0420902 0.17991449
0.118283585 -0.00035304824 -0.24344996 -0.16784391 -0.14829946 -0.024055947 -0.11046439 0.0063630277
-0.035858147 0.13467884 -0.017972985 0.03858268 -0.16206224 -0.033302095 -0.013602073 0.024734728
-0.03255189 -0.09258967 0.08738531 -0.13608758 -0.05974703 -0.08227097 -0.053244475 0.1412159
0.01506761 -0.026442766 -0.17535888 0.10425868 -0.057348676 -0.032153428 -0.16320196 -0.12268517
-0.055867493 0.02095486 0.011395809 0.0064505683 0.079461165 0.21539111 4.908133e-05 -0.021936543
-0.07678447 0.012386421 -0.008733298 -0.033749364 -0.017471593 -0.049299423 -0.057542667 -0.20768887
0.042705648 0.06821626 0.08235067 -0.14844659 -0.40985298 -0.056293204 -0.0797643 0.12858951
-0.15004712 -0.15395007 -0.15803796 -0.18611701 0.0045036627 -0.107645646 -0.25432295 -0.09007064
0.079385936 -0.07430289 0.048639126 -0.14078334 0.0132566495 -0.09423167 -0.049880948 0.073056184
-0.14014365 -0.0003833165 -0.041070424 0.024983382 -0.14135577 -0.18674071 -0.055772353 0.089175925
0.028671307 0.04717245 -0.17248338 -0.031914085 -0.10895157 -0.20374049 -0.05897756 0.024447469
-0.0693476 -0.05323368 -0.33786684 0.02532372 -0.14553836 0.02350129 -0.08406847 0.023328105
0.0588151 0.055921238 -0.0966646 -0.04264838 0.053144515 -0.15572493 -0.0037131805 0.098508164
0.0045778165 -0.26667923 -0.1273861 -0.0421074 -0.38605654 0.033656355 -0.04903771 0.019919565
0.046281032 -0.09486412 0.22069512 0.057906114 -0.06198326 0.10141096 0.06427918 -0.11362892
0.03337933 -0.09457103 0.04396161 0.031594485 -0.10148841 -0.24417752 -0.033203512 -0.13215166
-0.053416815 0.027180452 0.18206401 -0.3003541 0.10125257 -0.06409107 -0.262532 0.085435756
-0.1496785 -0.028541043 0.02556797 0.04356642 -0.015787516 0.02245628 0.04534074 0.0782326
0.12093648 -0.012850921 -0.03725531 -0.054639068 -0.11715116 0.09737492 -0.43044627 0.0032868534
0.01778353 0.105197236 -0.053248096 0.021819262 -0.10541466 -0.13107948 -0.12332254 -0.1002276
0.099256024 -0.20293897 -0.24599145 -0.18785955 0.07937623 -0.04134091 0.067940205 -0.077222385
-0.09546005 0.1100837 0.06330624 -0.21133488 0.043594897 -0.06013434 -0.097794026 -0.13182063
-0.15190032 -0.06999272 0.017877907 -0.11161664 -0.098088294 -0.0017187046 0.0014303718 -0.24923435
-0.016147176 0.009368785 0.046879563 0.038402636 0.08334912 0.15342182 -0.13114859 0.062065993
0.054005556 -0.08012626 -0.005386295 -0.08626144 -0.047950204 -0.030898256 0.161756 -0.16209845

fc2.weight f4 [512, 256]
00000000: 5958 68bd 1cf5 06bf 8358 293e 47b4 7c3d
00000010: 5984 dc3d 2b35 38bc af5a 7dbe 27ca 10bf
00000020: 1cfe 74be 3c12 7d3d eb17 a63d c8e8 0b3d
00000030: 3bb2 843d 99ea 6fbc dc13 0ebe aee9 cd3d
00000040: 1987 5dbe aaa1 57bf ebb9 c33e 196d f2bd
00000050: 9b27 9cbe 88eb 9fba 7136 0dbe 8c2a 40be
00000060: 7420 63be 8ab2 c63e a119 a03c c0a5 25bf
00000070: 9e34 083d 70f7 42bd 7e72 9a3e 60bb 91be
00000080: 97ba c03d d99c cd3d a9bb b63c 7682 43be
00000090: b30a 4dbd 99fb 0a3e ca9a 59be 26dc b8be
000000a0: 7041 a3bd fa63 363e 2d90 f53d fdee febd
000000b0: d100 e03d ff5d dabe 14e5 36be d46f 733d
000000c0: 8e0d afbd 7fa4 cbbd ba64 3b3e 9635 aebd
000000d0: 8935 ca3b cb11 193d 58b0 6d3d b2ca 4f3e
000000e0: 87cf d0bd cc76 15bb da6e 4fbe f144 02be
000000f0: 6fc9 dabe 71fc cd3c 0c18 13be 87d8 723d
00000100: fe56 80bd ccfb 8abd 9cfd a83d 36bc 803c
00000110: cf3a 4a3d 78f9 9a3d 00a9 76be 83e7 573d
00000120: ec7a 90be cb16 c7bd 1f29 373e 4bf7 b7bd
00000130: 5052 c63d e05d 0a3e 9c8b 993d 9fd3 133e
00000140: 6cc3 2b3e d2bb 6ebc 4022 1ebe 1453 0f3e
00000150: cef7 d0bc b15f 623d 23e0 74be 3264 533e
00000160: 4f06 f93c ff60 b73c 1b18 0f3f c2d6 26be
00000170: f117 4abe d026 c03e 27ad 25bf 1351 74bf
00000180: f6ed 9dbd a8e3 283e 323e 533e 83af 22be
00000190: 97f8 6dbe 5c6b 11be 5050 d83d 6e1d 743b
000001a0: 78f5 ee3d ddb7 22be 53a9 d1bd 8483 423c
000001b0: bd25 c5be 861b 9b3c 3728 f93d f14f 553e
000001c0: 2975 4bbe d8e8 e1be 5392 853b 0652 0a3c
000001d0: 47ad ac3e 45ca eebd 4097 3dbe 6417 283d
000001e0: f4dc 4fbe ce8f ad3c c455 c43e 4a88 323c
000001f0: c33e 203e 610b babc 8a0f 6fbd 33a5 36be
00000200: 2f89 debe 7920 f2bd bf81 2dbf f0a5 0dbd
00000210: 151f 0dbd 6652 d7bd 5988 d33d 6d2a 763d
00000220: de45 01be 8bd7 27bd f6e2 81be 7504 8a3b
00000230: 32b6 55be 96e5 5ebe 47de b0be f74a cebd
00000240: 8a00 91be 5a1e 1f3d 3fe3 0dbf fdd7 e3bc
00000250: ce3e d8bd 9903 a2bc e1dc 3a3c b36d 823d
00000260: cc10 323d a427 bbbd 48eb 8ebd 806c 01be
00000270: 8f00 463e 1ce6 a03e 5d5d 863d a07d 213d
00000280: ef69 5cbe 0f52 48be bba2 f4bd d427 17be
00000290: 1efc 76be e8e4 373d 002f 1c3e 496e b73c
000002a0: b46f 4f3d cef9 90be 5e57 003f 02e8 e13c
000002b0: b17c d43d 6527 3cbc 654b e0bd 03c6 e5be
000002c0: b660 183e 79ba b93d 3459 3a3d 32a0 c03d
000002d0: e54b 41be 0027 6dbe 9afd 813c 525d c3bd
000002e0: a4e7 b5bd 7a7f 5e3e 28eb 083d f44e 6fbe
000002f0: 9672 993d bbdc 9abd 322b 83be a98e 86bd
00000300: b39e 20bd 1f74 193e 47b3 433e 02ee 373e
00000310: f158 48bd d444 a0bd 3b50 023e 7d85 1abb
00000320: d34f e33d f7c4 6d3e 6e23 cb3d 31cb 123e
00000330: 1896 103e d7ad 57bd 68ad 42bf 502a cb3d
00000340: 95bc d3bd 50ab a53e 79c9 6c3e c7c9 283e
00000350: 52ff b3bc 8ca9 f4bd fca2 08be 2548 abbe
00000360: 1080 3cbd 4294 febe 5347 6ebe 524c db3d
00000370: 82d6 963d f92d a43d b376 0a3e 290a 86be
00000380: 1e24 6abd 4270 c5bc 19e1 8e3d a0e4 bdbb
00000390: 6bf7 c1be bcb9 2a3e 5ca2 babd a703 6ebd
000003a0: 9f09 743b 7a98 453e f20d 2abd 5d0a a93d
000003b0: eae5 a5be f79b 643e e34c ab3c 46eb e4be
000003c0: 293f e73d 7ed2 09bf 8b57 b73d ce88 8c3e
000003d0: 28f1 e5bc 713e d8bd f237 1fbd dc94 9a3e
000003e0: 1aac bebd c321 8ebd eecf 3a3c e3ad 3ebd
000003f0: b0a9 b4be 88c0 ed3d adbf 183d ea73 febc
-0.05672488 -0.5271776 0.16537671 0.061695363 0.10767431 -0.011243145 -0.24741624 -0.5655846
-0.2392506 0.061784968 0.08110031 0.034157544 0.06479307 -0.014643335 -0.13874763 0.100543365
-0.21633567 -0.84231055 0.38227782 -0.11837215 -0.30498967 -0.0012200931 -0.13790299 -0.1876623
-0.22180349 0.3880809 0.01954347 -0.6470604 0.033253305 -0.047599256 0.30165476 -0.28463268
0.09410589 0.10039682 0.02230628 -0.19092736 -0.05005903 0.1357254 -0.21250454 -0.3610546
-0.079714656 0.17811576 0.1199039 -0.12447927 0.10937656 -0.42649838 -0.17860824 0.05943282
-0.08547507 -0.099434845 0.18300143 -0.085063145 0.0061709327 0.037370484 0.058029503 0.20292166
-0.10195833 -0.0022806404 -0.2025713 -0.12721612 -0.42731807 0.025144788 -0.14364642 0.059288528
-0.062665924 -0.06786308 0.08251497 0.015714746 0.04937249 0.07567114 -0.24087906 0.05271102
-0.28218782 -0.09721144 0.1788678 -0.08982714 0.096836686 0.13512373 0.074973315 0.14436196
0.16773766 -0.014571147 -0.15442753 0.13996536 -0.025508787 0.05526704 -0.23913626 0.2064369
0.030398516 0.022385119 0.5589616 -0.16292861 -0.19735695 0.37529612 -0.64717335 -0.9543621
-0.07711403 0.16493094 0.20629194 -0.15887265 -0.23239361 -0.1420111 0.105621934 0.0037248987
0.11667913 -0.15890451 -0.10237374 0.011872176 -0.38505355 0.018934023 0.121658735 0.20831276
-0.19868912 -0.44122958 0.004076281 0.0084424075 0.3372595 -0.116596736 -0.18514729 0.041037932
-0.2029913 0.021186735 0.38346684 0.010896752 0.15648942 -0.022710504 -0.05836443 -0.17836456
-0.43464038 -0.118226 -0.677761 -0.03458208 -0.03445347 -0.10513763 0.103287406 0.060099054
-0.12624308 -0.040977042 -0.2536847 0.004211957 -0.20870283 -0.21767268 -0.34544584 -0.10072892
-0.28320724 0.038847305 -0.55424875 -0.027812952 -0.10558854 -0.019777106 0.011405201 0.0636858
0.04347305 -0.0913842 -0.0697847 -0.12639046 0.1933615 0.3142556 0.065607764 0.039426446
-0.21524785 -0.19562553 -0.11945101 -0.14761287 -0.24119613 0.044896036 0.15252304 0.022391455
0.050643638 -0.28315586 0.5013331 0.02757645 0.103753455 -0.011484002 -0.1095188 -0.44877633
0.14880642 0.0906877 0.045495227 0.09405555 -0.18876608 -0.23159409 0.015867997 -0.09539284
-0.088820726 0.21728316 0.033427387 -0.23369962 0.07492559 -0.07561632 -0.25618893 -0.06570179
-0.039213847 0.14985703 0.19111358 0.17961887 -0.048912946 -0.07825628 0.12725918 -0.00235781
0.1109921 0.23219667 0.09918867 0.14335324 0.14119756 -0.05265602 -0.76045847 0.0992018
-0.103387035 0.32357264 0.2312373 0.16483222 -0.021972332 -0.11946401 -0.13343424 -0.3345348
-0.046020567 -0.49722487 -0.23269396 0.10707916 0.07365133 0.08016581 0.13521843 -0.26179627
-0.05716335 -0.02410138 0.06976528 -0.0057950765 -0.37884077 0.16672415 -0.09112999 -0.058108952
0.003723718 0.19296446 -0.041517206 0.0825393 -0.32401973 0.22325121 0.020910686 -0.4471075
0.11291344 -0.5383681 0.08952244 0.27448124 -0.028069094 -0.10558785 -0.038871713 0.30191696
-0.093101695 -0.06940033 0.011402113 -0.04655255 -0.3528571 0.11608988 0.03729217 -0.031061132

fc2.bias f4 [512]
00000000: 41b4 2f3c f878 443e fdad a53d 90a2 8cbe
00000010: e39e 273e 9355 583d a634 1cbd c15b 443c
00000020: 4ec4 b0bd 4589 ac3d 2d28 88bd 8d68 28be
00000030: 0bcc 24be 643d 03be bf66 bb3d 8d82 503d
00000040: 6c86 173c ef16 003e 56e2 bcbb 116e 863d
00000050: e950 643d fd60 0dbd 11b7 0d3e 47fa 723a
00000060: 8dd8 7bbc 4927 08bd a334 e73d 495a d63d
00000070: 96a2 f4bd 9c62 263c 6161 633c f18f df3d
00000080: 9009 84bc 3720 983c 0bdc 08bd 3b31 a8bd
00000090: d802 573d cb9c 313e 1be8 803d 348e 22be
000000a0: bf39 15be ec6d ad3d dbc6 f6bd 7bab ce3a
000000b0: c38d c03d 24af 35bd f459 52bd 46b7 cc3d
000000c0: b79f 133c 4c1f a03d 8606 95bc 055f fb3d
000000d0: b711 9d3d 103a aebd ce12 e13d f429 e5bd
000000e0: 2620 5e3c 6fb0 9ebc 185d 913d 9229 8bbc
000000f0: 7150 bcbd ec23 6abd 15b5 7a3d 2ca9 063e
00000100: 4c6c 9a3c ca10 243d 1aae bf3c 02eb 87bb
00000110: a8e4 25bd 870d 9fbd c808 183e 0000 1abd
00000120: 28e4 bb3d fbfd 24bd e3ae d6bd c904 313c
00000130: 00ad 943c e123 fb3d 6627 f83c 2d21 1e3d
00000140: 09a4 2b3d 5b04 463d e5fa 9bbd d624 cabd
00000150: 4eef e53d 6b4d f6bd ecbc 513d a5e4 323e
00000160: 4095 cfbc d644 98bd 161e c03d 301c f03d
00000170: d341 b2bc ac8e ad3d feb8 bf3d ac95 fd3c
00000180: b904 88be f7d1 ed3d 5781 ffbc 5109 d9bd
00000190: 3fb0 913d c75f 40bd a83e e9bc 075a 833d
000001a0: 915f 1cbd d376 c23d ef93 b7bd bd9b 70bd
000001b0: 6542 ffbd 3084 003e 934d cb3c a51e 153d
000001c0: 2005 373d e918 03bc b691 5dbd c335 96bc
000001d0: 00b9 84bd 9d24 b73d 196a de3d 2021 7ebd
000001e0: 4d22 253d 06a6 a63d ecd6 023e 903b d8bc
000001f0: 91a7 70bd 6350 3cbd da87 f03c 87fe 603d
00000200: bbe0 833d c8e0 8b3c 1748 653d 4d4e 69be
00000210: 1ef6 623e 646e b33c 98f9 053e cd20 47be
00000220: 53ec 4c3d d418 f63c d675 143d 7270 89be
00000230: 08a6 96bd d5ea babc 1ac1 ed3d e163 f93d
00000240: d4ae 90bc db7e 4d3c a53d c1bc 504b 023e
00000250: 571d 453d dcad b33d afb8 c73c 20c4 aebd
00000260: c6b4 0c3d 26ad a6bd d91e c6bd 3bce 093d
00000270: a319 b03d 876a 98bc 81d0 193e b632 043d
00000280: 8e6a 103e af7f 843d 0bcf b7bd bc9b ba3d
00000290: 9753 1f3d ed4a ddbd 56b8 8e3d c8f3 32bb
000002a0: 6422 663d 96cc b23d 4570 803c f381 91bc
000002b0: cc61 143c d5be 943d c7a1 0ebe 9ce1 e8bd
000002c0: 4025 b0bd 0085 a63d ebd1 b23d 746c b83b
000002d0: b379 943d 136e 8dbe f799 5dbd 2956 12bd
000002e0: 653e 393d 4344 163d 4b35 9c3b 0ea1 bb3c
000002f0: d465 e13d aa73 173d 83b2 fb3d c803 93bd
00000300: 2d33 d73b a400 a33d 8e39 74be f23f f83d
00000310: 214f 2e3d cb14 2dbe 4754 c9bc 4210 cebd
00000320: 546c 633d c89c a73c e4a1 18be d4a3 c13c
00000330: 9494 f3bd 1d81 003e 26b6 5a3d 2b24 8dbd
00000340: bd2c c13d c4d2 babd 9931 d63c 773b 033e
00000350: 87a8 863d 219c 053d 2777 853e 15ee 893d
00000360: 8f7f dcbd 6a4c 9fbd bdef 08bd ecd9 6ebe
00000370: 5c29 a83c b10b 3fbe 3f41 d53c 9ba3 0f3d
00000380: f1f7 813d 119a 00bc 0123 eabd ebd8 05be
00000390: 74b5 8e3d 2ee0 413e ae67 343d b92b 973c
000003a0: 0577 90bc 5f5d 36bc 7d1d 85bd 9e04 70bd
000003b0: ef22 6a3d 0be4 963c ed4d 5dbd 3237 423e
000003c0: 5fef 843d c593 0cbe 1aff cd3d 8ec6 923d
000003d0: 3402 b93d 5a02 5b3d ad30 6c3d 0617 c7bc
000003e0: 3092 153e 1e3f 443d 53e9 8f3d fd57 34be
000003f0: 417b 79bd d670 5bbd a539 1d3e 457d 013d
0.010724128 0.19186771 0.08089826 -0.27467775 0.16369204 0.052815985 -0.038136147 0.011984766
-0.08631192 0.084246196 -0.06648288 -0.16446133 -0.16093461 -0.12816387 0.09150457 0.050905753
0.009248357 0.12508748 -0.005764286 0.06563962 0.055741224 -0.034516323 0.13839366 0.00092688616
-0.015371454 -0.03324059 0.112893365 0.10466439 -0.11945073 0.010155346 0.013878197 0.109161265
-0.016117841 0.018570049 -0.033412974 -0.08212515 0.052492946 0.17344968 0.062942706 -0.15874559
-0.1457281 0.084682316 -0.120496474 0.0015767658 0.09402039 -0.04435648 -0.051355317 0.09995894
0.009010247 0.078184694 -0.018191587 0.12273983 0.076693945 -0.08507168 0.10989915 -0.111896425
0.0135574695 -0.01937124 0.07097834 -0.016987596 -0.091950305 -0.057163164 0.06120785 0.13150471
0.018850468 0.040055074 0.023398448 -0.004147888 -0.040501267 -0.07766252 0.148471 -0.037597656
0.09174377 -0.040281277 -0.10482576 0.0108043635 0.0181489 0.12262703 0.030292224 0.038605858
0.041904483 0.048343997 -0.07616214 -0.09870307 0.11227284 -0.12026485 0.05120556 0.17470033
-0.025339723 -0.074350044 0.093807384 0.11724126 -0.021759903 0.08474478 0.09361456 0.030955158
-0.26566103 0.11612313 -0.031189604 -0.1059748 0.071136944 -0.04696634 -0.02847226 0.06413656
-0.038177077 0.0949532 -0.08963763 -0.058742274 -0.124638356 0.12550426 0.024817264 0.036406178
0.044682622 -0.0080015445 -0.05409404 -0.018336182 -0.064805984 0.0894253 0.1086008 -0.06204331
0.040315915 0.08137135 0.12777299 -0.02639559 -0.058753554 -0.0459751 0.029361654 0.054930236
0.06439348 0.017074957 0.055976953 -0.22783776 0.22164199 0.021903224 0.13083494 -0.19446106
0.050030064 0.030041136 0.03624519 -0.268436 -0.07355887 -0.022817055 0.11609097 0.121772535
-0.01766149 0.012542452 -0.023588965 0.12724042 0.048123684 0.087733954 0.024380056 -0.085335016
0.034352086 -0.08138494 -0.096738525 0.033643942 0.0859864 -0.018605484 0.15020944 0.032274924
0.14103147 0.06469666 -0.08975037 0.09111735 0.038898077 -0.108053066 0.06968753 -0.002730595
0.05618514 0.08730428 0.015678534 -0.01776216 0.00905652 0.07262961 -0.139289 -0.113711566
-0.08600855 0.081308365 0.08731445 0.005628163 0.07249775 -0.27623042 -0.05410191 -0.0357267
0.04522552 0.036686193 0.004767095 0.022903945 0.1100575 0.03697554 0.12289908 -0.071784556
0.00656738 0.079591066 -0.2385008 0.121215716 0.042555932 -0.16902463 -0.02457632 -0.10061695
0.05552323 0.020460501 -0.14905506 0.02363769 -0.118935734 0.12549253 0.053396367 -0.06891664
0.09432361 -0.091222316 0.026146697 0.12815653 0.06575113 0.0326196 0.2606747 0.06734864
-0.10766517 -0.07778247 -0.033431757 -0.23325318 0.020527534 -0.18656804 0.026032088 0.035068136
0.06346119 -0.007849232 -0.11432458 -0.13071029 0.06968203 0.18933174 0.04404419 0.018453466
-0.017634878 -0.01113066 -0.06499765 -0.058598153 0.05716222 0.018419286 -0.054029394 0.18966368
0.06490969 -0.13728245 0.100584224 0.071667776 0.09033623 0.05346904 0.05766361 -0.02430297
0.14606547 0.047911756 0.07026925 -0.1761169 -0.06090856 -0.053574406 0.15354021 0.031613607

fc3.weight f4 [57, 512]
00000000: 548e d73e 72a6 20bd c1fe 98bc 8ed4 f93e
00000010: 73ae 01bd ec60 1b3f 0b36 f43d ee4e 453c
00000020: b1d7 963e 9e20 d1bb 4745 a7bc 29a6 de3e
00000030: 346d c83e daed 5f3e e87e e0bc 0cb5 a2bc
00000040: 392c a93d 30d1 e3bb 78ae 86bd 4aa0 b5bb
00000050: 2706 67bc ee53 fe3c 1b81 d7bc 1c8d a7bb
00000060: de11 72bc e530 383e 7ecc 06bd 473b 29be
00000070: 2ec7 7e3e 72fd 313e 41d9 0bbc 07a7 28bc
00000080: f7b6 d53d 60ee 9d3d 8a0c cbbc e645 943e
00000090: 68f1 08bc 436b 5abd 9d99 51bc d0f6 cc3e
000000a0: 99af 733e e7fc 7fbc 9a40 1f3e 0f8f f0bd
000000b0: c550 063e d8b9 003c 17f5 293e 55e1 04bd
000000c0: d2af 87bb 5103 e8bc ec2e 073e 6e11 9dbe
000000d0: 59a5 ed3d 3f99 10bc c7a1 5bbb ac4a 29bc
000000e0: 1d95 503e 8773 f43d ab54 f2bc 4f6b febe
000000f0: c9ae a03d 9198 193e a571 4abd 7eec 16be
00000100: 9a67 9ebd 9c68 4e3d 8a21 01bc 83c0 c73e
00000110: c9b1 e73c fff3 803e 9040 37bb fde1 dc3b
00000120: 20d4 e2ba 1d7e b23d 68f3 803e 474b 063e
00000130: 6e80 033e cce8 55bc 2d89 2bbb b207 20be
00000140: 1ba3 c73e f2cf 3e3b 18a0 2f3e 86f7 a73e
00000150: a5df 85bb bf93 f03b f2e5 0abc c5e6 33be
00000160: 09be c03d 18e5 1d3e 5af5 0bbd 26fa aabb
00000170: 3608 dc3d 1798 91bb 6373 8fbd 8db2 29bc
00000180: 4430 c93e 0d9b babb da00 883e bc04 c73e
00000190: 9d19 6ebd b968 8f3e 8a6d 35ba 40c1 14bd
000001a0: 9122 61bc f319 aebe 279d 093e 8f12 933d
000001b0: bd87 c73d c19b 68bd 3b0e 763e 11f0 35bd
000001c0: f010 03bc 9b27 c13d c657 483b 7664 823e
000001d0: f065 893e e4a4 e0ba 1320 97bc bf19 933e
000001e0: 5740 1abc 03ee c53a b86b c6bb af01 943d
000001f0: e5d6 553e 70b5 5bbb c1e3 01bb bae2 b7bc
00000200: 0483 0dbd 393d 13bc ca77 5abc e32d 983e
00000210: f169 7ebe ee33 cfbb 91f2 aabc 461c aa3e
00000220: 4b12 0f3e 829f 163c a6d2 7abc ce1b 143f
00000230: d906 97bc 928e b43e d1d8 a4bc 10fa a8bc
00000240: 4501 17bd 4300 f3ba 87c8 023e 0f70 25bc
00000250: 8efe 05bc fcb0 ecbb bb21 9dbc 3ef0 1c3e
00000260: c1fa 92bd f129 8dbb f779 e6be 4b3a 7fbc
00000270: 3c1b d2bd cbd1 953c bf9e 01be ad64 cb3d
00000280: b8a6 29be b5c2 9cbd 414a f03d 181c 1abc
00000290: 3bf4 0fbc 0cdc 193f 204f a4bb 3045 793e
000002a0: a645 333c 27b3 6fbd 7f9b 8ebb b0ab a4bb
000002b0: 0705 50bc 2f40 5fbe 7858 183d e87b 1d3e
000002c0: d99d 273e 9dc1 89bc 528a c1bb edcb 0abb
000002d0: 6844 81bb d859 0a3f 9fc0 1abc fe90 8bbc
000002e0: 6a38 e6bc 76bf f7bc 5260 39bc 27d1 9c3b
000002f0: b253 0abc a434 e53d aff7 1a39 743e 9c3e
00000300: 7a62 a13d d748 27be 09ab e43e d44e 25bc
00000310: acd3 65bd 1f3d 8f3e 48f0 343e d048 4d3e
00000320: 4ddb 5bbc ebf7 5fbc c5a5 033f 271f 4ebc
00000330: df6d d13e ec67 87b9 2fbf d0be 177e 333e
00000340: 728a fa3b 8710 463e b0d9 17bc 79e4 c0bd
00000350: 2235 543b 617d a23d 50b4 cebc fa74 33bc
00000360: 16ba 8f3e bde0 e13e 25ed cd3d 0fdf cc3e
00000370: 1c92 973d f1aa d43d 81f5 f43d 5a49 5b3e
00000380: 0986 52bc 998d 0ebb 4390 b4bb 1c6e 143e
00000390: 730f 29be 1460 c6bc 2e44 4dbc d84f 183d
000003a0: f071 f0bb 7dbb 2c3e b125 51bc de82 683e
000003b0: c869 b9bb 3953 b5bb 9464 b83d 11ab 9cbc
000003c0: f8d3 40bc e99f 4b3e 1435 89bc a1bd e3bc
000003d0: f7e6 4abd bdb5 e9bb 34e1 61bd b7d7 e43e
000003e0: 2300 10bb 5a4c 3f3e 303f 60bc 6a08 1a3e
000003f0: 059e 373c 0201 f63e 4121 693b 2967 373e
0.42100775 -0.039221235 -0.018676164 0.4879498 -0.03166051 0.60694766 0.119243704 0.012042744
0.29461434 -0.006382062 -0.020418776 0.43486145 0.39145815 0.21868077 -0.027404264 -0.01986172
0.08260388 -0.0069524273 -0.06576246 -0.0055427896 -0.014100588 0.03104588 -0.02630668 -0.005113257
-0.014774768 0.17987402 -0.032909863 -0.16526519 0.24880669 0.17381838 -0.008535684 -0.010293729
0.104352884 0.07711482 -0.024786253 0.28959578 -0.008358337 -0.05332495 -0.012792972 0.40032053
0.23797454 -0.015624261 0.15551987 -0.11746036 0.13116749 0.007856809 0.165974 -0.032441456
-0.0041408325 -0.028321894 0.13201493 -0.3067736 0.11603803 -0.008825599 -0.0033513175 -0.010332745
0.20369382 0.119360976 -0.029581388 -0.49691245 0.078458376 0.14999606 -0.049424786 -0.14738652
-0.07734604 0.050392732 -0.0078815315 0.39014062 0.028283017 0.25186154 -0.0027962066 0.006740807
-0.001730565 0.087154604 0.25185704 0.13114654 0.12841961 -0.013055991 -0.0026174292 -0.15627936
0.38991627 0.0029115644 0.17150915 0.32806033 -0.0040854984 0.0073418315 -0.008477675 -0.175685
0.09411246 0.15419424 -0.034169532 -0.0052178083 0.107437536 -0.0044431794 -0.0700443 -0.010357511
0.39294636 -0.005694753 0.2656315 0.388708 -0.058129895 0.28009585 -0.00069209246 -0.03631711
-0.013741151 -0.34004173 0.13438855 0.07181274 0.09742687 -0.056789164 0.24028866 -0.0444184
-0.007999644 0.09431382 0.0030569895 0.2546727 0.26835585 -0.0017138985 -0.018447911 0.2873058
-0.009414754 0.001510084 -0.0060553215 0.072268836 0.20882757 -0.0033524893 -0.001981959 -0.022446979
-0.034548774 -0.008986765 -0.013334224 0.2972251 -0.24845101 -0.006323329 -0.020867618 0.33224696
0.13971822 0.009193303 -0.015309012 0.57854927 -0.018435882 0.35265023 -0.020122917 -0.020627052
-0.036866445 -0.0018539507 0.12771808 -0.010097518 -0.008178366 -0.0072232466 -0.019181123 0.1532602
-0.07176734 -0.0043079783 -0.45014927 -0.015577863 -0.10259101 0.018288514 -0.12658213 0.09931312
-0.16567504 -0.07654325 0.11732913 -0.009406112 -0.008786256 0.6010139 -0.0050143152 0.24342799
0.010941898 -0.058520462 -0.0043520327 -0.0050253496 -0.012696511 -0.21801828 0.037193745 0.15379298
0.16368808 -0.016815955 -0.0059063816 -0.0021178678 -0.0039449222 0.5404334 -0.0094453385 -0.017036911
-0.028103072 -0.030242663 -0.011314468 0.004785675 -0.008442806 0.11191681 0.00014778854 0.30516398
0.07880111 -0.1633638 0.4466174 -0.010089595 -0.05611007 0.2797632 0.17669785 0.20047307
-0.013418985 -0.013669948 0.5142482 -0.0125806695 0.40904137 -0.00025826634 -0.40770862 0.17528568
0.0076458985 0.19342242 -0.009268209 -0.09418578 0.0032380302 0.079340704 -0.025232464 -0.010953182
0.2807166 0.44116774 0.10054997 0.4001393 0.07400915 0.10384167 0.11960889 0.214147
-0.012849339 -0.002175188 -0.0055103614 0.14495128 -0.165098 -0.024215735 -0.012528462 0.03718552
-0.007337801 0.16868396 -0.012765334 0.22706172 -0.005658362 -0.0055336026 0.09003559 -0.01912454
-0.011769287 0.1988522 -0.016748942 -0.027800383 -0.04953667 -0.0071322606 -0.05514641 0.44695827
-0.0021972738 0.1868147 -0.01368694 0.15042272 0.011207108 0.48047644 0.00355728 0.17910446

fc3.bias f4 [57]
00000000: d996 1bbe bcad bebe 9183 01bd 654f f8bd
00000010: 2b9d 14be 1e0f a4bd a244 1ebe 39d6 53bc
00000020: eeb6 adbd d7f3 c3bd b27b d5bd c262 14be
00000030: 7543 a3bc d51e d2bc 947f 98bd 6d68 56bd
00000040: edb9 1cbd ee6e cdbd 1443 12be 630d 9bbd
00000050: 8fdb 25bd d31f 68be 1a3c f1bc b887 2cbe
00000060: 64a4 f6bd 78a1 f2bd 2090 e9bd dd1f 32be
00000070: 22c7 babd 3548 bcbd c0bf 3fbb bde5 67bd
00000080: b675 33be 61c2 37bd 704e f8bd e010 28be
00000090: 4c54 92bd 7704 d8bd 28b8 8cbd f35c 72bd
000000a0: 2a65 92bd 3682 d3bd 1246 12be 460c 69bd
000000b0: d160 11be b6fb 26be 006b 1ebd eabb e8bd
000000c0: 2b1b c7bb 7efe dabd c672 b7bd 0815 603a
000000d0: 20f3 13be 14f0 0fbe a54a f8bd 1023 ebbd
000000e0: e576 eb3c
-0.15194263 -0.37241924 -0.031619612 -0.12124518 -0.1451308 -0.08010696 -0.15455869 -0.012929493
-0.08482157 -0.09567993 -0.10423984 -0.14490798 -0.019929627 -0.025649467 -0.074462086 -0.052345682
-0.03826325 -0.10030924 -0.14283401 -0.07570913 -0.04049259 -0.2266839 -0.029447604 -0.16848648
-0.12043074 -0.11847204 -0.11404443 -0.17394967 -0.09120013 -0.0919346 -0.002925858 -0.05661558
-0.17525372 -0.04486311 -0.12124336 -0.16412687 -0.071449846 -0.105477266 -0.068710625 -0.059170675
-0.07148202 -0.1032757 -0.14284542 -0.05689647 -0.14197089 -0.16306958 -0.038676262 -0.11363967
-0.0060762367 -0.10693072 -0.08957438 0.0008548056 -0.14448214 -0.14056426 -0.12123612 -0.11481297
0.028743217
