PSG_dataset/ckn/2223.pt (torch, 840791 bytes, 6 tensors)

fc1.weight f4 [256, 190]
00000000: 2e2f 09b7 12d9 a9bc 3acf 9dbe 3c3e 08bf
00000010: fdc2 323e c165 02be 5b0c 4d3f 0924 893d
00000020: a715 13be bb34 04bc 0e18 193f a0f3 48be
00000030: 7447 083e 8438 b6be aa14 c43d 52af 713e
00000040: 6951 f8be b2b2 23be 7209 0dbe e8c9 8b3e
00000050: a098 87bd 5c27 653e 987b 2abe c627 07be
00000060: c3b7 2c3e 5f3f f53d f943 4cbe 0d59 77be
00000070: e551 0f3f b71e ea3e 557d c8bd d582 643f
00000080: 5b4f 87be b005 97be 5695 34bf d603 a23e
00000090: 371a c6bd 139d d63e 1267 30bf 69aa 493e
000000a0: 23f3 a73e 1ef6 b63d 4f32 333e bb33 e63d
000000b0: 8af5 29bf 7a1f a4be 1f8c d83c eb5b fabe
000000c0: d4fa f83d e31a 8fbd e83c ac3e a952 b63e
000000d0: 1f7e d7be 7832 f1be 935f bf3b 0348 cc3d
000000e0: 9642 aa3e d161 833e 220d a9be 708f bebe
000000f0: 0f58 413c 589a f5bc f14f c63e 4638 963e
00000100: acb6 9fbe ed72 e8be da24 90bb 0313 2a3d
00000110: 4ff0 c63e 2717 bf3e d47f a3be 4192 c2be
00000120: 606f d03c 590a 953d 7a7b a03e 85a8 b43e
00000130: 891a c4be bf7c eebe 4e0b 3b3c 337d c53d
00000140: 9956 97be 3912 81bd 892a babe 8602 82be
00000150: c408 563f 9a51 113d 294d 893e 8c0f f9bd
00000160: 51ec 9e3d d402 4fbe 3da4 8f3e 7a36 513f
00000170: 0a59 363f f6ac 33be 63de 513e 9a78 f13b
00000180: 0b85 1fbe 09ed 25bf 73d8 3a3f 1e11 b13e
00000190: 05f3 b8bd 0fe8 5dbd 079a 90bd ae77 fc3e
000001a0: 0b35 163e 63e7 9ebd ec9a 903d 2d36 ecbe
000001b0: 05c4 03be 7903 4abf 8223 f43d 8c43 76be
000001c0: 246e 383f 2d23 fd3d 658a 343e 5ea4 b03e
000001d0: 7117 80be eb20 cbbd 3d13 233f 3f8d 5e3d
000001e0: 2c6d 8c3e 239f 7d3f 8b4a 65be 1da0 c13e
000001f0: a328 b23e b5e0 00bf d01b fe3e 0a49 e33e
00000200: 0014 b1bd 21f9 ac3e 3940 aa3e aa45 bd3e
00000210: 755f e6be 9411 21bf 9783 bd3d 0a0a 01bd
00000220: ac2c 863e fac4 883e d6a3 c1be 1f73 24bf
00000230: 1a42 873d c266 18bd 4205 733e e1d2 bb3e
00000240: 8079 e0be f694 18bf fefa 473a d65e 59bd
00000250: 4fb7 6d3e cbb4 a83e b20a debe 1dc5 1bbf
00000260: 5e7d 493d 5d37 9ebc 8ca6 a03e 7a3a a13e
00000270: e204 eabe f681 1ebf 5b4d 983d a104 0f3d
00000280: 08d4 7a3d 5308 f03d 35c8 bebd 4fb4 79be
00000290: 5715 0b3e e761 343d c6d4 e03c fe18 d53d
000002a0: 7aa3 c7bc e13c 81be 7c99 f73d 7824 ab3c
000002b0: db2a bf3d 4584 0c3e a8e8 7bbd 3782 4bbe
000002c0: 40f9 df3c 74b6 113d 1957 ae3d b0be d23d
000002d0: a241 c5bd 4925 51be e462 123e e0a4 01bd
000002e0: d040 283d a51d 183e 2ead debd fa52 02be
000002f0: a2db a13c 2fe1 7ebc c2c5 a33d 6e8c aabf
00000300: b318 a1be 65ea 92bf 5df3 a6be 2e67 3bbf
00000310: 55da a73a c7ac 85bf 8929 203e e5a1 e1bd
00000320: 1890 40bf 8291 bdbf 94d0 343e 1b90 78bf
00000330: 2682 6abe 3893 293f 4487 2c3e a3ba d2bf
00000340: af24 82bd 8521 8e3e 0175 89bc f165 86bd
00000350: 3b23 87be 9601 88bf 2cac c8bf 028b d23e
00000360: 7ffd 913d 56cf c83d 9d9d 47bf 98d7 a03e
00000370: 12cd 6bbe 24c9 8b3f 9aec 093d 2ad4 703e
00000380: b829 4c3f 3d0b d2bd 060e a23d 85d2 da3e
00000390: 4d0b 70be 24e1 913e a3eb d8be 4150 1d3f
000003a0: 9104 923f a45e 2e3e 296b 40be 20d8 5b3f
000003b0: 4636 debe 7062 043f 2437 2f3e 5efa d7be
000003c0: 1aa7 343e 5b0c a4bc eb96 0e3e 3276 653e
000003d0: 4f01 0e3e 6f69 5d3e fd6b 013e 0a5a a1bc
000003e0: 3f4c d93d ecac b33e 0929 093e 35cf 493e
000003f0: 65eb 103e 75e1 a3bc e620 a83d 0a8a b63e
-8.176821e-06 -0.02073339 -0.30822164 -0.5321996 0.17457195 -0.12734129 0.8009698 0.06696326
-0.14363728 -0.008069213 0.5980233 -0.19624186 0.13308507 -0.35589993 0.09574254 0.23602036
-0.4849961 -0.15986136 -0.13773134 0.2730248 -0.06620908 0.22378296 -0.1664871 -0.13198766
0.16866975 0.11974978 -0.19947805 -0.24155064 0.55984336 0.4572656 -0.0978953 0.89262134
-0.2642773 -0.29496527 -0.7054037 0.31643552 -0.09672969 0.41916713 -0.6890727 0.19693913
0.32802686 0.08933662 0.1749966 0.112403356 -0.6639029 -0.32055265 0.026434002 -0.48898253
0.12157217 -0.0698755 0.33640218 0.3560994 -0.4208841 -0.47108817 0.0058402508 0.09974673
0.33253926 0.25660565 -0.33017832 -0.3721881 0.01180078 -0.029980823 0.38732865 0.29339808
-0.31194055 -0.4540018 -0.0043989243 0.041522037 0.38855216 0.3732235 -0.31933463 -0.38002208
0.025443733 0.07277364 0.31344205 0.3528482 -0.38301495 -0.4657955 0.0114162695 0.096430205
-0.29558256 -0.06302304 -0.36360577 -0.2539255 0.83607125 0.035478212 0.2681668 -0.121611685
0.077599175 -0.20215923 0.2805499 0.8172375 0.7122961 -0.17546448 0.2049499 0.007369113
-0.15578096 -0.6481481 0.72986525 0.34583372 -0.09030727 -0.054176386 -0.070606284 0.49310058
0.14668672 -0.07758977 0.07060799 -0.46135083 -0.12867744 -0.7891155 0.11920835 -0.24049205
0.7204306 0.12360225 0.17630918 0.34500402 -0.25017884 -0.09918388 0.6370123 0.05433392
0.27427042 0.9907095 -0.22391717 0.3781747 0.34796628 -0.50342876 0.49630594 0.44391662
-0.08646393 0.3378382 0.33252123 0.36967212 -0.44994703 -0.6291745 0.092536144 -0.031503715
0.26205957 0.2671278 -0.3782031 -0.6423816 0.06604405 -0.037207372 0.23732474 0.36684325
-0.43842697 -0.59602296 0.00076286483 -0.05306896 0.23214458 0.32950434 -0.43367535 -0.60847646
0.049191825 -0.019313509 0.31377065 0.31489927 -0.4570685 -0.61917055 0.074366294 0.034916524
0.061237365 0.11720338 -0.0931553 -0.24385189 0.13582359 0.04403868 0.027445208 0.104051575
-0.024369944 -0.2524176 0.12089822 0.020891413 0.09334346 0.13722332 -0.061501175 -0.19873892
0.027340531 0.03557439 0.08512706 0.10290277 -0.09631659 -0.2042438 0.14295536 -0.031651378
0.041077435 0.14855058 -0.10872875 -0.12726966 0.01975805 -0.015556618 0.07996704 -1.3324106
-0.31464157 -1.1477782 -0.32607546 -0.73204315 0.0012806157 -1.0443352 0.15640844 -0.11017207
-0.7521987 -1.481003 0.17657691 -0.9709489 -0.2290121 0.66240263 0.16848475 -1.6463207
-0.06354653 0.27759948 -0.016779425 -0.065624125 -0.26394066 -1.0625484 -1.5677543 0.4112168
0.07128429 0.09805171 -0.77974874 0.31414485 -0.23027447 1.0920758 0.033672906 0.23518434
0.7975116 -0.1025605 0.07912831 0.4273874 -0.23441811 0.2849208 -0.42367277 0.6145058
1.1407644 0.1702829 -0.18790878 0.85876656 -0.43400782 0.51712704 0.17110878 -0.42183203
0.17641869 -0.020025423 0.13924758 0.22408369 0.13867687 0.21622251 0.1263885 -0.019696254
0.10610246 0.35092866 0.1339456 0.1970795 0.14152296 -0.020004967 0.082094 0.3565219

fc1.bias f4 [256]
00000000: eaf7 eb3d 8273 55bf 857d f73d 6e40 e8be
00000010: a358 c63e eaf7 67bc 4563 bc3e 7823 43bf
00000020: 936b 6d3e 5f3a dfbe bdd3 113e 8c3d a7be
00000030: 5656 263e 592e b9bd a9e4 00be 53af 11bf
00000040: 83d9 2bbe c0a8 06be af29 85be 06b3 05be
00000050: a7b4 15be 5088 e23e 2a6b 05bf 6848 0c3f
00000060: 74ab 8c3d 9774 373e 792a 5abf ff40 06bf
00000070: 2d4e d5be c606 7fbd 102a b53e 587b 26be
00000080: 17e7 e73d d1f0 82bf 831f b2be eb4a 95be
00000090: 9936 e53d f331 a4bd f1ab 543e 1b0a 80be
000000a0: 7f8b 5dbd addf f23e 685e 753e 2363 d1bd
000000b0: a845 07be b7c1 333c ed13 afbc 74a0 1abf
000000c0: f337 913d c968 d2be a304 e2bd 7c23 3bbe
000000d0: c3e2 b0bd ec9d 1fbf a977 a9be 2237 fb3d
000000e0: 64e3 d73d 4574 4dbe 9f96 7cbc 81f0 e0bd
000000f0: f4ca 2cbe 4a16 01be 86d5 eb3e 6235 e6be
00000100: ffdb 0abf 1999 9d3e 4109 f3be c3f3 f7be
00000110: 24c5 18bd 7aab f5be d596 60bf 66bd 213d
00000120: 7002 9ebe 6da5 fd3e d5b7 09be 51a9 14bf
00000130: e5be af3e e69d b9be cba2 aabc b4c9 f53c
00000140: 8d78 8ebd 35a6 3d3d fa90 7ebf df42 92bd
00000150: dfa0 4dbe a5df bdbe df8b 823e da1b 983c
00000160: c816 94be 9038 e63d c7cb ba3e 4a0d 07bf
00000170: 5263 40be c212 27be 2f09 fabe afee adbe
00000180: d5e8 bdbe bcd5 c43c c4bd d53e 3bae 01bf
00000190: 6984 b4be 412e 0abf bf16 8a3c 309e 8dbe
000001a0: 63f7 5bbe 1929 8f3d b7cd e7bd b614 9f3e
000001b0: 9d04 823d 48ad 80be 53a7 d2be 852f a2be
000001c0: 997e 72be f173 49be b73e 333e 6868 713c
000001d0: 38ec 1dbf e470 d9be d92f 113e 0ed3 513d
000001e0: c340 e8be 6822 d63d 184a 74bd 1bf6 6ebf
000001f0: 6b46 9dbe 78b5 03bf 3153 6ebf 096c d93e
00000200: 20d1 8abe e644 d6bd 1d32 8a3e 50f9 e53b
00000210: e28b 45bf c656 0abe 8362 31bf f738 e8be
00000220: 7652 1a3d a69b 883e 7a9d c53e f53d 5bbf
00000230: 1b04 5a3e 040a 15bd cb0d 19bd 2f1c 443e
00000240: ba90 cdbd b039 bdbe 6c97 8c3d 6fb6 043e
00000250: 82f3 14bf 504a 03bf 7715 bbbe bba2 efbe
00000260: 5e2f 7e3e fec4 08bf a02d b93e aacd 233c
00000270: 43b3 bcbe 0fbe 843e 9586 9cbe 0ca1 d1bd
00000280: 573d b63d 84ae b4be e716 36be 4b87 cabc
00000290: a90f e9bb 63f3 c2be f96f 29bf 79f8 2fbd
000002a0: d011 de3c 2139 37be ba7c 273e 1e83 3b3e
000002b0: 1b3c c1be e4db afbd 2f5b 5dbf 969d 523d
000002c0: ab56 d5be 579c bdbe f0c5 a3be d226 8f3e
000002d0: 5a1b b4be ab19 8cbb bb3c a3be d8ab 71be
000002e0: 852b 01be ba00 02bf 5b60 83be 3486 e1be
000002f0: a14f 1ebe 9a69 69bd 5569 bd3c da3e 89bf
00000300: d373 273f 3a64 83be 38da 58bf 0038 2b3f
00000310: 60b4 8a3d 0c35 c73d 7060 063e d5f2 e2be
00000320: 08ee f5be 1b86 f1be 19f0 50bf de77 a2be
00000330: de39 d2bd fae6 8dbe 09f0 58be 8235 77be
00000340: 376f 2dbe a98e 5fbc fe6c c9be 94ba 06be
00000350: fa74 e7bd 3271 c83c dfec 58bf 764b 22bf
00000360: 2e4d a03e be6b 31be b267 0ebe 53c0 dcbe
00000370: 7b54 55bf f1d6 e4be f122 0ebf 9609 0ebf
00000380: d806 59bf 443a fbbd 0660 23bf 6a39 2bbf
00000390: 8976 043d 26f4 46be c63c 85be 05ea 6abd
000003a0: 7a71 2fbf 4e46 ccbd 9c75 b9be 0553 44bd
000003b0: 3278 8cbe b379 633e dee4 1fbe e8b6 993d
000003c0: c28b de3e ad5c 143c 97d7 04bf 7055 083e
000003d0: 316e 0e3f 5db3 5dbe fdb8 20bf df6e f0bc
000003e0: 458f cb3e 2d17 6d3d 84ab 73bf 4824 14bf
000003f0: 90fa e6be 4dd9 90bc caf7 14bf 9731 c93d
0.11521895 -0.83379376 0.12084488 -0.45361656 0.387395 -0.014158228 0.36794487 -0.76225996
0.23185568 -0.4359922 0.14240928 -0.32664144 0.16243872 -0.09042043 -0.12587227 -0.5690815
-0.16782193 -0.1315031 -0.26008365 -0.13056573 -0.14619695 0.44244623 -0.52116644 0.54797983
0.068686396 0.17915569 -0.8522106 -0.52442926 -0.41661206 -0.06226232 0.35383654 -0.1625799
0.11323374 -1.0229741 -0.34789667 -0.2915872 0.11192054 -0.080173396 0.20768715 -0.2500771
-0.054088112 0.47436276 0.23961794 -0.10223987 -0.13210166 0.010971478 -0.021371806 -0.6040108
0.070907496 -0.4109557 -0.11036041 -0.18275255 -0.08637001 -0.62350345 -0.33099106 0.12266375
0.10541418 -0.20063885 -0.01541677 -0.109833725 -0.16874295 -0.12606159 0.46061343 -0.44962603
-0.5424194 0.30780867 -0.47467998 -0.48428163 -0.037297383 -0.4798239 -0.8773015 0.039487265
-0.30861235 0.49540272 -0.13449033 -0.58070856 0.34325328 -0.3625328 -0.020829579 0.030003406
-0.06956587 0.046301086 -0.99439967 -0.07141661 -0.20080899 -0.3708469 0.25497338 0.018567968
-0.2892363 0.11241257 0.36483595 -0.5275465 -0.18787888 -0.1631575 -0.48835132 -0.33971164
-0.370917 0.024027698 0.41746342 -0.5065648 -0.3525727 -0.5397683 0.01685655 -0.2765975
-0.2148109 0.06990261 -0.11318534 0.3107049 0.06348536 -0.25132203 -0.41143283 -0.3167688
-0.23681106 -0.19673134 0.17504393 0.014734365 -0.61688566 -0.4246894 0.14178409 0.051226668
-0.4536191 0.10455781 -0.059640974 -0.9334428 -0.30717787 -0.51448774 -0.9309569 0.42465237
-0.27112675 -0.1046236 0.26991358 0.0070182458 -0.7716657 -0.13509664 -0.6929094 -0.4535596
0.037676297 0.2668125 0.38596708 -0.85641414 0.21290629 -0.036386505 -0.03736667 0.19151376
-0.1003737 -0.36958075 0.06864819 0.12960218 -0.58184063 -0.51285267 -0.36539814 -0.4680384
0.24822757 -0.53425586 0.36167622 0.009997765 -0.36855516 0.25926253 -0.30571428 -0.102357954
0.088984184 -0.35289395 -0.17782174 -0.024722716 -0.0071124625 -0.38076314 -0.6618648 -0.04296157
0.027108103 -0.17892887 0.16356173 0.18311736 -0.3774117 -0.08586863 -0.8646726 0.051419817
-0.41667685 -0.3703334 -0.31986952 0.27959305 -0.35177118 -0.004275521 -0.3188227 -0.2360071
-0.12614258 -0.5078236 -0.2565945 -0.440477 -0.15460064 -0.056985475 0.023121515 -1.0722306
0.6541111 -0.25662404 -0.84707975 0.66882324 0.06772685 0.09726915 0.13122725 -0.4432589
-0.48033166 -0.47172627 -0.8161636 -0.31732076 -0.102649435 -0.27715284 -0.21185316 -0.24141505
-0.16936956 -0.013644853 -0.39340967 -0.13157111 -0.113016084 0.024468038 -0.84736437 -0.63396394
0.31308883 -0.17326257 -0.13906744 -0.43115482 -0.8333203 -0.44695237 -0.55522066 -0.55483377
-0.8477607 -0.12266973 -0.63818395 -0.6688448 0.032339606 -0.19429073 -0.2602293 -0.057352085
-0.68532526 -0.09974347 -0.3622254 -0.047930736 -0.27435452 0.22214393 -0.1561465 0.0750559
0.43466002 0.009055299 -0.51891464 0.13313842 0.5563689 -0.21650453 -0.6278227 -0.029349742
0.39757743 0.05788343 -0.9518359 -0.5786786 -0.4511304 -0.017681742 -0.58190596 0.09823912

fc2.weight f4 [512, 256]
00000000: 411d 01bc d2a3 783e f7d7 993a 3eb8 703e
00000010: e842 84bd 34ac 6bbe ecc3 40bd 08bf 2e3f
00000020: 677d 85bd 190b e1be 4804 7dbd 5f0d bebe
00000030: ebee 97bf cb17 be3e e393 373e e130 08be
00000040: e041 d7be b9e6 3a3f 6395 be3d ae22 b5be
00000050: dfeb 79bf 8ce5 28be b07e 85bf 97a0 9f3c
00000060: 3b40 18bf 4ef1 efbd 5fcb edbe d5d4 abbe
00000070: d639 cf3c 7233 02bf fd70 6f3e d594 20bd
00000080: a850 a93e 741e 8ebd d30d e8be 2b64 39bf
00000090: c8d1 d43e 6ff0 f1be a9d9 dabd a64c 17bf
000000a0: b412 dc3c 5312 113f 7368 54bf 31d4 17be
000000b0: 555d bbbe c08f 313d ec98 a03e bd77 033f
000000c0: 7732 15bf 6bdc d5be 1b8b dfbc 310f b73e
000000d0: 34e6 1f3f c756 3c3e 52c3 85bf 9deb 4ebf
000000e0: 6ef4 80be 48c0 e7be c540 9b3e 4dbe 59bf
000000f0: 1266 1ebf db09 3bbf cdf5 10be cf86 e43c
00000100: 87b0 a4be b976 b03e 5f61 a33c 3d47 943e
00000110: 2f0a 2e3f 163f 46be 7480 bcbf 60d1 56bf
00000120: 82c4 833e 7249 c0be 3c88 f0be c719 34bf
00000130: 7dd4 d6bf c4ba c5be b377 473e 0e02 1c3e
00000140: bc5a db3e 4c51 2bbe eaa0 38bf d3e7 973e
00000150: d90e a13e 746a d23e 7f6f e5be 5fe2 19bf
00000160: 4c06 2dc0 841f 15be 668b 8dbd 6ad9 c1bd
00000170: 6e1a 3abe 75f0 b13e 69cc c9bb 4696 d5be
00000180: 70cf 5fbe 601d 1cbf 1285 813e fd77 093e
00000190: 5ecd 12bf 09d1 11be da80 27bf 9f1f 94bf
000001a0: 8dc8 7b3e 1b71 293e 4b43 993e ecb6 d63b
000001b0: 2e3c 213e 48a8 1b3f 4bf6 6dbf e35b d8bc
000001c0: 6ff3 4ab9 ce11 7b3e 2bc7 343e 6cb4 263e
000001d0: 591e 02be 7402 ba3e 9875 833e 6dc9 d7be
000001e0: a07f bd3e c949 a83e 01c9 b9bd 031e 13be
000001f0: 3a06 17be 2621 78be 9c01 2e3e 751f 193e
00000200: 97eb f53e 1cee b53e 3a0e 803e aaec 313f
00000210: bb6d 21bf 67f3 713e 1fae b03d 9a99 1e3f
00000220: 88cf a2be 0157 c93e 94b6 0fbf b737 77bf
00000230: 7e67 293e 28e1 7c3e d44c eb3e 961e eb3e
00000240: 33f4 f6be d1ad 3fbe 61d6 e83e 033c d1be
00000250: 6c3e 073e 60a1 11bf 9d9f 163f a6b6 febe
00000260: 1e7b f7be 61b9 ddbf a983 a0bd 5326 4b3e
00000270: 5a20 003f d037 b83e df64 893e a8ce c93e
00000280: c8e4 143f 874e e3bd c836 9abe f849 1c3f
00000290: af4e 2f3c 419c 75bd cc4e e33e 787a 96be
000002a0: 786f 233f ee09 80be 672e 70be 78a2 37bf
000002b0: ed5b 3dbe 0e10 8bbe b47e b83e f3e7 b6be
000002c0: 6351 68bf 02b5 a83e 16c5 963e 6b4b d7bc
000002d0: a6ad 5fbe 08de 3dbe c74b 5b3e 2b34 a9bc
000002e0: 99ec 9dbe f43f 19be 1ce3 82bb c3ee 1cbe
000002f0: efe7 1bbf 0203 20be 479a a2be 0654 903d
00000300: ea34 9e3d c524 90be 670f fc3c 12f0 9abe
00000310: 3b1c 98bc a8a3 cc3e 4e55 123d 87b8 bfbd
00000320: 3fce cbbe 1731 bc3e afdb 61bd e201 cb3e
00000330: 6d23 da3d b07b 6ebd 0cee 2e3f 1035 40be
00000340: 9209 b63d 9813 c5be 07c0 96bb 5361 a23d
00000350: b1a0 303e 80e4 de3e 06af 94be 1161 563c
00000360: 655f 2c3f 92df 57bf fb97 51bd aa29 82bd
00000370: 811e c53e 38ad 4dbe 708e 43be 0a55 76bd
00000380: 9b44 633b ce3a d7bd ab4b 893e 6c98 c63d
00000390: 5798 8b3e 2e18 b7be 09bd 7abe 7b48 2d3e
000003a0: c954 fd3c eeaa 34be 9c38 b93c 4fa0 a6be
000003b0: 4523 ddbc 4443 71bc 881d 043d ca56 c63e
000003c0: d1bf 0a3e ea3c a93e 11ed 3a3f daeb 40bf
000003d0: 0754 373e dab7 e0bf 75c3 be3e 680f 27bf
000003e0: c749 c63d f51f 813e 858a d6be f123 12bd
000003f0: f96a 3e3e 61cf 45bd eb94 953e c74b eb3c
-0.00788051 0.24281242 0.0011737336 0.23507783 -0.06458074 -0.23014909 -0.047061846 0.6826024
-0.06518059 -0.4395378 -0.06177166 -0.37119576 -1.1869787 0.37127528 0.17927508 -0.13299896
-0.42042446 0.73008305 0.09305837 -0.3537802 -0.97625536 -0.16493815 -1.0429287 0.019485755
-0.5947301 -0.11715947 -0.46444222 -0.33560815 0.025296133 -0.5085975 0.23382945 -0.039204437
0.33069348 -0.06939402 -0.45323047 -0.7241847 0.415663 -0.4725375 -0.10686047 -0.5910133
0.026864387 0.56668586 -0.82971877 -0.14827038 -0.36594644 0.04334998 0.3136667 0.5135458
-0.5828013 -0.41769728 -0.02728801 0.35753778 0.6246064 0.18392478 -1.0450232 -0.8082827
-0.25186485 -0.45263886 0.30322853 -0.85056 -0.61874497 -0.73061913 -0.14156266 0.027896313
-0.3216593 0.34465578 0.019943891 0.289606 0.6798429 -0.19360003 -1.4726701 -0.8391323
0.2573586 -0.37556034 -0.4697894 -0.70351833 -1.6783596 -0.38619053 0.19479255 0.15235159
0.42842662 -0.16730231 -0.72120535 0.29669055 0.3145664 0.41096842 -0.44811627 -0.6011104
-2.7035093 -0.14562804 -0.06911354 -0.094652966 -0.18174145 0.34753767 -0.006158401 -0.41716212
-0.21856475 -0.6098232 0.25296837 0.13424678 -0.57344615 -0.14239897 -0.65430987 -1.157215
0.24588223 0.16547053 0.29934153 0.0065525677 0.15745613 0.6080365 -0.9295394 -0.026411003
-0.00019354907 0.2451851 0.17654102 0.16279763 -0.12706889 0.36329997 0.25675654 -0.42145863
0.37011433 0.32868794 -0.090715416 -0.14366917 -0.14748469 -0.24231395 0.16992801 0.14953406
0.48031303 0.35533226 0.25010854 0.69501746 -0.6305806 0.23628007 0.08626961 0.6195313
-0.3179896 0.3932419 -0.5613797 -0.9656939 0.16543385 0.24695265 0.45957053 0.45921773
-0.48233184 -0.1871865 0.45476058 -0.40866098 0.13207406 -0.56886864 0.588373 -0.49748725
-0.48336118 -1.7322198 -0.07837612 0.19838838 0.50049365 0.35980082 0.2683477 0.3941548
0.5816159 -0.11098962 -0.3011992 0.6105037 0.010699912 -0.05996347 0.44396055 -0.2939031
0.6384196 -0.25007576 -0.23455201 -0.7173228 -0.18492098 -0.27160686 0.36034167 -0.35723838
-0.90749186 0.32950598 0.2944724 -0.02628108 -0.21843585 -0.1854173 0.21415626 -0.020654758
-0.30844572 -0.14965802 -0.0039943587 -0.15325455 -0.6090078 -0.15626147 -0.3175833 0.07047276
0.07724936 -0.28153053 0.030769063 -0.30261284 -0.018568149 0.3996861 0.035725884 -0.09361368
-0.3980579 0.36756203 -0.055141147 0.39649874 0.10651288 -0.058223426 0.6833198 -0.18770242
0.08888544 -0.3849151 -0.004600528 0.07928719 0.17248799 0.43533707 -0.29039782 0.013084666
0.6733306 -0.84325516 -0.05117033 -0.06355603 0.38499835 -0.20085609 -0.19097304 -0.060139693
0.0034678343 -0.10509263 0.26815543 0.09697041 0.27264664 -0.35760635 -0.24486174 0.1692218
0.030924218 -0.1764333 0.022610001 -0.3254418 -0.026994357 -0.01472551 0.032254726 0.3873809
0.13549735 0.33054286 0.73017985 -0.7535988 0.17903148 -1.7556107 0.37258497 -0.65257883
0.09682041 0.25219694 -0.41902557 -0.035678808 0.18595494 -0.048293475 0.29215178 0.028722657

fc2.bias f4 [512]
00000000: dcf9 f8be 28ee 35bf 8068 95bf 4b2e 84bf
00000010: 8400 2b3f ea94 18bf 808e fe3e ae61 ccbe
00000020: 585d d13d c1a0 5cbf e634 d0be ab25 883e
00000030: cb2f 463e 01cf 20bf 6384 31bf 348d 67bf
00000040: 227b 1c3d 0493 fbbe b1fb ddbe b77d 1bbf
00000050: ec86 003e 0f9c 98bf 1d55 4abe 5ada db3e
00000060: f451 9f3d 8369 30be 8686 cebe a3fd 72bf
00000070: 14a3 26bf e194 bbbe b4cd ae3e 00af 52bf
00000080: 3405 b93e cb3e d23d 5cd7 95be 342f 9fbe
00000090: edef b03e 6197 33bf eb3b 15bf 3490 74bf
000000a0: 68d4 c4be 8e5c 31bf 14bc 22be 8c19 81bf
000000b0: b1ef c0be 85d6 46bf 6799 febe 15f2 d7be
000000c0: e181 5b3f e189 41bf c9c4 64be e437 57bf
000000d0: deab c3bd 2ea4 10bf 591d 9a3e f829 9bbe
000000e0: 6a48 09bc 7535 83be 9551 8ebf c4c6 f53e
000000f0: d3d5 8ebf c206 99bf 0b97 a03e 3d08 0cbf
00000100: 764f 433e 2be8 5a3f e977 5ebf b16c d8be
00000110: bc12 84bc d44d dabf 8a8a 75be cd3d 9fbf
00000120: c57f 3bbf ad6b 153f dafa f83d 8ce9 07be
00000130: 9bef b13e 34d8 bdbf 60eb c0bd 1b18 a8bf
00000140: a318 65bf 4c7a 76bd e04b 453e 6a3f 03c0
00000150: f75d 6a3f 5262 00bf 7df9 033d fb59 243e
00000160: b08c c43d c470 143f 32d1 013c ecf0 52bd
00000170: 9cc8 ffbd 0b4a 93bf 7f6b 6dbf 85bf c7bf
00000180: 3b5d c5bd 8571 bfbe 9628 5ebe 25f0 99be
00000190: a2a6 063f 230c 72bd ae40 42bf 5ae3 86be
000001a0: 2326 17bf c9b3 bbbe c756 1bbf 174d eabd
000001b0: 9af8 3ebf 711b 4ebf 6ae9 4cbf 1a90 c9bf
000001c0: a491 23bd a6bb b2bf 1e78 aabd 1e8c 1d3f
000001d0: ea30 f0be 2981 90be 5e3c 43bf 2e42 393e
000001e0: 0e2e 2ebf 5f61 80bf a04e 4ebf 452f 543d
000001f0: 7f3f 03be 03e8 dd3d c414 83bf 45c5 e9be
00000200: d320 66be 25f6 43bf eb97 b2bd bed7 61bf
00000210: 2347 54bf aef4 bcbd 3a76 76bf b6f4 06be
00000220: f365 ff3e 8e4b 3abf 64f3 98be 1280 d3bf
00000230: 2ee5 bfbe 1eb3 61bd eaff 06bd 8810 f1be
00000240: b11b 9bbd a1e8 03be 90f2 63bf ea7a 2fbf
00000250: 0645 8ebf 4c6a 27bf 842c bfbe 27c1 0abe
00000260: 7fde c4bd d875 47bf c5c6 cdbe 5c8c a1bf
00000270: 23d9 72bf 8403 04bf 2390 5abf 6229 3a3f
00000280: 39b6 81bf 33b3 3f3f 6c6d 673e ba5a fe3d
00000290: efd3 b3bd d796 2fbf afbd 92bf 04fa 67bf
000002a0: 90b4 0ebf 0316 5f3d a65e 39be 4564 96bd
000002b0: 5f6a 17bf b59d 34bf d792 67bf e3c3 2e3f
000002c0: 0945 0338 0b88 15bf f571 edbe 935a 16bf
000002d0: 4ae9 ad3d 2c5f 87be 81bb 75bf 4be7 953e
000002e0: 1a9a 1ebe 298e 0dbf 9f68 32bf 5dcb e1bd
000002f0: 8c7f debe 28fc 5f3c 53f3 123a 1c42 ef3b
00000300: 436c 783e bf94 17be 3d09 06be 5fef 53bf
00000310: 95bc 54bf 7b2b ab3d a22f 9abe cedc d1be
00000320: 6818 98bf 8aff b03e acac 9bbf e820 d13e
00000330: 1be3 e9be 6159 9e3e cfd0 d2bf 88bd 903e
00000340: d73c 4dbe e9f6 ba3d 60d6 423e d17b 5cbf
00000350: b0e1 2ebf 18c2 073e f219 29bf 70ce 54bf
00000360: 16a3 b8bd 93cd e6bd 74ae 33bf 2e1f a93e
00000370: e643 76be 9958 f4be 7751 03bf 0248 babd
00000380: d0f1 efbc 8ed6 d7be 1374 86bf 2077 26bf
00000390: ec4a 87bf 2386 ec3e 3365 87be 6aab 25bf
000003a0: b3ba 19bc 18ae e4bd aa58 60bf 320b ea3e
000003b0: 3327 29be 4245 133f 544d 3fbf 962c 89bf
000003c0: de6c 0cbc ef38 0ebf 32d7 d3bf 4c3e 92be
000003d0: 290a 6ebf b086 52bf 627f 393c d8e0 bcbe
000003e0: 2e74 bebd 10b2 8bbf fb38 5bbe ff48 02bf
000003f0: 522d 7bbf 4e8a 59be 22b1 92bf 57e8 d9be
-0.48628128 -0.7106652 -1.1672516 -1.0326627 0.6679766 -0.59602225 0.49718094 -0.39918274
0.10222882 -0.8618279 -0.40665358 0.26591238 0.19354169 -0.6281586 -0.6934263 -0.90449834
0.038203366 -0.49135602 -0.43356088 -0.607387 0.12551469 -1.1922625 -0.1975903 0.42940027
0.07779303 -0.1722775 -0.40337008 -0.9491827 -0.6509259 -0.36637023 0.34141314 -0.8229828
0.36136782 0.10265883 -0.2926587 -0.310907 0.3455805 -0.7015286 -0.5829455 -0.95532537
-0.38443303 -0.6928185 -0.15892059 -1.0085921 -0.3768287 -0.7767108 -0.49726412 -0.4217688
0.85745054 -0.7560101 -0.22340693 -0.8406966 -0.095542654 -0.5650052 0.30100515 -0.30305457
-0.008379081 -0.25626722 -1.1118647 0.4800321 -1.1159004 -1.1955187 0.31365237 -0.5470007
0.1907328 0.8551051 -0.8690172 -0.42270425 -0.016122214 -1.7055001 -0.2397863 -1.2440735
-0.73241836 0.58367425 0.12157221 -0.13272685 0.34753117 -1.4831605 -0.09419894 -1.3132356
-0.8949072 -0.060175225 0.19267225 -2.0507455 0.9154963 -0.50150025 0.032220352 0.1604995
0.095971465 0.57984567 0.007923411 -0.051499292 -0.12489435 -1.1506971 -0.9274215 -1.5605322
-0.09636923 -0.37391296 -0.2169517 -0.30066028 0.5259801 -0.059093606 -0.75879943 -0.2634533
-0.59042567 -0.36660603 -0.60679287 -0.11440485 -0.74598086 -0.8051062 -0.8004366 -1.5747101
-0.039933816 -1.3963516 -0.08323692 0.61541927 -0.46912318 -0.2822354 -0.7626399 0.18091652
-0.68039024 -1.0029715 -0.8058872 0.051802892 -0.1281719 0.10835268 -1.0240712 -0.45658317
-0.22473459 -0.7654746 -0.08720382 -0.8821982 -0.82921046 -0.092263564 -0.9627415 -0.13179287
0.4988247 -0.7277154 -0.29873192 -1.6523459 -0.37479538 -0.05510246 -0.032958902 -0.47082925
-0.07573641 -0.1288171 -0.89041996 -0.68546927 -1.1114814 -0.6539657 -0.3733865 -0.13550244
-0.0961275 -0.7791419 -0.40190712 -1.2620959 -0.94862574 -0.51567864 -0.85376185 0.72719395
-1.0133735 0.7488281 0.22600335 0.124196485 -0.087806575 -0.6858954 -1.1464137 -0.9061587
-0.55744267 0.05446435 -0.18102512 -0.07343344 -0.59146684 -0.7055314 -0.90458435 0.6826765
3.1297128e-05 -0.5841071 -0.46376005 -0.58731955 0.08491762 -0.26439798 -0.95989233 0.29278025
-0.15488473 -0.55295044 -0.6969089 -0.110251166 -0.43456686 0.013670959 0.0005605716 0.007301582
0.24260049 -0.14802836 -0.13089462 -0.82787126 -0.83100253 0.083579026 -0.30114466 -0.40988773
-1.1882448 0.3456996 -1.216207 0.40845418 -0.4568108 0.30927566 -1.6469973 0.282696
-0.2004274 0.091291256 0.1902709 -0.8612643 -0.6831312 0.13257635 -0.66055214 -0.831275
-0.09015481 -0.11269679 -0.7018807 0.330316 -0.24049339 -0.47723845 -0.5129618 -0.09095766
-0.02929011 -0.4215588 -1.0504173 -0.6502552 -1.0569739 0.46196088 -0.26444396 -0.6471468
-0.0093828915 -0.11166018 -0.8763529 0.45711666 -0.1651886 0.57527554 -0.7472737 -1.0716732
-0.008570878 -0.55555624 -1.6550047 -0.28563154 -0.92984253 -0.82236767 0.011321874 -0.36890292
-0.09299503 -1.0913715 -0.21408455 -0.50892633 -0.9811603 -0.21244165 -1.1460307 -0.42560074

fc3.weight f4 [57, 512]
00000000: b728 fcbd 2f5b 49be d0f2 91be b156 fcbd
00000010: 9b42 8c3e be83 4cbe d364 383e 03ea 55be
00000020: 09b6 503e 7f16 b93c 9a6c cabe 7eac 8f3e
00000030: 4925 0bbe ce2b 5dbe 9780 09be f7c2 943e
00000040: b764 4dbe d6b0 ddbd dd59 a1be e253 d6be
00000050: 3a13 243e c75d 04bd 1704 363e c256 d63c
00000060: ce1f 5f3e c118 c03e 5579 433e 0983 24bc
00000070: eb7b 783f cbc5 f1bd b8e9 083e ebd0 353e
00000080: e2eb 4c3e 7695 4d3d ec6a 27be e305 1ebe
00000090: 8ad0 643e 0792 15be 5103 d8bd ff56 96bd
000000a0: 9792 0f3e 147f ffbd 4ed8 1a3e 7ccf 08be
000000b0: f846 4dbe fbd7 21be c0a8 5f3e fd86 fdbb
000000c0: fd29 243e 2dc1 11be 0af4 243e 0bb0 5f3f
000000d0: 2421 64be 4629 ac3d 2bfe 343e be03 3bbe
000000e0: 2c21 103e ecad 6e3d 00bb 17be de10 a03e
000000f0: ba0a eebd fc7f 02be 780e c03e 3e8c 283f
00000100: b8dc 11be eda2 643e 0627 b6bd 0b59 873e
00000110: 1d90 76be 5832 02bd b829 6e3e aec4 0e3e
00000120: 64df 383d 3fad 383e 9687 783e 78af 883e
00000130: 594d b33e 3444 30bd 3ee8 2a3f 3506 1dbe
00000140: 02eb 2cbe 4354 263e 0df2 0ebe 5185 d23d
00000150: fa60 413e 2dd0 30be cc84 2abe 6933 ac3e
00000160: e302 823e d17b 403e a5c9 473e 2eea 7a3e
00000170: ef49 853e 12a3 b63e 40bc 07be 86b5 fbbd
00000180: e84c d63e 4da9 673e 4812 e7bd b9c1 593e
00000190: 9e34 65be 510d e63c ea40 153e 3bc3 353e
000001a0: 1b9b 53bd 427c 2abe 8d0f 19be fcd0 493e
000001b0: b49c b7bd d7a0 bf3c 63b4 ae3e cdf3 54bd
000001c0: 6439 45be 52cc ba3c 53b3 77be c763 2e3e
000001d0: b180 82be 2f5c 983e 4cb5 8d3d 0299 0dbe
000001e0: e7f7 1a3e 2b38 1bbd 6d7e 0f3f a960 5a3e
000001f0: f1b5 c73b 9a2a 0ebe 748e 1c3d 4b90 d1bd
00000200: 9ffb 46be e14a f73e e830 b0bc 60b6 c93e
00000210: 4b02 18be ecc3 803f 8766 cabe ed4a 443e
00000220: 3db2 133e c463 4cbe 58fa 4abe e655 be3d
00000230: bbff 3ebe 3be7 663e 8aa9 243e e616 d1bd
00000240: e9f1 763e 51b7 f53c c8a6 6b3e fc5d 933e
00000250: 5005 92bd 2006 8c3e 78ef 563e 9967 32be
00000260: 8e2c 393e 224a 8e3e ab48 543e 8f01 843e
00000270: 413a efbd c2f1 693e d120 92bd 3eb0 143e
00000280: a270 78bd b0a8 973e b419 0cbe e017 0a3e
00000290: e177 123e 83fa f4bd ea50 0cbe ceba c43e
000002a0: dc52 7a3e 8721 47be 23a9 39be cfeb 6abb
000002b0: 2e74 e03e 1bfd 473e 9be2 2fbd 9432 2a3e
000002c0: e0c3 673e 8d7b 6e3f 5822 8ebe cf95 22be
000002d0: cbab 38be 9f42 45be 46c0 03be 34d0 6ebe
000002e0: 476b 403e 6da3 0ebe caae 863e 5e21 89bb
000002f0: 4e70 3ebe d0a2 463e 1bd8 9c3e 274c 0cbe
00000300: 09cf 943e 9a2a 233e d927 46be 8f65 f4bd
00000310: 1319 0b3e 3e35 64be 7f26 34be 7f38 713e
00000320: 8617 d7bd 06d6 db3e cd01 843b 95ae 6c3e
00000330: 367b dbbd 7109 323e 76d9 6b3d 78be 8f3e
00000340: e7a6 273d 3f52 6c3e f366 023e 7826 833f
00000350: 36b9 00be b30e ac3e 6db7 34be 8e65 50be
00000360: 2229 26be 7f98 a03c a58f 35be 293a 623d
00000370: d296 de3e 4b8f 1a3f 4328 babd 19fc 893e
00000380: 71a4 1bbe e4a8 333e 40d2 5ebd b6a3 22be
00000390: dcb6 48be bf68 853e 2c44 48be 0c06 d43b
000003a0: 3cf3 1a3e f880 5cbe 7b9a c03e a43f 273e
000003b0: 1605 39be 8223 8f3e 8bbb 25be ce5f b93e
000003c0: f281 6dbe fa92 c7bc a371 963d f1a9 5b3e
000003d0: 6d3b 5b3f ff0a 20be 6872 18be 9bb5 8a3e
000003e0: c410 23be b59e 2a3d 5b7b 45be 99ba 3dbe
000003f0: 87fd 2cbe c038 893e fc00 d7bd 8b6d bfbd
-0.12312453 -0.1966369 -0.28505564 -0.123212226 0.27394566 -0.1997213 0.18007211 -0.2089005
0.20381941 0.022593735 -0.3953598 0.2806129 -0.13588442 -0.21598741 -0.1342796 0.29054996
-0.20057951 -0.108247444 -0.31513873 -0.41860873 0.1602296 -0.032315996 0.17774998 0.026164416
0.21789476 0.37518886 0.19089253 -0.010041007 0.97064084 -0.11805304 0.13370407 0.17755477
0.20011857 0.050191365 -0.16349381 -0.15431933 0.22345176 -0.14606486 -0.105475076 -0.07340812
0.14020763 -0.1247541 0.15121576 -0.13360399 -0.20046604 -0.15805046 0.21841717 -0.007737039
0.16031642 -0.14233847 0.16108719 0.87377995 -0.22278267 0.0840631 0.17675082 -0.18263146
0.14075154 0.058271334 -0.14817429 0.3126287 -0.1162314 -0.12744135 0.3751104 0.6583899
-0.14244354 0.22327776 -0.08894162 0.26435122 -0.24078412 -0.031786293 0.23258102 0.13942215
0.045134917 0.18034838 0.24270472 0.26696372 0.3501995 -0.043033794 0.66760623 -0.15334399
-0.16886523 0.16243081 -0.13959523 0.10279334 0.1888465 -0.17266913 -0.1665222 0.33632973
0.25392827 0.18797232 0.19510515 0.24503395 0.2603297 0.35671288 -0.13255405 -0.12290482
0.4185555 0.22623177 -0.11282784 0.21265306 -0.22383353 0.028082522 0.14575544 0.17750256
-0.051661592 -0.16648963 -0.14947338 0.19708627 -0.089654356 0.023392124 0.34122 -0.05199032
-0.19260174 0.022802506 -0.241895 0.1703025 -0.2548881 0.2975783 0.06919345 -0.13827899
0.1513363 -0.037895363 0.56052285 0.21325935 0.006094687 -0.13883439 0.03822179 -0.102326
-0.19431923 0.48299316 -0.021507695 0.39396954 -0.14844625 1.0059791 -0.39531347 0.19169207
0.14423461 -0.19959933 -0.19822061 0.092937276 -0.18652241 0.22549145 0.16080299 -0.10209446
0.24115719 0.029994639 0.23012841 0.28782642 -0.071299195 0.27348423 0.20989788 -0.17422332
0.18083403 0.27790934 0.20730846 0.2578244 -0.11681033 0.2284613 -0.071351655 0.14520356
-0.06065429 0.29620886 -0.1368168 0.1348567 0.14303543 -0.11961844 -0.13702741 0.3842377
0.24445671 -0.19446383 -0.18130927 -0.003584612 0.43838638 0.19530146 -0.042940717 0.16620857
0.22633314 0.93157274 -0.27760577 -0.1587746 -0.18034284 -0.19263695 -0.12866315 -0.2332161
0.18790923 -0.1392953 0.26305228 -0.004184886 -0.18597528 0.19398046 0.30633625 -0.13700925
0.29064205 0.1593422 -0.19351138 -0.11933433 0.13583784 -0.22285935 -0.1759281 0.23556708
-0.105025336 0.42936724 0.004028535 0.23113473 -0.1071686 0.17386414 0.057580434 0.28075004
0.040930655 0.2307825 0.12734585 1.0246115 -0.12570652 0.33604965 -0.17648096 -0.2035124
-0.16226628 0.019603966 -0.17730577 0.055231247 0.43474442 0.603749 -0.090897106 0.26950148
-0.15199448 0.17544895 -0.05439973 -0.15882763 -0.19601005 0.26056477 -0.19557256 0.0064704474
0.15131849 -0.21533573 0.3761786 0.1633287 -0.18068346 0.27956778 -0.16184823 0.36205906
-0.23194101 -0.024362076 0.07345893 0.21451546 0.8563755 -0.15629195 -0.14887393 0.2709168
-0.15924364 0.04165526 -0.19285338 -0.18528213 -0.16893588 0.2680111 -0.10498235 -0.093470655

fc3.bias f4 [57]
00000000: ec97 92bd ba57 23c0 a790 a3be ae81 36bf
00000010: 849f ccbf 4d39 5abf 7ff7 68bf 7cf4 31bf
00000020: 24b8 c3bf d9da 0bbf 65ab d8be 47cc d1bf
00000030: 5cf2 f1be 3c5b a2ba 0c37 2dbf 4171 fbbe
00000040: fb1a 8ebf 763b 48be 9d6d a3bf 92d8 73bf
00000050: ec82 10bf 16d4 7ebf b34f c3bd 3611 8fbf
00000060: bb66 9fbe 697d 84bf 1e2a febe 1ee4 49bf
00000070: aa83 e1bf 8cce 12c0 4139 53bf fef9 51bf
00000080: 9d1c 30bf ced0 22bf f483 29bf 6b93 f4be
00000090: e77a 8dbf 6dac ccbe abf3 f5be dad2 9bbf
000000a0: 8e95 98bf 898d cabe c026 dbbe 1cf6 8abe
000000b0: 034b 76be 93f9 5cbf 54b0 4ebe 7102 f0bc
000000c0: 11b2 e2be 4da0 b4be 66af 81be dc82 6bbe
000000d0: 93da 63be 19f2 8ebf 6596 85bf 4a45 6dbf
000000e0: f64b 8bbf
-0.07157883 -2.5522294 -0.31946298 -0.71291625 -1.598618 -0.85243684 -0.9100265 -0.6951368
-1.529057 -0.5463081 -0.42318264 -1.6390465 -0.47255218 -0.0012386809 -0.6766212 -0.49109843
-1.1101984 -0.19553933 -1.2767826 -0.95252335 -0.5644977 -0.9954237 -0.09536686 -1.1177127
-0.31133065 -1.0350772 -0.49641508 -0.78863704 -1.7618306 -2.2938566 -0.8250924 -0.8202208
-0.6879366 -0.6359986 -0.6621697 -0.4776872 -1.1053132 -0.399753 -0.48037466 -1.2173722
-1.192064 -0.39561108 -0.42803 -0.27140892 -0.24052052 -0.8631832 -0.20184451 -0.02929804
-0.4427648 -0.3527855 -0.2532913 -0.22999138 -0.22251348 -1.1167632 -1.0436522 -0.9268385
-1.0882556
