PSG_dataset/ckn/2619.pt (torch, 840791 bytes, 6 tensors)

fc1.weight f4 [256, 190]
000000 50 4a 71 be c0 1a a8 3d 01 01 42 3f 69 e3 13 bf
       -0.23563504 0.08208227 0.7578278 -0.57768875
000010 98 ea ee be f3 cd 58 3f 57 e0 49 3f 55 ce 20 3f
       -0.46663356 0.84689254 0.7885794 0.6281484
000020 d6 67 c9 bf 8a 80 ec 3e 6b 43 1c bf 30 7d 45 3f
       -1.5734813 0.46191818 -0.6104037 0.77144146
000030 19 c5 c9 bc e1 58 67 3f 14 c1 84 bf 24 25 43 3f
       -0.024630116 0.90369993 -1.0371423 0.7622855
000040 3e 84 2f 3f 49 43 4f 3f 14 6a 5e 3f 1a 61 07 3f
       0.6856116 0.80962044 0.8688061 0.5288254
000050 02 11 7c bf 0e 28 5d 3f 5f 18 60 bf d6 6d e3 3d
       -0.9846345 0.86389244 -0.8753719 0.11104934
000060 75 2f 50 be 5b bc 11 3f dc 7f 48 bf 34 aa 1a bf
       -0.20330603 0.5692803 -0.783201 -0.6041596
000070 96 1f d3 3c 28 2f 13 be 78 15 a1 be 36 2a 8e be
       0.025771897 -0.14373457 -0.31461692 -0.2776658
000080 5c c1 0a 3e 80 a3 f7 be 1f 98 a1 bf c6 d7 2e 3f
       0.13550323 -0.48366928 -1.2624549 0.68297994
000090 d9 9a e2 3f e0 fc 89 bf 80 8d 69 be c6 56 e6 3d
       1.7703506 -1.0780296 -0.22807884 0.112470195
0000a0 cb da f4 be ff bf 17 be 0b 3b 2c bf eb f4 6c 3f
       -0.47823176 -0.14819334 -0.6727759 0.92561215
0000b0 08 2e a2 3e dc 6b e8 be 65 e6 23 c0 59 ea 89 bf
       0.31675744 -0.4539479 -2.5609372 -1.0774642
0000c0 ed 6c 24 bf 7a e3 c3 3d a5 52 95 bd d0 84 5c bd
       -0.6422871 0.09564872 -0.07291154 -0.053837597
0000d0 72 88 3f 3c 07 f6 07 bf 88 52 07 be b4 54 9d be
       0.011690246 -0.5310978 -0.13215077 -0.30728686
0000e0 22 f2 80 bc b7 39 18 be 7a 19 d5 3b b4 6e dd be
       -0.015740458 -0.14865766 0.006503281 -0.43248522
0000f0 b3 15 08 bd bc 10 71 be ee 53 e0 bc e3 d0 e8 bc
       -0.03322382 -0.2354154 -0.02738377 -0.028419917
000100 8f f9 44 39 2f 5d f6 be f2 12 43 bd 4e 15 b9 be
       0.00018784984 -0.48117968 -0.04762549 -0.36149067
000110 e8 d1 de bd f7 02 dc bd 7c 0f 2d 3d 00 9d d4 be
       -0.1087988 -0.10742753 0.042251095 -0.41526031
000120 b0 1d d9 bd 9c 4b 70 be 11 11 96 bd 6b 7a be bd
       -0.106013656 -0.23466343 -0.07327474 -0.09300693
000130 fc 7a b6 bd 89 ed fe be cd cc 15 be 9d 80 aa be
       -0.08910176 -0.497906 -0.14628907 -0.3330125
000140 be 3f c1 be c6 79 60 be 75 e4 4f 3e 0e 4a 18 bc
       -0.37743944 -0.21921453 0.20301993 -0.009295
000150 08 69 c7 3e 95 3a 3b 3f da 27 47 bf d3 59 ac 3f
       0.3894732 0.73136264 -0.77795184 1.3464912
000160 a4 40 44 bf 66 bf 01 c0 f2 b9 a4 bf a4 a5 47 bf
       -0.76661134 -2.027307 -1.2869246 -0.7798712
000170 72 77 9a bf 45 7a 20 3f 6f 15 a5 3d 0d e4 e4 3e
       -1.2067702 0.6268657 0.08060729 0.4470524
000180 64 5b 1f 3f 5d 5a 31 be 63 b8 ae bf b3 37 11 bf
       0.62248826 -0.17319627 -1.365002 -0.56725615
000190 71 57 b0 3e 7a 2e 47 3f f3 45 c7 be 86 0c 02 bf
       0.34441712 0.7780529 -0.38920555 -0.5080036
0001a0 04 12 9b 3f f7 30 23 bf e1 2b e5 bf 20 6f 0f bf
       1.2114873 -0.6374659 -1.7904016 -0.5602894
0001b0 79 91 a3 3e 9c 81 9a be cb 99 0a be 1f 7f a9 3e
       0.31946924 -0.3017701 -0.1353523 0.33104798
0001c0 9e 15 40 3d ac b5 11 bf 32 76 8e 3e ee da 18 bf
       0.046895616 -0.56917834 0.2782455 -0.5970906
0001d0 34 73 36 bf 2c 12 25 3e 48 7b 09 bd d6 50 6f 3f
       -0.71269536 0.16120213 -0.033564836 0.9348272
0001e0 64 0e a4 bf 5f 26 28 3f a5 89 a6 be bf 7c 90 3f
       -1.2816892 0.6568355 -0.3252689 1.128807
0001f0 62 e8 22 bf 68 6a 96 be 10 d6 d1 3e a2 f8 21 bf
       -0.6363584 -0.29378057 0.4098363 -0.6327001
000200 11 ec be bf 58 73 80 bd f2 b1 2e be c8 5c 4b be
       -1.4915792 -0.06272 -0.17060068 -0.19859612
000210 eb 0c 50 be 6e b1 5a be c9 95 32 be 06 63 b4 be
       -0.20317428 -0.21356747 -0.17439951 -0.352318
000220 8d 4c 43 be 83 2e 7f be c4 f0 48 be 0b 0a 49 be
       -0.1907217 -0.24920087 -0.19623095 -0.19632737
000230 04 f3 70 be a6 be 63 be 5f 34 e4 bd 31 c3 1d be
       -0.23530203 -0.22240695 -0.111428015 -0.15406491
000240 4a e1 5e be 21 e4 98 be 11 cd 85 be 30 f8 a9 be
       -0.21765628 -0.2986155 -0.26133016 -0.33197165
000250 98 64 5f be 6a 45 21 be 5c 14 39 be 49 2a 45 be
       -0.21815717 -0.15749136 -0.18074173 -0.19254412
000260 41 a9 47 be d9 c8 9c be e2 d4 0e be 53 ed 6c be
       -0.19498159 -0.30621985 -0.13948396 -0.23137407
000270 49 07 f6 bd 6d 1a 3c be 2b d9 6a be bd f5 91 be
       -0.12013108 -0.18369456 -0.22934406 -0.28507796
000280 1b 22 98 bd 20 ad 4c be 95 87 6a be 29 7e 78 3e
       -0.0742838 -0.19987917 -0.22903283 0.24266876
000290 b9 22 c9 be e7 17 e9 3c 25 c9 10 be ec 10 19 be
       -0.39284304 0.02845378 -0.1413923 -0.14947861
0002a0 5a 20 6a be 95 cc 93 3e ae 4c d0 be b2 2b 0d bd
       -0.22863904 0.2886702 -0.40683502 -0.0344655
0002b0 c3 d9 d7 bd 09 6e 29 be 3d 39 41 be b6 43 28 3e
       -0.105395816 -0.16545881 -0.18869491 0.1643208
0002c0 57 ae a8 be 1b 0b 86 bc df ce 0b be 5c ea 5f be
       -0.3294551 -0.016362717 -0.13653134 -0.21866745
0002d0 43 2d 37 be c8 5d 84 3e ea 6a 8e be e7 a5 a1 bd
       -0.1788836 0.258528 -0.27815944 -0.078929715
0002e0 07 ab 7f bd 56 35 41 be 89 1f 40 be f0 b1 5c 3e
       -0.062418964 -0.18868002 -0.1876203 0.21552253
0002f0 1e 68 a3 be af 62 a8 bc 9c 5d 0b bf 52 d5 d8 3e
       -0.31915373 -0.020554869 -0.5443971 0.4235025
000300 76 11 9c bf 44 27 7c 3e e2 4e 83 bf 85 ea 8e 3f
       -1.2192829 0.24624354 -1.0258448 1.116532
000310 dd 7c 6b bf c4 14 16 3f eb b0 b1 3e 30 ac 34 bf
       -0.919874 0.58625436 0.3470529 -0.7057524
000320 52 24 65 bd 6b e1 e4 3f 87 0b 53 3f 81 3f 8f bf
       -0.05594284 1.7881292 0.82439464 -1.1191255
000330 f9 64 31 3e c6 43 c9 3d d6 ee 94 bf 0e bc fb be
       0.17323674 0.0982738 -1.1635387 -0.49166912
000340 3c 74 c1 bd f6 ac 44 be 32 43 10 be 4e 7f 0b bd
       -0.09445998 -0.19206604 -0.14088133 -0.034056954
000350 86 22 d1 3e f1 5a a8 bf 85 70 db be 19 0a 8d bd
       0.40846652 -1.3152753 -0.42859283 -0.068866916
000360 ce e5 08 3f 88 83 b6 bd c9 bb c6 3e c2 d3 4e bf
       0.53475654 -0.08911806 0.38815144 -0.80791867
000370 19 79 03 3e 32 9b fa be 33 24 3c 3d 62 75 91 3e
       0.12839164 -0.4894653 0.04593296 0.28409868
000380 c8 2c f9 3e c1 d5 a9 be 45 75 bd be e2 25 79 bf
       0.48666978 -0.33170894 -0.37003532 -0.9732343
000390 f0 84 7f 3e 74 c2 dc be 6a 62 28 bf 35 11 48 3e
       0.24953055 -0.43117106 -0.6577517 0.19537814
0003a0 76 56 61 bf 4a 54 d3 3d d9 1e 31 3f a7 48 95 bf
       -0.88022554 0.10318811 0.69187695 -1.1662797
0003b0 1b cc 91 3e 56 3f b8 be b1 df ab bf b1 f7 ba 3f
       0.28476033 -0.3598582 -1.342764 1.460684
0003c0 48 16 df bd c5 b6 80 3e 23 90 cc be f0 c2 8a be
       -0.10892922 0.25139442 -0.39953718 -0.2710185
0003d0 34 46 ae be 09 8f f6 3c f8 8b 8d bd 03 7a 6b 3e
       -0.34037936 0.030097501 -0.069114625 0.22995763
0003e0 d3 8c dd be bf 10 8c be ff d0 84 be 05 40 8c bd
       -0.43271503 -0.27356526 -0.259407 -0.06848148
0003f0 4d 84 93 bc 28 be 57 3e 52 3f e3 be df dc 63 be
       -0.018007422 0.21068633 -0.44384247 -0.22252224

fc1.bias f4 [256]
000000 db b7 a8 3e 05 19 2a 3e 66 61 bf be 29 72 c9 3e
       0.3295277 0.16611107 -0.37378997 0.3934491
000010 9b 55 ba be 8d 44 9f bf 2d ed b3 bf 7e a0 34 bf
       -0.36393437 -1.2442795 -1.4056755 -0.7055739
000020 e6 04 be 3e bf f6 a1 bf 19 af 9d 3e 1a 72 6c be
       0.37113112 -1.2653426 0.3079765 -0.23090401
000030 92 cb 61 bc 9a b7 90 be 09 5b 03 bf f5 96 aa bf
       -0.013781445 -0.28265077 -0.51310784 -1.3327318
000040 97 2b 76 3f 16 6d 43 3f 7d f9 cb 3d eb 4e b9 bf
       0.9616026 0.76338327 0.099596955 -1.4477209
000050 0a 86 68 bf a9 72 fd be 77 4c a7 bd 41 99 dc be
       -0.9082953 -0.4950154 -0.081688814 -0.43085673
000060 3a 84 46 be 3b 5f 10 bf ab af 5b 3f 5e 4b 23 bf
       -0.19386378 -0.5639531 0.85814923 -0.63786876
000070 f9 e1 a7 be 95 08 90 3d 38 c1 82 bf 6d 17 f9 3e
       -0.3278959 0.07032887 -1.0215216 0.48650685
000080 d7 ba 57 bf 1f 24 f6 be 90 42 9c bf ae 49 7b 3a
       -0.8426947 -0.48074433 -1.2207813 0.0009585869
000090 2d 08 b8 be 9d 26 dc be b4 2d 73 3e 50 ab e1 be
       -0.35943738 -0.4299821 0.23747903 -0.44076014
0000a0 fb 90 89 be 61 83 76 be e4 d5 a5 3d bd b9 4e be
       -0.26868424 -0.24073555 0.08097437 -0.20188041
0000b0 4b c3 56 3f 87 fd 87 be a7 88 17 3f 53 27 49 bf
       0.83891743 -0.26560614 0.5919289 -0.7857563
0000c0 ee 49 3d bd d4 58 2c bf 93 2f b3 be 58 df a2 bf
       -0.046213083 -0.6732304 -0.34997234 -1.2724409
0000d0 28 41 e3 3e 2b fb 1d bf d0 7f 4a be d4 67 f1 be
       0.44385648 -0.61711377 -0.19775319 -0.47149527
0000e0 33 79 91 bf f3 df 76 bf 56 d4 c6 bf 31 b1 d5 bf
       -1.1365112 -0.9643547 -1.553355 -1.66947
0000f0 8f b6 7d 3c a0 2b 60 bf a8 4c f9 bf 9c 3a 02 be
       0.01548542 -0.87566566 -1.9476519 -0.1271767
000100 b7 76 60 3e d9 c8 ab be 47 0e e6 bf 3d 44 2b c0
       0.21920286 -0.33551672 -1.7973107 -2.67604
000110 36 82 37 be ae d7 d7 be 89 90 1a bf 8b 2d 9e be
       -0.17920765 -0.42156738 -0.60376793 -0.30894122
000120 3a 46 fb 3e 1a 47 c6 be 5c 28 6c bf e7 ec ac bc
       0.49077016 -0.3872612 -0.92249084 -0.021109058
000130 ff e3 41 3e 69 9a cf 3f fd 4f 1c be 94 7f 1c 3f
       0.1893463 1.6218997 -0.15264888 0.6113217
000140 c9 c0 b4 bf 25 cf ed 3d 22 08 2e 3e 66 2a 6b 3e
       -1.4121333 0.11611775 0.1699529 0.22965392
000150 47 4f 62 3f 36 b2 da 3e 6a dd 9e bf 33 c3 99 bf
       0.8840222 0.4271409 -1.241132 -1.2012695
000160 e4 33 30 3e 90 07 3b 3e 0a 03 fc bd c7 26 4c bf
       0.17207295 0.18264604 -0.12305267 -0.7974667
000170 64 40 af bd 30 71 7b bf be 20 91 be fd 04 27 be
       -0.085572034 -0.98219585 -0.28345293 -0.16310497
000180 76 1e 2f be 31 f1 45 bd 53 d2 c1 3d aa 98 d5 be
       -0.17101464 -0.04832572 0.09463944 -0.41718036
000190 93 ee 0c be 17 f7 31 bd 77 ec 88 bf 37 76 1e bf
       -0.13762884 -0.043448534 -1.0697163 -0.6189913
0001a0 6e 28 0a be 0a 1e 9b 3d 73 78 59 bf aa fa 0f be
       -0.13491985 0.07574089 -0.84949416 -0.14060465
0001b0 3d 77 b9 be 40 42 01 bf 6e 98 82 be ff 8f 5e bf
       -0.36223784 -0.50491714 -0.2550692 -0.8693847
0001c0 54 d5 5f bf 15 25 67 3f c3 55 7c 3e 81 c8 98 3e
       -0.8743489 0.9029096 0.2464209 0.29840472
0001d0 94 81 8b be a0 38 1d bf 72 aa 0a 3f 3e d7 dd bd
       -0.27247298 -0.6141453 0.5416633 -0.1083207
0001e0 38 2d 37 bf 47 96 3a 3f 4d 21 4f be 39 a1 30 bf
       -0.71553373 0.72885555 -0.20227547 -0.68996006
0001f0 66 01 91 bf c6 45 95 be 94 2b e4 3d a9 ba ad bf
       -1.1328552 -0.29154795 0.11141124 -1.3572589
000200 16 04 67 be cf c8 a1 bf 2c 65 47 bf e8 e5 20 bf
       -0.22560152 -1.2639407 -0.7788875 -0.6285081
000210 5b 47 2f 3e 8a c3 2c be b4 8f 26 bf 6b 12 8e 3f
       0.17117064 -0.16871467 -0.65063024 1.1099371
000220 7d 60 0f bf f6 80 0d be ff f7 37 bd d4 0a 83 bf
       -0.56006604 -0.13818726 -0.044914242 -1.023768
000230 09 23 22 be 59 64 b9 3d f4 d8 c6 bd 94 03 16 bf
       -0.15833677 0.09052343 -0.09709349 -0.5859921
000240 4e 0c 2d be b8 4a ae 3d 45 0d 88 bd ed ca 50 bf
       -0.16899225 0.08510345 -0.06643156 -0.8155964
000250 d0 4b 7f be 68 72 37 be f5 02 ed be 99 9b b7 3e
       -0.24931264 -0.17914736 -0.4629132 0.358609
000260 38 df 87 bf b5 d3 96 be c5 5d 6d 3c fc 36 a1 3d
       -1.0614996 -0.29458395 0.014487688 0.078718156
000270 e7 8c 94 3e ea a0 95 bf 66 b6 94 3e 37 24 c0 bd
       0.2901375 -1.1689732 0.2904541 -0.093819074
000280 02 0f 22 bf ce f0 77 3f 26 a1 21 c0 cc e4 ec bd
       -0.6330415 0.96851814 -2.5254607 -0.11567077
000290 f2 38 81 be d7 e1 63 3e d8 50 8a be 12 4f 44 be
       -0.25238758 0.2225412 -0.27014804 -0.19170788
0002a0 13 0e 5e bf a4 00 ed 3c 07 3b 02 bf 54 b7 b1 3e
       -0.86740226 0.02893097 -0.5087132 0.3471018
0002b0 7b 00 66 3e 18 73 2f bf 52 6b 22 3e 36 bb 97 be
       0.22461121 -0.68534994 0.15861252 -0.29635018
0002c0 44 b8 66 3f 9c a1 82 bf 52 53 dd be b9 ae 67 c0
       0.9012492 -1.0205569 -0.4322763 -3.6200392
0002d0 44 0a 79 bc 73 25 8c 3f 53 67 e7 3e 94 49 de be
       -0.015200201 1.0948929 0.45196018 -0.4341551
0002e0 9a 9a 05 3e b3 28 19 bf bc f6 49 3e 50 4e 59 3c
       0.13047257 -0.5982773 0.19723028 0.0132633
0002f0 e8 1c 56 3d f3 de fb be ec 84 55 be ee a9 ec 3e
       0.05227366 -0.49193534 -0.20851487 0.46223396
000300 19 8a 3b bf 3a 2c b7 3e 5c 2c 66 bd 57 21 72 3d
       -0.73257595 0.3577593 -0.05619465 0.059113827
000310 12 ca 31 3f 90 b9 10 3e 69 c1 e0 3e 38 53 94 be
       0.6944896 0.14133286 0.4389756 -0.2896974
000320 42 0a c7 3e 46 9f 21 3e 77 a5 a7 be ca 9b 9e 3e
       0.38875014 0.15783414 -0.32743427 0.30978233
000330 6e 09 d2 3e 3c 11 16 c0 c1 c8 c1 bf 32 99 6a be
       0.4102282 -2.344802 -1.513939 -0.22910002
000340 b3 65 37 bf bf dd 4a 3f 1f af de 3d 1a 80 c2 3e
       -0.71639556 0.7924461 0.108732454 0.3798836
000350 79 07 31 3e c8 9e d5 bf 3a 36 0f 3e ea 8a d9 3d
       0.17288007 -1.6689081 0.1398553 0.10622199
000360 f6 5a f7 be 1b 38 05 bf 16 d2 9e be 34 c7 e8 3e
       -0.48311585 -0.52038735 -0.31019658 0.4546448
000370 d0 19 46 3e 9a f5 b1 bf c5 1b db bf 09 db e7 bf
       0.19345784 -1.3903077 -1.711785 -1.8113719
000380 c9 c7 6d bf 4f cc 46 3e 16 3e 8a bf 2b a6 0b bf
       -0.9288297 0.19413875 -1.0800197 -0.5455043
000390 4a 33 9f 3e f0 01 86 3e be c7 bb bf 7d 28 bb bf
       0.31093818 0.26173353 -1.4670331 -1.4621731
0003a0 75 5b 4f be 6d fb 8b bf b6 6b 05 bf 94 6e 6b bf
       -0.20249732 -1.0936104 -0.5211748 -0.91965604
0003b0 d2 a9 a2 bd 33 b0 96 be 0b e3 75 3e 75 b3 bb 3e
       -0.07942547 -0.29431304 0.24012391 0.36660352
0003c0 83 80 4a 3f 60 c7 a5 3e d6 d4 be be cc 34 d4 be
       0.79102343 0.32378674 -0.37271756 -0.4144653
0003d0 17 d3 85 bf 36 6a 43 bf 79 10 8a be ae d5 99 3d
       -1.0455045 -0.7633394 -0.26965693 0.07511459
0003e0 60 13 30 bf 8a ce b5 3e 92 2b 2b 3e bf 3e 99 be
       -0.68779564 0.3550914 0.1671584 -0.29930684
0003f0 54 e6 d9 be 02 64 6e 3f 3c 8d 60 be 9c 68 62 3d
       -0.4255854 0.9312135 -0.21928877 0.055275545

fc2.weight f4 [512, 256]
000000 57 93 e9 bd 7e 7b 2a 3f 0c b3 21 be ff 48 93 bf
       -0.11405056 0.66594684 -0.15790957 -1.1506652
000010 f9 6b cb bb 22 cb 1a be 11 68 11 3f 75 bc f7 3e
       -0.0062079397 -0.15116552 0.5679942 0.4838597
000020 69 42 36 bd 7a 8c 42 bf ed 62 13 bf 66 f4 2f bf
       -0.044496927 -0.759956 -0.57572824 -0.687323
000030 0d 7e c8 3e 0c 6b 69 bf 5d 21 b1 3e fa 7e 46 3f
       0.3915867 -0.91178966 0.34595767 0.775375
000040 bf c5 02 bf b5 74 7c 3f 7b c2 0f bf 40 ed ae 3e
       -0.51082987 0.9861558 -0.5615613 0.34165382
000050 51 9d 0c 3e 7f 29 26 3e 42 7d a4 3d 16 dc 42 3e
       0.13731886 0.16226767 0.080317035 0.19029269
000060 f0 a6 28 be 14 0a 3d bf 6f 3f 70 3e 67 90 58 3e
       -0.16469932 -0.73843503 0.23461698 0.21148835
000070 e7 c4 54 bf 34 dc 9e bf 0b 10 63 3e db df d3 3e
       -0.8311295 -1.2410951 0.22174089 0.41381726
000080 b6 d9 d0 bf 15 e6 c1 bf ce 57 95 bf 1b f5 f7 bd
       -1.631644 -1.514834 -1.1667421 -0.12107297
000090 23 4a 1d 3e 87 06 1a 3e f7 d4 cc 3d b9 9a d2 3d
       0.15360312 0.15041552 0.10001557 0.10283417
0000a0 0f 30 81 be 14 fc 53 bf 12 f5 7a 3e 7a a7 8d 3e
       -0.25231978 -0.82806516 0.2450755 0.27666837
0000b0 41 2a 82 3f 68 2e e1 3d 45 e5 0a 3e 96 14 8a bf
       1.0169145 0.109951794 0.13564022 -1.0787532
0000c0 84 bc 05 3f 25 47 8e bd ec a9 46 be 9c 16 44 bd
       0.52240777 -0.069471635 -0.19400758 -0.047873124
0000d0 07 36 85 be 97 c0 12 3e fc 61 a5 3f bc fd 41 bf
       -0.26017782 0.1433128 1.2920527 -0.7577779
0000e0 07 8c 1e 3f e5 f8 82 be 45 a9 93 bf 5d fa b2 3e
       0.61932415 -0.25580516 -1.1536032 0.34956637
0000f0 e7 58 aa bf f6 52 5c 3c 86 a4 d0 be f9 7e 57 be
       -1.3308381 0.013447514 -0.4075052 -0.2104453
000100 5d fb 1d 3f f3 0c 4e bd 72 4b b4 3e 4e f4 28 bf
       0.61711675 -0.050305318 0.3521381 -0.6599778
000110 20 f6 f4 bd 68 fb 43 be 1e 76 c6 be 0d 1a 06 bf
       -0.11961007 -0.19138873 -0.3876199 -0.523835
000120 18 d6 c9 be df 93 54 bf 4c 5f d5 3d 7d 74 6a bd
       -0.39421153 -0.83038133 0.10418567 -0.057239998
000130 c5 b1 6d bd f3 dc d6 bd dd 8d 03 bf 17 89 32 3e
       -0.058030862 -0.104913615 -0.5138834 0.17435108
000140 5e b6 35 bd 96 23 25 3f f7 91 30 3e 32 0d 56 be
       -0.044363372 0.64507425 0.17243181 -0.20903471
000150 b4 46 60 bf ba 90 79 3e 8c 15 8f bf 5e 18 b3 be
       -0.87607884 0.24371615 -1.117845 -0.34979528
000160 9f f0 ba 3e 00 05 02 be ad 3d 78 3f d1 50 a0 bf
       0.36511704 -0.1269722 0.9696911 -1.2524663
000170 19 0c 5b 3f b4 d5 3a bf e2 3e bf 3e 4d 60 9f 3e
       0.85565335 -0.72982335 0.37352663 0.3112816
000180 4c e9 1d bf 70 70 29 3e 81 f1 8e 3c 4c a3 31 3e
       -0.6168411 0.16546798 0.017449142 0.17347449
000190 4a b3 46 3e 83 b0 7a bd 0d 94 22 bf 0e a7 61 3e
       0.19404331 -0.06120349 -0.6350716 0.22036383
0001a0 39 f5 35 3e 29 cf a7 bd a4 a8 a7 bc 98 97 0c be
       0.17769326 -0.081938095 -0.020466156 -0.13729703
0001b0 9b 07 e1 3e 44 19 b1 3e 5a 5e 1c 3f ba 67 c2 be
       0.43951115 0.3458959 0.6108147 -0.37969762
0001c0 c8 81 03 3f 03 12 db be e5 a2 57 bf e1 1b 07 3f
       0.51369905 -0.4278718 -0.8423293 0.52776915
0001d0 7a 6e c0 3e 51 7d 03 3e 17 0f 5b 3e a1 42 ed 3e
       0.37584287 0.12840773 0.21392475 0.46339896
0001e0 a7 1a f6 be 06 f4 c4 3e 6e a8 be 3e 57 29 b1 bd
       -0.4806721 0.38467425 0.37237877 -0.08650463
0001f0 0b ec 51 3f 8a 1f a4 be 48 53 90 3e 13 64 45 3d
       0.820008 -0.32055312 0.2818854 0.04819114
000200 fa fa ad be ea af 49 3e b9 2c a6 3b a9 b3 7a bf
       -0.33980542 0.19696012 0.0050712493 -0.9793039
000210 17 6d f0 3e 7f d8 ac 3e 18 92 09 3f 24 1c b1 bd
       0.4695823 0.33758923 0.53738546 -0.086479455
000220 7e a0 83 bd 4d 55 5f 3d 72 6d 9d 3f cb ae 5d bd
       -0.06427096 0.05452471 1.2299025 -0.054121774
000230 75 93 39 3e 34 b2 3c bf a4 53 4a bf a3 27 5c 3f
       0.18122657 -0.73709416 -0.79033875 0.8599798
000240 58 94 c6 be 82 06 28 3e e3 5a 02 3f 88 e7 38 bc
       -0.38785052 0.16408733 0.5091993 -0.01128567
000250 b7 b4 14 bf b6 70 2f bf 58 d2 ac 3d ae ae 2d 3e
       -0.5808825 -0.6853136 0.084385574 0.16961166
000260 55 8f 8b bd 36 e7 b7 be 9f e8 cd 3e cc 12 d6 3e
       -0.06814448 -0.35918587 0.40216538 0.41811216
000270 a0 92 fd be f8 6f 8e 3e 75 2b 22 3e 29 a1 97 be
       -0.49525928 0.278198 0.1583689 -0.29615143
000280 e1 d3 ec be ea 91 02 c0 82 4e db 3e aa 71 3a bd
       -0.462554 -2.040156 0.42833334 -0.045518555
000290 39 be 31 bf d0 6e ab 3e ef f6 8d 3c bc 21 14 bf
       -0.6943088 0.3348298 0.017329661 -0.57863975
0002a0 c7 33 51 3e e9 94 3f bf 07 6b 91 3e 6b 76 4c be
       0.20429908 -0.74836594 0.28401968 -0.19967048
0002b0 7e e7 64 3e 8d db 55 be 23 3f ea 3d b4 a9 4c 3d
       0.22353932 -0.20884533 0.114378236 0.04996653
0002c0 d4 6c de bd e6 c0 f4 3d 6a 67 d2 be ab 58 f1 be
       -0.10860601 0.11950855 -0.41094524 -0.4713796
0002d0 96 db b7 bf 9d 76 f9 bd 6c 7c 27 be 1a ca f3 3d
       -1.4363887 -0.12180827 -0.16356057 0.11903782
0002e0 56 e0 05 bf a9 37 cd bd 29 3a be 3e 60 ed a3 be
       -0.52295434 -0.10020382 0.37153748 -0.3201704
0002f0 87 c8 2e be e5 b7 d3 be 61 e1 d1 be a9 8a 94 3f
       -0.17068683 -0.41351238 -0.40992263 1.1604816
000300 c4 80 1a 3e 8e c2 1c 3f 6a 16 fb be cc 91 77 3d
       0.15088183 0.61234367 -0.49040538 0.060441777
000310 c8 31 31 3f 15 72 50 3e 3c cc eb be c5 ff 5d 3d
       0.69216585 0.20356019 -0.46054256 0.054199
000320 55 58 34 3f 97 a6 c6 3e c6 33 9e be 89 15 2f 3f
       0.70447284 0.38798973 -0.30898875 0.68392235
000330 db 4a 9e bc 7a 50 52 3e e6 83 d9 3e 5b 2c c4 be
       -0.019322803 0.20538512 0.42483443 -0.3831509
000340 9e 2a 92 be 70 ac a0 3e 04 3e 52 bf 96 65 5b 3e
       -0.2854814 0.3138156 -0.8212588 0.2142547
000350 3a f5 65 3e ae 32 9f be 4d b4 0c be 33 c8 1c be
       0.22456828 -0.31093353 -0.13740654 -0.15310745
000360 27 ed d8 be 80 8d 6c bc 39 79 5c be a7 d3 c5 3e
       -0.42368433 -0.014438033 -0.21530618 0.3863804
000370 51 8d 26 be 3b c2 1c 3f 85 20 22 bf 7e 3d ae be
       -0.16264845 0.6123387 -0.6333087 -0.3403129
000380 58 70 9c 3d dc 23 a5 3e 71 53 47 3e ec 85 8a be
       0.07638615 0.3225392 0.19465424 -0.270553
000390 f3 29 56 bf 2f b6 35 be 32 81 2d 3e 48 c0 21 be
       -0.8365776 -0.17745279 0.16943815 -0.15796006
0003a0 c9 4a 2c 3f 1b de 21 bf 16 ea 8a 3f 61 d6 2b be
       0.67301613 -0.6322953 1.0852687 -0.16780998
0003b0 64 e2 47 bf 6b ca 32 3e d5 23 9e be b1 ce 65 bf
       -0.7807982 0.17460029 -0.30886713 -0.8976851
0003c0 a6 38 30 bf 2e 26 89 bf 9c b5 a3 be 88 c8 60 bf
       -0.6883644 -1.0714777 -0.31974494 -0.87805986
0003d0 42 ea 97 be 94 04 84 3e c9 96 4d bf 62 d0 4e bf
       -0.29670912 0.25784743 -0.80308205 -0.80786717
0003e0 97 3f 2a 3e 24 50 dc be 97 b2 53 3e 26 51 20 bf
       0.1662582 -0.43029892 0.20673595 -0.6262382
0003f0 d3 13 d6 be f6 a2 13 bf 2d eb 36 3f 60 30 13 3f
       -0.41812 -0.57670534 0.714526 0.5749569

fc2.bias f4 [512]
000000 fd d7 14 c0 7a aa 16 c0 f8 59 6e bf 14 f2 f0 bf
       -2.3256829 -2.354155 -0.9310603 -1.8823876
000010 a2 95 8c 3f 6b 2e e0 be 6e 74 4d bf dc 31 8c be
       1.0983164 -0.43785414 -0.8025578 -0.2738179
000020 77 3f 11 c0 88 eb 6d bf 98 a0 0d c0 a8 ef 48 bf
       -2.2694986 -0.9293752 -2.2129269 -0.78490686
000030 22 85 2e c0 c0 7d bc bf 2e 7e af bf ea 00 0c c0
       -2.7268758 -1.4725876 -1.3710382 -2.1875558
000040 21 fd a9 3e 44 4c 4b bf ff 95 11 bf d3 0e 0e 3e
       0.33200935 -0.7941325 -0.568695 0.13872842
000050 bb 39 ec 3e 71 55 df be 12 1a 8b bf 4b 08 1d c0
       0.46137795 -0.43619874 -1.0867331 -2.4536312
000060 e4 21 5d 3e f5 33 90 bf 52 eb cd bd 87 b1 4c bf
       0.2159496 -1.1265856 -0.100546494 -0.79958385
000070 90 21 e1 be b2 56 81 bf f4 61 e0 be e1 04 20 c0
       -0.4397092 -1.0104582 -0.43824732 -2.5002978
000080 4b c2 11 3e b0 61 0d 3f 07 04 a6 bf 1a 39 a3 bf
       0.14234273 0.55227184 -1.2969979 -1.2751801
000090 a4 26 a5 bf 61 c7 8d bd eb e0 a4 bf 30 1c 60 bf
       -1.2902417 -0.06922794 -1.288114 -0.8754301
0000a0 65 0e 0a 3c ae 7f 6d be 8a a9 16 c0 c3 0e 16 be
       0.0084262835 -0.23193237 -2.3540978 -0.14654069
0000b0 99 ca d9 be ca 12 c2 bf af b7 a6 3e 43 91 b7 bf
       -0.42537382 -1.5161984 0.32562014 -1.4341205
0000c0 8d a8 e5 bf 50 b5 bf bf bc a0 cf bf 6a f6 68 c0
       -1.7942063 -1.4977207 -1.6220927 -3.64004
0000d0 10 27 b4 bf 73 16 ee be 01 4b 11 bf 3f 9d 88 bf
       -1.4074421 -0.46501502 -0.5675507 -1.0672988
0000e0 83 f5 49 bf 72 4e 11 bf 72 13 bd 3e 1d 51 94 bf
       -0.78890246 -0.56760323 0.36928898 -1.1587254
0000f0 c5 a9 1a c0 98 9c 47 bf 64 a2 91 bf 78 88 0a 3e
       -2.416612 -0.7797332 -1.1377683 0.13528621
000100 e6 ca 95 3f 1a 7e a2 bc b9 82 4d bf a3 78 51 3e
       1.1702545 -0.01983552 -0.8027759 0.20456176
000110 42 86 1f 3f 92 46 dc bf f4 d8 64 bf bc ea de bf
       0.62314236 -1.7209036 -0.89393544 -1.7415385
000120 01 a0 11 c0 c9 21 9c bd 6f a4 27 3f c6 05 61 3d
       -2.2753909 -0.076236315 0.6548528 0.054937147
000130 0e 6c 77 be 8f 7a bd be 0e 3e 81 3d d1 ae 82 3f
       -0.24162313 -0.37007567 0.06310664 1.02096
000140 4e e8 15 c0 80 21 36 bf eb 55 88 bf 78 e7 88 3f
       -2.3423038 -0.71144867 -1.065122 1.0695639
000150 e9 34 0e c0 c0 ab 0c be d7 78 8c bf 16 e4 2f bf
       -2.2219794 -0.13737392 -1.0974377 -0.68707407
000160 2f 27 d7 bf 41 2c 38 3f 9e 67 35 bf a8 7a 1f be
       -1.6808833 0.71942526 -0.7086123 -0.15574133
000170 9f bb 3a c0 62 60 8b bd ae db 2f bd f8 f6 a7 3e
       -2.9177015 -0.06805493 -0.042934112 0.3280561
000180 57 3d a3 bf 0f 9a 57 bf 15 e1 3b bf d8 9c cf bf
       -1.2753094 -0.8421945 -0.7339032 -1.621974
000190 a6 47 39 c0 44 de 9d 3e e0 76 08 c0 26 37 a3 bf
       -2.894998 0.30833638 -2.1322556 -1.2751205
0001a0 b3 c1 7c be 29 ee 93 bf 8c 2d 28 3f 3b c3 5a bf
       -0.24683265 -1.1557056 0.656945 -0.8545415
0001b0 c4 30 ea 3c 48 58 8e bf 40 9b 6d be f7 7d 6c c0
       0.028587706 -1.1120691 -0.23203754 -3.6951883
0001c0 c3 75 aa bf 94 3c 08 c0 18 50 cc bf 76 f5 34 c0
       -1.3317188 -2.1286974 -1.5961943 -2.8274817
0001d0 0e 3a ba bf f4 bf 2c c0 01 da cb bf b6 6c 04 bf
       -1.4548967 -2.699216 -1.5925905 -0.5172838
0001e0 c9 df 18 bf bd 69 af bf f5 d9 2a c0 b9 29 ec bf
       -0.5971647 -1.3704144 -2.669553 -1.8450233
0001f0 14 08 81 bf 10 c4 95 bf 42 89 3d bf 3b 05 06 c0
       -1.008059 -1.1700459 -0.74037564 -2.0940692
000200 8a 08 5d be 77 11 16 c0 2a bf c5 bf 5f 71 d1 be
       -0.21585289 -2.344816 -1.5448964 -0.40906808
000210 c2 38 a4 bf 17 27 83 bd e1 5b 82 bf c0 d6 79 bd
       -1.2829821 -0.0640394 -1.0184289 -0.060995817
000220 d1 12 5b bf 26 9d a3 bf be a2 0c c0 da bb 83 bf
       -0.85575587 -1.2782333 -2.197433 -1.0291703
000230 8c 02 13 c0 f8 66 22 3f 31 48 c9 bf b9 f8 ae bf
       -2.2970304 0.6343837 -1.5725156 -1.3669654
000240 5f 0d 48 bf cf 7b a4 bf 46 22 00 c0 e5 3c 3d bf
       -0.781454 -1.2850283 -2.002092 -0.7392104
000250 e1 0a 88 bf 03 e7 14 c0 53 a2 1c be d7 02 0a bf
       -1.062832 -2.3265998 -0.15296297 -0.53910583
000260 dd 3d 83 bf e5 99 9c bf a7 83 12 c0 2d e4 71 c0
       -1.0253254 -1.2234465 -2.2892854 -3.7795517
000270 89 f1 14 c0 cf b4 24 bf aa c8 b4 bf ed 5a a5 bf
       -2.3272421 -0.6433839 -1.4123738 -1.2918373
000280 83 59 3c c0 14 e2 7c be 63 49 e0 3e 1c 29 25 bf
       -2.9429634 -0.24695617 0.4380599 -0.6451585
000290 c5 2e d7 bf cd 2d c0 be 37 3e d2 bf b3 ac 7e bf
       -1.6811148 -0.37534943 -1.6425236 -0.9948227
0002a0 07 32 cd be f1 8a 2c bf dd d0 b0 bf f8 a9 7a bf
       -0.4007723 -0.6739951 -1.381374 -0.979156
0002b0 85 5a 41 c0 ff 27 87 bf ed 4a ee bf 20 1f 45 be
       -3.0211499 -1.0559081 -1.8616616 -0.19250154
0002c0 1f 9a a4 bf 19 2e 09 3f 76 94 d2 bf 85 38 17 c0
       -1.2859534 0.53585964 -1.6451557 -2.3628247
0002d0 6c 51 8f bf 23 e5 4f bf 92 6e cf bf 7d 87 44 bf
       -1.1196723 -0.8120901 -1.6205618 -0.7676924
0002e0 27 34 b7 3f b7 17 5d 3e ba a2 78 bf 26 b4 0b 3e
       1.4312791 0.21591078 -0.971233 0.1364294
0002f0 38 1f 34 bf 17 0e 7f bf 90 11 49 bf 87 3f 03 bd
       -0.70360136 -0.99630874 -0.78542423 -0.032043006
000300 a5 0e 6c bf 64 ff db bf fd 38 d2 bf 63 ee 15 c0
       -0.92209846 -1.7187314 -1.6423641 -2.342675
000310 62 95 8b bf 12 f5 70 3f de d6 62 3d 76 d9 29 3f
       -1.0904963 0.9412395 0.055380695 0.66347444
000320 0b ad a5 bf eb 90 b8 bf c9 1b 61 bf d4 98 5e 3e
       -1.2943434 -1.4419225 -0.8793302 0.21737987
000330 88 56 de bf d4 3e ba bf 22 70 3c bf 91 c0 dd bf
       -1.7370157 -1.4550424 -0.736086 -1.7324392
000340 70 a8 0a c0 c3 d9 d0 be f8 72 f8 be 7d 67 64 c0
       -2.1665306 -0.4079114 -0.48525214 -3.5688164
000350 63 8c d4 bf d2 e3 2e bf ca 91 0a c0 13 3e 92 3f
       -1.6605343 -0.68316376 -2.1651483 1.1425194
000360 5b 6d 50 3f f4 85 f1 bd f2 b2 4a bf ed e7 74 3d
       0.81416863 -0.11793128 -0.791793 0.059791494
000370 fc eb e7 3e b5 ee 9b 3e a2 9a 83 be de c8 c7 bd
       0.4529723 0.30455557 -0.25703913 -0.09755109
000380 9e 8d 6b bf d3 9b 4e bf 3d 3c 53 bf fd 91 b5 be
       -0.92012966 -0.8070652 -0.8251379 -0.35462943
000390 ff b8 4d bf 54 cb 0a be 21 54 fd bf fe 28 e2 be
       -0.80360407 -0.13554126 -1.9791299 -0.441719
0003a0 08 09 4e bf c9 44 97 3f fb cb 28 c0 6e 5c c1 be
       -0.8048253 1.1817867 -2.63745 -0.3776583
0003b0 79 d8 2f bf d0 d6 30 bf 65 94 3e bf ba eb 49 3e
       -0.68689686 -0.6907778 -0.7444518 0.19718829
0003c0 f5 ac 87 be aa 79 b5 bf 65 c3 a3 bd 10 c3 3f c0
       -0.26499143 -1.4177754 -0.07996253 -2.9962807
0003d0 53 86 1b bf 77 9a 3f be 8a 20 79 bf 32 06 bd bf
       -0.6075184 -0.18711267 -0.97315276 -1.4767516
0003e0 a8 75 84 c0 ea fc 0e c0 1e 3b cf 3e 8c 90 7b be
       -4.1393623 -2.2341866 0.4047479 -0.24566859
0003f0 a2 42 02 be c6 ce 90 bf f8 00 09 c0 88 8a e5 bf
       -0.12720731 -1.1313102 -2.1406841 -1.7932901

fc3.weight f4 [57, 512]
000000 61 27 a9 bd 6a d5 60 3e 95 b4 09 be 6d 93 01 be
       -0.08259464 0.21956411 -0.13447793 -0.12653895
000010 a6 7f c1 3d 32 07 21 3e 66 89 3c be 8b c1 17 3e
       0.09448175 0.15725401 -0.18411788 0.14819925
000020 c0 70 29 be bf 76 19 be 40 7d 04 be c7 83 b5 3d
       -0.16546917 -0.14986704 -0.12938404 0.08863025
000030 a1 e5 14 be f9 27 5a 3e 12 92 e7 bd 12 2c 25 be
       -0.14540721 0.21304311 -0.113071576 -0.16130093
000040 04 4c d9 3d 12 3b 1b 3e 04 fd 27 3e 72 0b 07 3e
       0.10610202 0.15159252 0.16405112 0.1318796
000050 df 77 f9 3d 82 ff 38 3e 5e b9 c4 3d ba a2 de bd
       0.12181067 0.18066218 0.096056685 -0.108708814
000060 47 b8 35 3e c3 9b 38 3e 7c aa 06 be cf 4f 66 be
       0.17746077 0.18028168 -0.13150972 -0.22491382
000070 df 28 3c 3e ed 1a dd 3d ba 6a 2e be 8b 5d 13 3f
       0.18374966 0.10796151 -0.170329 0.5756461
000080 78 07 20 3e e7 3a f3 3d 36 f8 94 3e a5 3e 09 3e
       0.15627849 0.11876469 0.2909562 0.13402803
000090 ca 74 43 3e 45 09 17 3e 15 1f 85 3e 59 92 48 be
       0.1908752 0.1474963 0.26000276 -0.19587077
0000a0 f2 ba cb 3d 2f 19 00 be ff 7e 69 bb 28 c7 0a be
       0.09947766 -0.12509607 -0.0035628674 -0.13552535
0000b0 58 2a 06 be f4 29 9d 3e 47 f3 df 3d ac 42 e9 bd
       -0.1310209 0.3069607 0.10935073 -0.1138967
0000c0 10 89 e5 3c 63 d1 bd 3d fb a2 c6 bd 3d 35 dc b9
       0.028019458 0.09268453 -0.09699055 -0.00042001336
0000d0 09 58 42 3d 4b ea ef 3d 70 ad 26 be 53 25 04 3e
       0.047447238 0.1171461 -0.16277099 0.12904863
0000e0 ac d4 10 3e 04 49 a9 bd 2c c8 cd 3d de e9 13 be
       0.14143628 -0.0826588 0.100479454 -0.14444682
0000f0 af 9f 17 be bf 94 e6 bd b0 30 07 be 5f de b4 3d
       -0.14807008 -0.1125884 -0.13202167 0.088314764
000100 d4 cb 96 3d 92 83 cc bd e1 85 3f 3e 4f eb 14 3e
       0.07363096 -0.099860325 0.18703414 0.14542888
000110 40 22 07 3e 55 5e 15 3e 4f d6 0f 3e 6a 6d 0a be
       0.13196659 0.14586766 0.14046596 -0.135183
000120 2c 55 01 be 07 25 41 be 46 37 44 be b9 bf f9 3d
       -0.12630147 -0.18861781 -0.1916171 0.12194771
000130 07 e2 00 3e 5d 5b 17 3e 13 0e 26 3e e7 dc 79 3e
       0.12586223 0.14780946 0.16216306 0.24400674
000140 9f 92 c9 bd 43 a1 9f 3d df 28 c1 bd e7 54 1e be
       -0.09842419 0.0779443 -0.09431624 -0.15462075
000150 c8 91 a9 bd 20 57 b1 bc 5a 99 ce bd aa 5b f1 bd
       -0.08279759 -0.02164799 -0.10087843 -0.11785062
000160 d4 c4 a2 bd e8 7c 22 3e ac 11 25 be d2 39 ee bd
       -0.07947698 0.1586796 -0.16120023 -0.11632122
000170 f7 2e da bd b3 c9 73 bb 0f e9 55 bc 04 27 58 3e
       -0.10653489 -0.003719908 -0.013056054 0.21108633
000180 73 73 2b 3e f5 31 a2 bd 04 f3 8a bc 3d 4d 78 be
       0.16743259 -0.07919685 -0.016961582 -0.24248214
000190 45 31 69 3d a4 b8 9b 3d 17 c8 58 3e a4 75 8f 3e
       0.056931753 0.07603577 0.21170078 0.2801944
0001a0 14 1c 30 3e be 8c 64 3e f0 91 f9 3d 62 33 19 be
       0.17198211 0.22319314 0.121860385 -0.14961007
0001b0 67 df e7 3d 8d 4b 10 be 15 02 1e 3e d2 33 85 bc
       0.113219075 -0.1409132 0.15430482 -0.016260061
0001c0 7c 27 35 be 9f b5 0d be 15 76 ed 3d 41 38 72 3e
       -0.17690843 -0.13838814 0.11594788 0.23654272
0001d0 96 08 3c 3f 0b e2 4b 3f e9 ff 08 3f f4 02 b2 3d
       0.734506 0.7964179 0.5351549 0.086919695
0001e0 ee 69 2c 3e b7 18 82 3e ff 21 e3 bd f0 c0 1c be
       0.16837284 0.2540948 -0.110904686 -0.15307975
0001f0 05 5f 45 3e 93 0a 61 3e ad 0a bc 3e e8 87 ca bd
       0.19274528 0.2197669 0.36726895 -0.09889203
000200 bd 29 59 be 90 0a 02 be 4c ea 1c 3e 0a 7c 26 3e
       -0.21207328 -0.12699342 0.15323752 0.16258255
000210 e9 4a ef bd 48 fa 15 3e 1d e8 13 3e 66 df d3 3d
       -0.1168421 0.14646256 0.14444013 0.10345344
000220 ef 8f 2b be da 68 bc 3c 26 02 81 3e fc a9 c3 bd
       -0.16754125 0.022999216 0.25196952 -0.09553906
000230 8c e4 72 3c 1e d8 26 be d5 4e b9 bd 10 c4 2d 3e
       0.014824998 -0.1629338 -0.09048239 0.16969323
000240 97 5d fe bd a9 9e d8 3e 06 ff 07 3e 90 60 ca bd
       -0.124201946 0.42308548 0.13280877 -0.09881699
000250 76 dd bd 3e 78 ef 9a 3e b8 0b 36 3e 51 58 db 3d
       0.37083024 0.30260825 0.17777908 0.107102044
000260 bd 06 1a be 79 a0 52 3e a9 25 d2 bd 2d 40 af bd
       -0.15041633 0.20569028 -0.10261089 -0.085571624
000270 aa c6 c9 bd e9 7d 2c 3e 49 b3 6f 3e 11 22 98 3e
       -0.09852345 0.16844906 0.23408236 0.2971349
000280 83 f8 68 bd 3a 67 2f be a4 96 16 3e f6 e8 0a be
       -0.056877624 -0.17129222 0.14705902 -0.1356543
000290 80 9b da bd 36 6e 2c 3e 27 8a d2 3d 45 c3 04 3e
       -0.106741905 0.16838917 0.10280257 0.12965114
0002a0 e1 93 cb 3d fa de e6 3c 98 f5 0b be b8 d0 c2 bd
       0.09940315 0.028182495 -0.13667905 -0.09512466
0002b0 63 0e 08 3e b3 d1 12 be 7f 73 df be e0 3f 14 3e
       0.13286738 -0.14337806 -0.43642804 0.14477491
0002c0 1a 8c 3e 3e 1f 71 12 3e d0 0d 15 3e bd 7d c8 bd
       0.18608132 0.14300965 0.1455605 -0.09789608
0002d0 09 18 22 3e 07 53 01 be 7d 4f 2f 3e 75 cb d9 bd
       0.15829481 -0.12629329 0.17120166 -0.106345095
0002e0 e3 88 2c 3c 11 cc ae 3d a5 51 6d 3e c3 cd a0 3d
       0.010530683 0.08535016 0.23175676 0.07851746
0002f0 db 64 2f 3e 18 1c 42 3e ac ea ea 3d 88 27 ff bd
       0.17128317 0.1895603 0.11470541 -0.12458712
000300 b2 25 e8 3d 9a 79 00 3e 75 d8 41 bb c3 53 d7 bd
       0.11335315 0.12546387 -0.0029578481 -0.10514023
000310 e6 cd ef 3d 44 52 0a 3e 6f 1f 18 3e d5 09 51 be
       0.11709194 0.13507944 0.14855741 -0.20413907
000320 96 7d 4c bd 80 e7 b5 3d 26 2e 03 3e ba 96 68 3e
       -0.049924456 0.08882046 0.12810573 0.22713748
000330 0f 82 e4 be 69 b3 1a 3e cd 91 16 3e 06 df 6a 3e
       -0.44630477 0.15107502 0.14704056 0.22936639
000340 18 36 4e 3e 22 8a 14 3e 31 14 e3 3d 1c 40 32 be
       0.20137823 0.14505818 0.110878356 -0.17407268
000350 06 6a 1c be e0 e1 25 3e 2d e8 d1 bd fa ef c8 3d
       -0.1527482 0.16199446 -0.10249362 0.09811397
000360 00 8d e8 3d d2 b2 cd bc a4 c0 c4 3e 0c 8c 9d 3d
       0.113550186 -0.025109682 0.38428223 0.076927274
000370 64 29 e2 3d 34 22 22 be 30 d0 fc 3d 88 96 1b 3e
       0.11043051 -0.1583336 0.12344396 0.15194142
000380 39 40 2b be 32 75 22 3e 48 40 0c be ed 88 9d 3d
       -0.16723718 0.15865019 -0.13696396 0.07692132
000390 9d 88 1e 3e 27 23 d3 3d 25 7e 82 be 7f 11 4e 3e
       0.15481801 0.10309439 -0.25486866 0.20123862
0003a0 c8 61 26 be 51 14 38 3e 13 35 08 be 2d 2c f0 3d
       -0.16248238 0.179765 -0.13301496 0.11727176
0003b0 51 6c 23 3e ba 46 39 be 3e 27 23 be 73 a1 e0 3d
       0.15959288 -0.18093386 -0.15932938 0.10968294
0003c0 2f 3d 07 be ad 85 02 3e 22 e6 f9 3c ef 91 03 3f
       -0.13206933 0.12746306 0.030505244 0.5139455
0003d0 d9 a3 28 bd 32 a8 0f be 56 d2 00 be 81 b3 4e bc
       -0.041171882 -0.14029005 -0.12580237 -0.012616039
0003e0 3d e1 ba 3d f8 ca 05 3f c6 0e e0 3d 0c 46 08 3e
       0.09124992 0.5226283 0.10940318 0.13307971
0003f0 45 07 b8 3d 25 0b fe 3d 1f fc b6 bd 0f 78 f2 bd
       0.089857616 0.124044694 -0.08934807 -0.118393056

fc3.bias f4 [57]
000000 2e f0 1b 3f a2 09 ad bf 79 cb 0a bf 4d ec c3 3e
       0.6091336 -1.3518565 -0.54216725 0.3826622
000010 2b 8c 1b bf a1 a8 b6 bf 82 d1 23 bf 5f 5f b2 bf
       -0.60760754 -1.4270211 -0.6399156 -1.3935355
000020 b8 3f 5d c0 d2 d3 3b bf 9c 30 ef bf 82 aa 08 c1
       -3.457014 -0.7337009 -1.868671 -8.541628
000030 b0 74 b1 bf 19 3e 3b bf 02 a2 16 c0 57 2f e5 be
       -1.3863735 -0.7314163 -2.3536382 -0.4476268
000040 c0 61 aa bf ad c5 8a bf 81 b2 04 c0 a9 6b 3f c0
       -1.3311081 -1.0841576 -2.073395 -2.990946
000050 b9 76 ce bf e7 43 02 c0 3b c3 76 bf 36 fe 41 c0
       -1.6129981 -2.0353944 -0.9639165 -3.0311408
000060 78 2b 21 bf fd 27 54 c0 70 96 b6 3e 3d 09 83 bf
       -0.62956953 -3.3149407 0.3566165 -1.0237194
000070 fa 9e 95 c0 dd cf 35 c0 ff e1 1f c0 11 9b 09 c0
       -4.6756563 -2.840812 -2.4981687 -2.1500895
000080 0d 4c c9 be 8f 50 1c c0 c3 68 01 c0 5e 23 a4 bf
       -0.39315835 -2.442417 -2.0220191 -1.2823293
000090 02 8a e8 be 9b 21 f0 be 45 ed 5e bf 6b 3e 08 c0
       -0.45417792 -0.4690064 -0.87080795 -2.1288097
0000a0 72 e6 18 c0 a7 3b 3c bf b0 b3 ea bf 6a be 90 bf
       -2.3890653 -0.7352852 -1.8336086 -1.130811
0000b0 07 63 ce bc 48 35 91 c0 42 5a 69 bf 0c 8f 53 bf
       -0.025193704 -4.537754 -0.9115335 -0.8264015
0000c0 56 13 84 bf 91 1a e7 bf 1a ab 0b be fc cf f9 be
       -1.0318401 -1.8054982 -0.13639489 -0.48791492
0000d0 72 de 04 bf 19 a7 95 c0 a9 fa 15 c0 1d 97 25 c0
       -0.51901925 -4.6766477 -2.343424 -2.5873482
0000e0 c7 56 6a c0
       -3.6615465
