OID_dataset/ckn/ckn_oid_EPBS_n.pt (torch, 787415 bytes, 6 tensors)

fc1.weight f4 [256, 190]
000000 e1 86 84 3f 04 35 b1 bf 29 ec 15 3f 39 2f b7 3e
       1.0353662 -1.3844304 0.58563477 0.35778216
000010 35 a3 c7 be f2 1f 21 3e 53 ce 42 be 82 49 e8 be
       -0.38991705 0.15734842 -0.19024019 -0.45368582
000020 14 e9 f9 bd c7 6f 65 3f 8d 78 17 3f fa 7d 4e 3f
       -0.12202659 0.89623684 0.5916832 0.80660975
000030 a2 bd 42 bd 00 98 d4 be 97 1b c2 be 9c f7 3f 3f
       -0.04754413 -0.41522217 -0.37911674 0.74987197
000040 5b b2 93 bf 79 15 2c bf 8f 87 c3 bc 9a 0d 13 bf
       -1.1538805 -0.67220265 -0.02386835 -0.5744263
000050 02 96 76 bf a6 82 b6 3d bb 6f f0 3e 80 24 6f 3f
       -0.96322644 0.08911638 0.46960244 0.9341507
000060 89 52 80 3e 1a de be 3e a9 77 22 bd 30 1a a1 bd
       0.2506297 0.37278825 -0.039664898 -0.07866323
000070 86 8a 00 bf ce 1c 9b be b7 72 d7 be b8 4f 90 bc
       -0.5021137 -0.30295414 -0.42079708 -0.017616138
000080 23 a7 1a 3d e4 09 f2 3e 69 56 d6 3b 3c 21 e9 be
       0.03775705 0.4727317 0.0065410626 -0.45533168
000090 de 76 5f 3e 57 06 d3 bf bb 22 78 3d 85 5e 7b 3e
       0.21822688 -1.648631 0.060579997 0.24547775
0000a0 37 f8 0b 3f ce a1 56 3d a1 71 e1 be 9a 85 7e 3e
       0.5467562 0.052400403 -0.44032004 0.24855652
0000b0 c0 20 bf be c2 b5 d4 be 7a 9a ce bc 61 fc 2e 3f
       -0.37329674 -0.4154492 -0.025220145 0.6835385
0000c0 bc 1c fe 3e e2 6b 5c bf 9a d0 dd 3e a7 94 bf 3e
       0.49631298 -0.86102116 0.43323213 0.374181
0000d0 e6 6f ef 3e 2d 32 25 3f c5 58 b1 be 9d e3 64 be
       0.4676506 0.6452969 -0.34638038 -0.22352453
0000e0 dc a7 d4 3e a9 d0 b7 3e b9 f6 f4 3e e3 18 15 3f
       0.41534317 0.35901383 0.47844484 0.582411
0000f0 47 ce a2 be cd ed 41 be ce 14 f8 3e 49 e2 cf 3e
       -0.31798002 -0.1893837 0.48453373 0.4060233
000100 ae c6 05 3f 2c ba 18 3f 08 9f c7 be cd 4d 7b be
       0.52256286 0.59659076 -0.3898852 -0.24541397
000110 7d d3 05 3f a7 a2 97 3e 6f e2 da 3e e0 5d 21 3f
       0.5227583 0.2961628 0.4275088 0.63033867
000120 e5 5a af be 2f 3e 27 be 15 d3 ea 3e de 71 c5 3e
       -0.34249035 -0.16332315 0.45864168 0.38563436
000130 90 1c e6 3e a0 21 0a 3f 6f 68 c1 be 49 df 29 be
       0.44943666 0.5395756 -0.3777499 -0.16589083
000140 b7 76 ea be 00 51 da 3e 66 5b 71 be 80 cd 2d 3f
       -0.45793697 0.42639923 -0.23570022 0.67891693
000150 58 30 2b bf aa 8d 1f bf ec 53 18 3e 0f a1 cd be
       -0.6687064 -0.6232554 0.14875764 -0.4016194
000160 19 42 a0 be 53 98 d3 be 4c 01 89 be 6c 5a c5 bf
       -0.31300429 -0.41327152 -0.26758802 -1.541822
000170 9b 40 0f 3f 45 b3 1f 3f 9f 10 7a bd 1e d0 6e 3f
       0.55957955 0.6238292 -0.061051007 0.9328631
000180 64 7e 73 3e fb fa 70 be 12 50 ab 3a 17 63 63 be
       0.23778683 -0.23533241 0.0013070127 -0.22205769
000190 68 fe a0 3d 70 f6 5f 3e 54 84 08 bf c3 cc 3e 3e
       0.07861024 0.21871352 -0.53326917 0.18632798
0001a0 4b ad 36 bf ff 08 b7 3d 0b 9e 8d bf 30 1f c3 be
       -0.71358174 0.08937263 -1.1063856 -0.38109732
0001b0 5f 2b c6 bf ee b0 15 3f a5 f5 fc be 53 46 1e bd
       -1.5481986 0.584731 -0.49406162 -0.038641285
0001c0 2f ad b6 bd c6 0f 01 bf 20 b7 a2 3f dd 33 bc 3d
       -0.08919751 -0.50414693 1.2712135 0.0918958
0001d0 cd 21 cf bf 0b 44 62 be e5 0d 05 3f 5f 9e 1b 3e
       -1.618219 -0.22096269 0.51974326 0.15197133
0001e0 03 ad 35 3f ca 70 da bd 16 20 ba 3e 7e d0 97 be
       0.7096712 -0.10666044 0.36352605 -0.29651254
0001f0 34 18 89 bf d9 00 2f bf 16 c3 f9 3d 93 86 b0 3f
       -1.0710511 -0.6836067 0.12195413 1.3791069
000200 fc 51 13 3f 1a b1 5d 3f a5 44 96 3f 63 59 a0 3f
       0.57546973 0.8659836 1.1739699 1.2527279
000210 bf 7e 25 be 95 3b bd bd 3b fb b3 be 99 8d 8a be
       -0.16161631 -0.0923988 -0.3515261 -0.27061155
000220 8b fd 91 3f 3f e6 ad 3f 78 a9 c9 bd 8f 41 3d be
       1.14055 1.358589 -0.09846777 -0.1848204
000230 9d cb a0 be 33 f2 7c be e4 d6 95 3f e4 13 b1 3f
       -0.31405345 -0.24701767 1.1706204 1.3834195
000240 ef 86 fb bd 7b 98 d8 bd 4a 72 a2 be 49 8d 9d be
       -0.12281596 -0.10575958 -0.3172782 -0.30771855
000250 58 cb 96 3f b7 d1 af 3f 53 07 01 be 6e 5f 2b be
       1.1780806 1.3735875 -0.1260045 -0.16735622
000260 00 35 de be 67 a0 56 be 34 54 8d 3f 22 ea aa 3f
       -0.4339981 -0.20959626 1.1041322 1.3352702
000270 ca 13 e3 bd 59 bf 1e be 1c 9d d9 be dc 9d 4e be
       -0.11087759 -0.15502681 -0.42502677 -0.20177406
000280 da ac 96 3d ec 91 17 bf 4e eb ed 3e 69 7e 6c 3f
       0.073571876 -0.59207034 0.46468586 0.92380387
000290 5e 71 74 3e 7b 63 75 be 8d f9 a1 3d 60 ac 21 bf
       0.23871371 -0.2396373 0.07908926 -0.6315365
0002a0 1f 6a f4 3e 40 7f 66 3f 42 c4 35 3e 8b 80 6a be
       0.47737214 0.9003792 0.17750648 -0.22900598
0002b0 a2 ed ed 3d f3 a7 35 bf d5 47 d0 3e 6b 27 54 3f
       0.116175905 -0.70959395 0.40679803 0.8287265
0002c0 dc f2 55 3e 90 c2 8d be d8 85 e1 3d 41 db 32 bf
       0.20893425 -0.27687502 0.11011857 -0.69865805
0002d0 fd 99 ed 3e 28 9d 6e 3f 6d c4 57 3e 52 01 89 be
       0.46406546 0.9320855 0.21071024 -0.2675882
0002e0 cf 3e c0 3d 80 bb 30 bf 3a 12 d4 3e f2 20 69 3f
       0.0938698 -0.690361 0.41420156 0.91065896
0002f0 f9 9b 7e 3e dc 34 b4 be 5f af 03 bf e2 78 36 bf
       0.24864186 -0.35196579 -0.5143947 -0.712782
000300 5e 46 77 3e 89 ed e0 be 99 47 97 be 71 10 41 be
       0.24147937 -0.43931225 -0.29546812 -0.18853928
000310 a4 55 42 bf 92 52 44 be 28 6b b5 be 22 e2 70 3f
       -0.7591193 -0.19172123 -0.35433316 0.9409505
000320 a4 36 1f 3f eb 5a 03 40 41 2a 8c 3f 9c be e7 bd
       0.6219275 2.0524242 1.0950395 -0.11315653
000330 6b b5 0c 3d f8 5b a9 3e 73 f2 81 bf 60 15 ef be
       0.0343527 0.3307798 -1.0152115 -0.46695995
000340 ee d0 4a 3c 60 8c 71 3e 9e 14 00 bf 4d 66 46 bd
       0.012378914 0.23588705 -0.5003146 -0.048437405
000350 8e 18 ca bf 03 4e 47 3e f3 8a 6b be b5 bb b4 3e
       -1.5788743 0.19463353 -0.23002224 0.3529946
000360 58 f8 6f 3f 4f 32 d1 be d0 fa ef be 9a 1c 6a be
       0.9373832 -0.40858695 -0.46871042 -0.22862473
000370 87 07 aa be 08 05 b9 be d5 14 8f 3d eb e8 74 3e
       -0.33208868 -0.3613665 0.06986395 0.23916976
000380 13 19 81 3e c9 6b 8c 3e 70 ab f5 3f b3 4c 79 bf
       0.25214443 0.27425984 1.9192944 -0.9738266
000390 37 78 02 3f e4 fe 59 bc 15 00 1a bf d2 cf f0 3e
       0.50964683 -0.0133054 -0.60156375 0.47033554
0003a0 ea 9e 01 c0 b6 8a 52 3f 5c 34 d9 be 13 42 1e 3e
       -2.0253243 0.82242906 -0.4242276 0.15454893
0003b0 7b 99 27 3f 75 2a 85 3e cd 3d 08 bf 29 18 a8 bf
       0.6546857 0.26008955 -0.532193 -1.3132373
0003c0 f4 bf 3e be 6b 0f 8e bd 53 b6 0a bf 54 69 25 3f
       -0.18627912 -0.069365345 -0.54184455 0.6461384
0003d0 ac f9 52 bf ea f0 af be 59 46 44 be 06 b6 04 be
       -0.8241222 -0.3436349 -0.1916746 -0.12960061
0003e0 cd c9 fe be 4c 27 2f 3f 72 87 51 bf bd 58 93 be
       -0.49763337 0.6841934 -0.818473 -0.2877864
0003f0 2f 5a 41 be 09 b2 c6 bd ad f9 0e bf 17 eb 2c 3f
       -0.18882059 -0.09701926 -0.55849725 0.6754622

fc1.bias f4 [256]
000000 ed 05 ee bf 46 c0 5c bf 08 5a 55 be 0a e6 b5 bf
       -1.8595558 -0.86230886 -0.20835125 -1.4210827
000010 df 74 e5 3e 0a 03 e6 be 3b bb 1d bf 97 8a 5e bd
       0.44815728 -0.44924194 -0.61613816 -0.05433139
000020 c5 14 bb bf 8a dd df be da 30 1f 3e 1b 38 b6 bf
       -1.4615713 -0.43723708 0.15545979 -1.4235872
000030 74 99 cd bd 27 9d 18 3f 57 e0 aa bf 07 b5 52 3f
       -0.100390345 0.59614795 -1.3349713 0.82307476
000040 72 67 73 bf 19 d9 0f 3f ab 45 a9 bf 53 b1 b3 bf
       -0.9507972 0.5619064 -1.3224386 -1.403849
000050 5b 11 09 c0 e4 02 b1 3e c5 52 e7 bf 81 3d 46 bf
       -2.1416843 0.34572518 -1.8072134 -0.774376
000060 53 ac bc 3a 00 59 ec 3e 95 4f 9e bf 3a 59 25 be
       0.0014394618 0.46161652 -1.2368037 -0.16147318
000070 11 a8 dc bf c7 cf ab 3d 0d 15 1e c0 17 3b d7 bf
       -1.723879 0.0838924 -2.4700348 -1.6814908
000080 0e 92 07 be 23 e7 9f bf cc d2 39 3f 92 19 00 c0
       -0.13239309 -1.2492412 0.72587276 -2.0015607
000090 34 a5 6f bf 32 4e 94 3e 99 a9 86 bf 7d c8 f0 be
       -0.93611455 0.28965908 -1.0520507 -0.4702796
0000a0 4b 67 16 c0 1a 1e 83 bf 24 89 98 bf f1 a4 77 bf
       -2.3500545 -1.0243561 -1.1916852 -0.96736056
0000b0 59 f8 78 bf b8 32 03 c0 f2 b3 d8 be 8e 1f b7 bf
       -0.9725395 -2.0499706 -0.42324787 -1.4306505
0000c0 39 d1 70 bf 41 55 fb bf a3 1b a2 bf d3 35 b1 3e
       -0.9406925 -1.9635392 -1.2664684 0.34611377
0000d0 5c 1f cd bc b6 1d dd be 2d 0a 00 c0 22 1d 6f bf
       -0.025039367 -0.4318673 -2.000621 -0.9340383
0000e0 39 19 6e bf 42 ce cb bf fe a6 9c bf 51 86 72 3e
       -0.93007237 -1.592232 -1.2238462 0.2368405
0000f0 b4 a6 97 3f f3 a9 98 bf f7 f2 44 bf 0f e6 88 bf
       1.1847749 -1.1926864 -0.76933235 -1.0695208
000100 87 e5 34 bf 4e 9c 15 bf bc a8 fc bf 17 d0 c0 be
       -0.7066273 -0.5844163 -1.9738994 -0.3765876
000110 03 2b 01 c0 3e 3e 23 bf 94 43 ce be 4a 17 97 bf
       -2.0182502 -0.6376685 -0.40285933 -1.1803982
000120 5b 56 91 bf 73 6d 4e bf dc 4b f0 bf e7 7b 8a bd
       -1.1354479 -0.80635756 -1.877315 -0.06761914
000130 d4 41 a5 bf 31 86 28 40 79 d8 a5 3c cc 72 d5 bf
       -1.2910714 2.6331904 0.020244824 -1.6675658
000140 ef 31 de 3e 37 7a 96 bf db de 65 bf 70 48 ce 3e
       0.4339747 -1.1756047 -0.89793175 0.4028964
000150 71 3e 7a bf 49 78 e1 bf 85 c5 e7 bf e3 b0 92 bf
       -0.9775153 -1.7614833 -1.8107153 -1.1460232
000160 de 53 3f bf 3e 5e 95 bf ba bf db be f6 d4 9b bf
       -0.74737346 -1.1669385 -0.42919713 -1.2174366
000170 5d b5 6c be 3f 80 75 3f 30 ec cb bf dc de 7b bd
       -0.2311606 0.95898813 -1.5931454 -0.061491832
000180 3c 18 94 bf 9a 13 da 3e 50 f1 fb be 1d 9a 56 bd
       -1.1569896 0.4259308 -0.49207544 -0.052393068
000190 16 4b 3d 3f 4d fe cd bf d5 e3 0e bf 8e 0b 45 3f
       0.739427 -1.6093231 -0.55816394 0.76970756
0001a0 8c 2a 06 c0 ea d8 80 3d 24 a3 0e bf 7d ca 9a 3f
       -2.0963469 0.06291373 -0.5571768 1.2093045
0001b0 81 97 88 be c4 63 98 bf 2d 37 e9 bf bc 1f df bd
       -0.26678088 -1.1905446 -1.8219963 -0.10894725
0001c0 78 dc 53 bd e5 b3 cb be f9 59 b7 bf 0d 40 d4 bd
       -0.051723927 -0.39785686 -1.4324332 -0.10363779
0001d0 01 10 11 3f 63 b5 63 be 67 71 b5 bf e9 a5 15 3d
       0.56665045 -0.22237162 -1.4175233 0.036535177
0001e0 cb a4 43 be 8e 20 56 bf 8b d1 11 bf bb b4 bf bd
       -0.19105832 -0.83643425 -0.5696036 -0.093606435
0001f0 87 22 98 bd 11 07 c9 bd b3 c1 3e bf b8 79 06 be
       -0.074284606 -0.09815801 -0.7451431 -0.1313237
000200 6a fe b7 be 4a a8 d6 bf f4 e9 82 be 2c 7b e1 3e
       -0.3593629 -1.6770108 -0.25569117 0.44039285
000210 96 64 c1 bf e6 af 04 bf 56 19 b7 bf cc 13 70 3f
       -1.5108821 -0.518309 -1.4304607 0.9378021
000220 fa 32 c0 bf 65 05 96 bf ba 71 1c bf 68 fb 0e c0
       -1.5015557 -1.1720396 -0.6111103 -2.2340946
000230 92 6f 3d 3f 31 7b 2d bf b3 33 a5 bf a9 ce c0 3d
       0.7399837 -0.677661 -1.2906402 0.09414417
000240 5b ce 08 3f 1a fd 01 c0 5c 90 c9 3d 9b 89 fe be
       0.53439873 -2.031073 0.098419875 -0.4971436
000250 d4 09 bb bf 70 04 05 3f c3 79 91 be 3b 06 e8 bf
       -1.4612374 0.51959896 -0.2841321 -1.8126901
000260 72 e5 a1 bf 1d 21 f0 be 8d 06 9e 3f 39 67 e0 bf
       -1.2648146 -0.46900263 1.2345749 -1.7531501
000270 c8 61 61 3f 10 4f a4 bf d1 7e e1 bf f3 08 b6 3e
       0.8803983 -1.2836628 -1.7616826 0.35553703
000280 5e 7d 9c bf 9d a6 b1 bf 7a d5 fd bf 45 df 05 c0
       -1.2225759 -1.3878971 -1.9830773 -2.0917523
000290 00 3c 98 bf 45 af 6b be 54 7e e5 bf 0f a7 90 be
       -1.189331 -0.23016079 -1.7929177 -0.28252456
0002a0 e9 bb f0 bf 09 00 45 be 8d 8a f1 bf 14 f6 ae bf
       -1.8807346 -0.19238295 -1.8870407 -1.3668847
0002b0 08 a2 12 c0 71 27 d3 be 3e 38 dd bf 58 0f 19 40
       -2.2911396 -0.4124103 -1.7282789 2.3915615
0002c0 3a 24 c7 3f 0e 0b ba 3e e8 f0 2a bf 11 82 18 c0
       1.555793 0.3633656 -0.66773844 -2.3829386
0002d0 fe fa b2 3e 54 81 8c 3e e0 40 b8 bf ba c6 e6 bf
       0.34957117 0.2744242 -1.4394798 -1.8029397
0002e0 ff f7 ec 3e 0d 8d 2c 3f af 11 91 3f 76 7f 91 be
       0.46282956 0.67402726 1.1333522 -0.28417557
0002f0 9a b3 be bf 74 35 3f 3f 36 5a 9f bf ce 74 2e bf
       -1.489856 0.7469094 -1.2449405 -0.6814698
000300 05 79 06 c0 30 4f 66 3f 64 9d a7 bf 83 79 d6 bf
       -2.1011364 0.8996458 -1.3094907 -1.6755832
000310 f4 0a 02 be fe b4 fd be 4e 70 25 bd e6 99 e9 bf
       -0.12699491 -0.4955215 -0.040390305 -1.8250091
000320 9e a4 2b 3f 7b 2f b0 bf 94 ee 8e bf 4f 9b ab bd
       0.6704806 -1.376449 -1.1166558 -0.08379232
000330 15 bf b9 bf 10 37 88 bf 57 9a d0 3c b8 3a b2 be
       -1.4511439 -1.0641804 0.02546422 -0.34810424
000340 ae 86 2d bf a9 73 dc bf 04 2b cb be 32 f0 23 be
       -0.6778363 -1.7222797 -0.39681256 -0.16009596
000350 b5 ba 15 bf 8a ef 86 bf d9 d5 f1 be c9 f3 d2 bf
       -0.5848802 -1.0541852 -0.47233465 -1.6480647
000360 3b 64 0f c0 5a b5 a6 bf 88 53 3b be fd 1c d5 3e
       -2.2404926 -1.3024094 -0.18293583 0.4162368
000370 bc bd 90 bf ac 33 bf bf 11 a6 0b c0 77 56 ae bd
       -1.1307902 -1.4937644 -2.182011 -0.085125856
000380 c5 b5 ad 3f 65 e4 86 bf 3b 74 e7 bf 77 c7 14 bd
       1.3571097 -1.053845 -1.8082346 -0.036323037
000390 ec 9f 28 bf 7f 35 a4 be 26 6a bf bf a8 0d c9 bf
       -0.6586902 -0.32072064 -1.4954269 -1.5707293
0003a0 94 41 c4 bf f6 5b 97 be 75 0c 92 bf ba 60 d9 bd
       -1.5332513 -0.29562348 -1.1410052 -0.10614152
0003b0 18 74 e1 bf ab b9 3d bf cc e3 f5 bf bd 4a dd 3f
       -1.7613554 -0.7411143 -1.9210143 1.7288433
0003c0 32 90 fe 3f d8 23 08 c0 9f 7f ee 3f 87 21 1b bf
       1.9887755 -2.1271877 1.8632697 -0.60598034
0003d0 01 ec 6e 3f 72 6f bc bf 9d 7f 89 bf 03 13 ec bf
       0.93328863 -1.472151 -1.074207 -1.8443302
0003e0 51 6f 97 bf d0 eb 13 bf 0f 0b 3f 3f e4 8b 98 bf
       -1.1830846 -0.57781696 0.7462625 -1.1917691
0003f0 19 d4 23 3d d7 d7 bb 3f b1 cb 74 bf 21 8f 2b 3f
       0.039997194 1.4675244 -0.9562331 0.6701527

fc2.weight f4 [512, 256]
000000 aa 78 17 40 ae 6e 83 3c 29 34 be 3f b1 bb 33 3f
       2.3667397 0.016043987 1.4859668 0.7020827
000010 d6 3d 1d 3f a9 4e 06 3f a1 5a c8 3c 5a 19 61 bd
       0.6142248 0.52463776 0.024457278 -0.054955818
000020 27 45 23 40 78 0f 2d 40 03 31 71 3f 76 68 92 40
       2.5510957 2.7040691 0.9421541 4.5752516
000030 27 78 7f bd dc fe 65 bf 9a c8 3f 3f aa 08 56 be
       -0.062370446 -0.8984201 0.7491547 -0.20901743
000040 2c 1a bb 3f 27 13 50 bd b5 41 66 bf 30 58 80 3e
       1.4617362 -0.050799515 -0.8994401 0.25067282
000050 bf 7d 42 3e 74 c0 6a 3f ee ff c2 3f db fd 3a 3f
       0.18993281 0.9169991 1.5234354 0.730436
000060 7e 2b de be 08 1f a4 3e 0d 56 bd 3f 2b 01 2a bc
       -0.43392557 0.32054925 1.4791886 -0.010376255
000070 e1 99 d1 3f f5 79 9a bf f5 fd e4 3f 4f 36 47 3e
       1.6375085 -1.2068468 1.7890002 0.19454311
000080 73 92 c4 be aa 41 4f 3f 5b 5d 4d c0 d4 78 d7 3f
       -0.38392982 0.8095957 -3.208823 1.6833749
000090 79 5e be 3f 7f f5 1e 3f 2e 51 d1 3f 19 34 18 bf
       1.4872581 0.6209335 1.6352899 -0.59454495
0000a0 a9 90 ed 3f f4 69 86 3f 1a 5f c5 3f 87 1f 00 40
       1.8559772 1.0501084 1.5419648 2.0019243
0000b0 21 c9 d1 3f 0d b0 88 3e 51 a3 5c 3e 0b e5 0d be
       1.6389505 0.26696816 0.21546675 -0.13856904
0000c0 49 e3 04 40 05 dd 18 40 87 f8 1c 3f 20 c6 04 c0
       2.0763724 2.38849 0.6131672 -2.0745926
0000d0 ed a4 4f bf 06 ba 92 3f 94 bd d1 40 3a 74 ee 3e
       -0.8111103 1.146302 6.554392 0.4657305
0000e0 06 64 cb 3e 63 13 d8 3f 8f 4c 93 40 79 d6 99 3d
       0.3972475 1.6880916 4.6030955 0.075116105
0000f0 2b 71 72 be 93 31 ba bd 69 de 77 3f 1e 83 59 be
       -0.23675983 -0.09091487 0.96823746 -0.21241423
000100 88 6a 48 3f 8b 2d 8d 3f 66 94 d8 3e 12 d9 0d bf
       0.78287554 1.1029524 0.4230072 -0.5540935
000110 6e c5 ad 3f c0 61 36 40 6c 15 34 40 55 7b 54 3f
       1.3575876 2.8497162 2.8138075 0.8300069
000120 10 72 30 40 dd c4 0e 40 fb ed c1 3f bd 5f 9f 3f
       2.7569618 2.2307656 1.5150751 1.2451092
000130 9a 00 21 40 2e 7b 18 bf 02 31 24 3e 09 1d 90 40
       2.5156617 -0.5956296 0.1603432 4.5035443
000140 79 83 a4 3f 1e 95 df 3f 64 e4 94 3f 14 18 5c 3d
       1.2852622 1.7467382 1.1632199 0.0537339
000150 9f af c4 3e 5d 10 2a 3f 72 58 73 3f 07 88 a7 40
       0.38415238 0.6643122 0.9505683 5.235355
000160 eb 8a 89 3f 38 e5 ef 3e 18 bf 04 bf f2 7b 92 40
       1.0745519 0.46854568 -0.51854086 4.57763
000170 57 d0 c0 3d 4b b1 4c 40 6d d7 ef 3e 3b 7b ad 3f
       0.09414738 3.198321 0.46844044 1.3553232
000180 fb fc 14 40 d2 24 c1 3d a5 07 19 3f 82 70 64 3c
       2.3279407 0.09430851 0.5977729 0.01394284
000190 f7 59 af be f3 6f 97 3f bb 32 f6 3f 42 6e 1f c0
       -0.34248325 1.1831039 1.9234232 -2.4911046
0001a0 46 3f 62 40 77 4a 01 bf ff c8 02 3e 8c 35 0d bd
       3.535112 -0.5050425 0.12771986 -0.034474894
0001b0 d0 37 56 3e 80 22 5f 3f 9c 1c e5 40 2d 6b c6 3f
       0.20919728 0.8716202 7.1597424 1.5501457
0001c0 c8 20 db 3f a0 ec e9 bf 3f 67 a7 3d 3a 5b 4a 3f
       1.7119379 -1.8275337 0.081739895 0.7904545
0001d0 8a 87 25 bf 2a 5d 22 3d 9b 99 13 41 97 91 8b 3e
       -0.6465994 0.03963963 9.225001 0.27259514
0001e0 87 27 32 c0 9c 56 f7 be 4a 12 a3 be 75 ba a6 3e
       -2.7836626 -0.48308265 -0.3184989 0.3256413
0001f0 6f 36 85 bf a1 f2 51 3d ba 1c 7f 40 8d f6 4c 3d
       -1.0407237 0.05125678 3.9861283 0.050039817
000200 a2 d8 76 3e 2e 58 f1 3e 2d 38 da 3d f9 bb 3b bf
       0.24106076 0.47137588 0.10655246 -0.733337
000210 65 f4 8f 40 13 8c 19 3d e3 74 46 3f f2 e1 21 3e
       4.4985833 0.0374871 0.77522105 0.15808848
000220 1c a4 9b be 8d 84 3f 3f 95 68 b1 3d 10 8f 1b 3e
       -0.30398643 0.7481163 0.086625256 0.15191293
000230 56 49 a4 3f 7b 15 a4 3f 0f 66 00 3f 1c 1b 7a 3f
       1.283488 1.2819055 0.5015573 0.97697616
000240 7e d7 c6 bf 7d 24 39 40 d9 76 14 3f 89 e7 c9 3f
       -1.5534513 2.892852 0.5799385 1.5773784
000250 0b 1c f2 3e c1 e9 0a c0 65 35 a9 3f 32 67 56 3e
       0.4728702 -2.1705172 1.321942 0.20937803
000260 d5 56 92 3f 08 e5 01 c0 4b eb 57 3f e4 de a7 be
       1.1432749 -2.029604 0.84343404 -0.3278724
000270 63 57 30 bd a2 b3 cc 3f d5 ec dd 3f 1e 27 63 3e
       -0.04305209 1.599232 1.73379 0.22182891
000280 64 9d 08 40 6e d6 1c 40 7f c9 02 40 81 8e 77 40
       2.1346064 2.4505877 2.0435483 3.8680727
000290 37 9d ae 3f 8d 14 1c bd 6b 87 27 40 1a 29 c5 3e
       1.3641728 -0.038105536 2.6176403 0.3850792
0002a0 e1 e0 75 3e 28 1b d6 3e 29 62 c2 3f 6a da 47 40
       0.24011566 0.41817594 1.5186206 3.122706
0002b0 aa 3a be 3f 00 93 b1 3e 4b c2 36 3d 0a ec 02 bf
       1.4861653 0.34682465 0.044618886 -0.5114142
0002c0 81 47 32 3e dd 39 a0 3d 3c 5f 6e 40 16 bd 26 40
       0.17410089 0.078235365 3.7245626 2.605291
0002d0 7f b4 46 3f b8 03 97 3f cf cb aa 40 be 6a 37 3f
       0.77619165 1.179801 5.337379 0.7164725
0002e0 cb e4 f4 3d 02 9e c3 3e 61 34 a7 be e0 ec 45 3f
       0.11957701 0.38206488 -0.3265715 0.7731457
0002f0 6a 69 07 3f 87 81 88 3f 55 32 9d 3e 2f 16 c8 3e
       0.52895224 1.0664529 0.30702463 0.39079425
000300 2b 8d 02 40 ed 73 e6 be ef 14 9f 40 89 93 32 41
       2.0398662 -0.4501032 4.9713054 11.161019
000310 c9 3e e6 3c 92 45 3e 3f 9b 07 b0 be 6d 1a 19 40
       0.02810611 0.74324906 -0.34380803 2.392238
000320 9e 5b e6 3e b2 5e 91 be b8 1b 36 3f 57 9d 05 bd
       0.44991773 -0.2839256 0.71136045 -0.032620754
000330 8c 35 2b 40 f3 1b da 3f 4a 18 89 be ba 58 de 3c
       2.6751432 1.703978 -0.26776344 0.027141917
000340 c3 5e ad 3e 7b b0 5e 3f f9 84 9a 3f 14 a4 06 bd
       0.3386136 0.8698804 1.207183 -0.03287132
000350 dd 76 21 be 3a 16 3f 40 b0 dc b9 be 51 17 0e 3f
       -0.15767999 2.9857316 -0.36301184 0.5550433
000360 a2 48 a6 40 f3 ba 0d 40 1a 2f b2 bf 4c 95 b9 bc
       5.1963663 2.2145355 -1.3920624 -0.022654198
000370 78 9f 79 3f 0f 7a 60 40 31 51 4b 3e d3 86 50 3b
       0.97508955 3.5074499 0.19855191 0.0031818643
000380 49 29 ac be f6 06 0d bd 7a c7 4c 3e 13 6c 3c 3e
       -0.33625248 -0.034430467 0.1999797 0.18400602
000390 59 db a5 bf 03 dd 12 c0 48 62 2a bf bc 22 45 40
       -1.2957565 -2.2947395 -0.66556215 3.080245
0003a0 32 93 1a bd a9 76 4d 3f c4 6e be 3f 1e 11 f5 bc
       -0.037738033 0.80259186 1.4877553 -0.029915389
0003b0 64 62 9c 40 52 73 29 bf 8d 1c 9b be 04 f6 4e 3d
       4.8870106 -0.6619159 -0.3029522 0.050527588
0003c0 d8 90 07 3f c3 11 17 3f cc 05 cc 3e 2b c0 de 3f
       0.5295539 0.5901148 0.39848173 1.7402395
0003d0 d1 da 5e 3f 78 d9 8a 3e ec c2 5d 3f 49 09 9d be
       0.8705264 0.2711904 0.8662555 -0.30671147
0003e0 78 0b 72 be 87 8f c0 3c da 1a 8b 3f 49 43 4b 3e
       -0.23637187 0.02350594 1.086757 0.19849886
0003f0 cc 8a 76 c0 0f e4 66 bf 4d 5b 65 c0 2d 98 2b 3f
       -3.8522215 -0.9019174 -3.5836976 0.67029077

fc2.bias f4 [512]
000000 6d d4 60 3d 75 e5 b4 3e 11 dd c9 bf 3b 1f a4 be
       0.054890085 0.35331312 -1.5770589 -0.32055077
000010 7a 3e 47 be a7 94 00 be 06 17 91 bf 65 14 94 bf
       -0.19457427 -0.12556706 -1.1335151 -1.1568724
000020 43 13 2f bf 67 00 99 bf 3d af e5 be d6 41 02 bd
       -0.68388766 -1.1953248 -0.4486026 -0.031801067
000030 e1 7a d7 bd a3 0a 8e bf 20 1d bb bd 94 d7 cf 3c
       -0.10521484 -1.1096996 -0.091364145 0.02537135
000040 55 3e 11 be 89 3f 1d c0 c2 50 87 bf bb 79 03 be
       -0.14183934 -2.4570029 -1.057152 -0.12839405
000050 1a da 35 c0 1f c4 8d 3e a7 07 b0 bf 63 82 8d 3f
       -2.8414369 0.2768869 -1.3752335 1.1055416
000060 85 d4 1b be 9f 62 12 3e 63 a7 8b be 65 a0 d2 be
       -0.15217789 0.14295433 -0.27276143 -0.41137996
000070 c1 0f 81 3f 5b 7d 88 bf 45 35 1a bf a8 eb 38 bd
       1.0082933 -1.0663255 -0.6023753 -0.045146614
000080 02 ac db 3e 1f bc 68 bd d0 9f 03 bf 15 5b b2 be
       0.4290467 -0.05682003 -0.5141573 -0.34835115
000090 da 4f 44 3e 44 d9 50 be 2b 3b 36 bf 2a ce 09 bd
       0.19171086 -0.2039538 -0.71184033 -0.03364388
0000a0 c6 6b 90 be 1f 8d fb be 8f 29 5f 3e fc 7b b3 bd
       -0.28207225 -0.49131104 0.21793197 -0.087638825
0000b0 5f e7 19 bf 42 b8 fc 3e 49 f3 a0 bd 5e 69 0b bd
       -0.6011867 0.49359328 -0.07858903 -0.034036033
0000c0 82 50 b2 bf 2f 79 8c bf fd 58 28 3f 12 03 e3 be
       -1.3930819 -1.0974482 0.65760785 -0.4433828
0000d0 16 a5 8f be 45 63 c7 bf e0 02 2a bf f5 a5 56 bd
       -0.28055638 -1.557717 -0.66410637 -0.052404363
0000e0 c0 80 a3 3e 71 57 18 bf b4 c1 ba be fa 12 1d 3f
       0.31934166 -0.59508425 -0.3647591 0.6135708
0000f0 1c 69 44 3e b1 0d 13 3d 81 77 e3 be f6 37 d3 be
       0.19180721 0.03590173 -0.44427112 -0.41253632
000100 ca 03 b5 be 61 b3 0f bf 05 57 e8 be fb bc 80 be
       -0.35354453 -0.56133085 -0.4537889 -0.2514418
000110 14 d0 85 be 4e f5 f0 be 77 ab a3 bf b7 7b 23 bd
       -0.26135314 -0.47062153 -1.2786702 -0.039912906
000120 23 c9 c6 3d 67 a3 9f be 95 3f 4a bf 14 71 90 bf
       0.097063325 -0.31179354 -0.7900327 -1.1284509
000130 6c f1 cb be 18 ee 4a 3f 22 b6 8d be 89 0c 11 be
       -0.39832628 0.7926955 -0.2767802 -0.14164938
000140 7f 47 a5 bf 4b bf 56 bf bc 43 78 bf 9a 49 3b be
       -1.2912444 -0.8388564 -0.96978354 -0.18289796
000150 d8 98 53 bf 49 14 6c bf 3f 68 f2 be 35 6a 22 be
       -0.82655096 -0.9221845 -0.47345158 -0.15860827
000160 4d 95 b0 3c ba c6 16 bf 82 93 31 bf 2e f1 d1 be
       0.021555567 -0.5889698 -0.69365704 -0.41004318
000170 9a f8 de bf 79 31 e7 be 9d 07 b8 bd ba 63 2a 3e
       -1.7419617 -0.45154932 -0.08985827 0.16639605
000180 10 31 5d bf 33 bd 48 bf 77 12 35 bf 00 f6 88 bf
       -0.8640299 -0.78413695 -0.707313 -1.0700073
000190 3f 89 a9 bf fd d3 91 bf e9 92 c1 bf 7e 40 79 bf
       -1.3245009 -1.1392819 -1.5122958 -0.9736403
0001a0 fd 32 71 bf b9 9f 92 bf 9a 23 8c bf bf 29 39 bf
       -0.94218427 -1.1454993 -1.0948365 -0.72329324
0001b0 39 e1 6a 3e 95 13 a1 be 34 f9 c9 bf 2d 03 5c be
       0.22937478 -0.31460252 -1.5779176 -0.21485586
0001c0 fa 8b 21 be 26 dc a3 bd f3 ce d6 be 8a 9e 3e 3f
       -0.15776053 -0.08000974 -0.41954765 0.7446066
0001d0 5c a9 82 bf 57 bb 6d 3f 8c 5f 5c bf 41 ce 9f be
       -1.0207934 0.9286398 -0.8608329 -0.31212047
0001e0 50 fd fa be 74 e9 65 bf dc 68 82 be 1b 8a 0e c0
       -0.49021387 -0.89809346 -0.25470626 -2.2271793
0001f0 09 1b 14 bf be 42 1c 3f 17 90 b9 bf 18 82 01 c0
       -0.5785375 0.6103934 -1.4497098 -2.0235653
000200 18 06 a0 bd 0d e3 ec be 8d a9 34 bf 64 b4 45 bf
       -0.07813662 -0.46266976 -0.70571214 -0.7722838
000210 8c ba 91 3e 7a 62 8e be 06 cf 09 3f 56 f8 3a be
       0.28462636 -0.27809507 0.5383152 -0.18258795
000220 97 a7 d1 3d 89 a0 39 bf f2 4d 9b 3d c9 b7 0a bf
       0.10237043 -0.7251058 0.07583226 -0.54186684
000230 63 d3 93 bf 37 0f 78 bf 84 96 b1 bf 86 f5 2c 3e
       -1.1548885 -0.96898216 -1.3874059 0.16890535
000240 34 15 76 bf 58 97 d8 3e 41 1e 02 be 6e c7 2d 3c
       -0.96126103 0.42302966 -0.12706853 0.01060663
000250 8a 0a 4f be 63 65 57 bf 85 71 f1 be 8c 0c 39 bf
       -0.20218864 -0.8413908 -0.4715692 -0.7228477
000260 77 3f 25 3d 62 ba 3d bf e1 ff bf be 6d 32 3d 3e
       0.040343728 -0.7411252 -0.37499908 0.18476267
000270 03 39 21 3b 6e 4d 7c bf 44 4e e0 bd d5 98 03 be
       0.0024600632 -0.9855565 -0.10952428 -0.1285127
000280 1d 76 09 bf f8 9a 4b 3d 81 87 3b 3f 9a 8e 71 bf
       -0.5369585 0.049708337 0.7325364 -0.9435822
000290 10 e1 ce bf 7a 85 01 bf c0 8b 44 bf 9d 00 b9 bf
       -1.6162434 -0.50594294 -0.7677574 -1.4453312
0002a0 5d 22 12 3e ec 92 17 3e 04 a7 c2 bd bc fa 2f bf
       0.14270921 0.1480214 -0.09504512 -0.68741965
0002b0 c4 db 8a bf b0 9f 8c bf a1 81 6b 3d 28 f6 6d be
       -1.0848317 -1.0986233 0.05749667 -0.23238432
0002c0 a4 d9 de bb 7a aa 15 bf 3d a8 cc be 4d ed 3e bd
       -0.006800847 -0.5846325 -0.39972106 -0.046613026
0002d0 60 d1 88 bf b5 a4 d3 be 40 0d 67 be 47 77 85 be
       -1.0688896 -0.413366 -0.22563648 -0.26067564
0002e0 d1 c2 06 bf c0 b3 ba 3e f2 b8 03 c0 33 03 40 bf
       -0.52641016 0.36465263 -2.0581632 -0.7500488
0002f0 a6 32 d8 be 96 ec 23 3e d8 30 81 bf 61 d6 47 bf
       -0.42226142 0.16008219 -1.0093031 -0.7806149
000300 12 ff c3 bc f3 1f 6d 3f ba 5d 56 bf ca 9b 2b 39
       -0.023925338 0.92626876 -0.83736765 0.00016365867
000310 45 a7 a0 bf 82 c0 b5 bf c7 c9 b1 be 2e 2a a7 bf
       -1.2551047 -1.4199374 -0.34724256 -1.3059747
000320 a5 8c a2 bb 0f c4 6f 3e b4 c4 98 be fe cc c8 be
       -0.004960614 0.23414634 -0.29837573 -0.39218897
000330 31 4e be be bc bb 56 bd 17 05 b0 bf f2 47 1e be
       -0.3716903 -0.05242513 -1.3751553 -0.15457132
000340 0e 48 a9 bc b7 c9 96 3e 5a 5f 81 bf 29 a0 80 bf
       -0.020664241 0.2945077 -1.0107224 -1.0048877
000350 9d 93 2b bf 8a 46 e0 be 5b 93 b5 be 9a 4d 3c bd
       -0.67022115 -0.43803817 -0.35463986 -0.045972444
000360 7f b4 8e be e2 3b c8 be b4 44 cd 3e 90 73 05 3f
       -0.27872083 -0.39108187 0.4009148 0.5212946
000370 90 6e 64 bc fb f6 a6 bd a6 0d 80 bf e8 54 e8 bd
       -0.013942376 -0.081525765 -1.0004165 -0.113443196
000380 2a af ae bf fb 1c 71 3c 9d 3e 02 bd 29 91 3b bd
       -1.3647206 0.014716382 -0.031797994 -0.045792732
000390 2f b1 83 3d 86 b4 5b bf 80 e1 36 be 34 c1 20 bf
       0.064302795 -0.8582233 -0.17859459 -0.62794805
0003a0 54 5b 19 be 3a 5e 97 bf 30 79 ac bf f4 12 54 bf
       -0.14976245 -1.1825631 -1.3474483 -0.8284142
0003b0 30 73 de 3c 41 2a 0e 3f f8 24 63 3f b6 85 47 bf
       0.027154535 0.55533224 0.88728285 -0.779384
0003c0 d7 6e 14 bf ca 11 4f be e9 80 16 bf 19 35 9d bf
       -0.5798163 -0.2022163 -0.5879045 -1.2281829
0003d0 74 2f 5f bd f9 29 9d bf 5d 96 ca bf 5b 0b 0d bf
       -0.054488614 -1.2278434 -1.5827137 -0.5509545
0003e0 b3 eb 59 be 51 de f8 bd 0f e1 17 3e 66 d3 0e 3f
       -0.21281318 -0.121517785 0.14831947 0.5579132
0003f0 aa d3 53 bf e4 36 3f bf 73 2c eb 3c b8 d6 3a 3d
       -0.8274485 -0.7469313 0.028707718 0.045614928

fc3.weight f4 [31, 512]
000000 fb 45 e1 3c ec e8 3d be fa 13 1c 3e 72 80 04 bf
       0.02749919 -0.18545884 0.15241995 -0.5175849
000010 34 3d c5 3e f7 bb bb 3e 82 3e 2f bd cc 65 8b 3e
       0.38523257 0.36666843 -0.04278422 0.27226102
000020 a5 e6 b3 be e6 38 01 3e 99 3c f3 3d 5d cc 2a 3c
       -0.35136905 0.12619361 0.118767925 0.010424701
000030 97 c9 2f 3c c0 1d 53 bf b4 80 fe bc c5 ca 6c 3e
       0.010729215 -0.8246727 -0.03106723 0.23124225
000040 dd 28 dd bd b1 b1 00 3e 9c db 73 bd d5 93 c6 3c
       -0.1079881 0.12567784 -0.059535608 0.024240414
000050 d9 f8 9d 3e dc 85 92 be 08 0e 1d be c9 e8 60 3d
       0.30853918 -0.28617752 -0.15337384 0.0549095
000060 f8 cb 93 be 59 63 3e 3d db 8d 71 3e 32 6f c7 3d
       -0.28866553 0.046481464 0.2358927 0.09738006
000070 01 4c 58 3e 53 df 4a 3d ed c2 4b 3e f3 1c 20 be
       0.21122743 0.049529385 0.19898577 -0.15636043
000080 c0 0e 79 3c 72 91 cc bf f0 4e 41 3d 58 a8 c6 3e
       0.015201271 -1.5981886 0.04719442 0.3880031
000090 1f 59 93 3d 71 93 b4 bc 7b 9f c9 3d ff b0 01 3e
       0.07194733 -0.022042962 0.098448716 0.12665175
0000a0 72 63 8c 3d 63 f5 80 be c8 5e 78 3e bc 05 25 3d
       0.06854905 -0.25187215 0.24254906 0.04028867
0000b0 f8 ef 99 3d e7 78 36 3e b7 e8 a3 be af 36 2b bc
       0.075164735 0.17819558 -0.32013485 -0.010450049
0000c0 68 f9 22 3e c9 ec c5 3b 8c 47 1a 3e c1 d8 da bd
       0.15915453 0.00604019 0.15066355 -0.10685874
0000d0 ed c0 2a 3d 06 44 69 3e 94 60 04 3e 51 5f c7 bb
       0.041687895 0.22779855 0.12927467 -0.0060843606
0000e0 71 39 3c 3e 75 6b b4 3d b2 c6 eb 3d 90 5e 15 bf
       0.18381287 0.08809558 0.115125075 -0.58347416
0000f0 1a 03 e6 bd 6c c7 9d be e7 91 4b be eb ca 90 3c
       -0.1123106 -0.3081621 -0.19879876 0.017674884
000100 7f 95 e5 bd ce 4d 1a be f4 3d 9d be c4 25 82 bc
       -0.11210155 -0.15068743 -0.3071133 -0.015887149
000110 55 bb 3c be b8 c7 36 3d 8c 5e e1 3c 78 c9 e9 bb
       -0.18430836 0.04462406 0.027510904 -0.0071346126
000120 a6 03 14 3e 95 5b 61 be 25 74 fe bd bc 80 b4 3c
       0.14454517 -0.22007592 -0.124244966 0.022034042
000130 8c 0e e2 be a2 9a 08 3e ac 7b e2 bd fa 5e d7 bc
       -0.44151723 0.13340238 -0.11058745 -0.026290406
000140 6a 7d 08 3e a0 e2 af bd 59 7a 61 3e ac cf 2a 3e
       0.13329092 -0.08588147 0.22019328 0.16680783
000150 71 7b eb 3c 60 5b 70 3e 6c 29 c4 be a6 05 ef be
       0.028745385 0.23472357 -0.38312852 -0.46683997
000160 83 cd 31 3d 4c 80 63 3d e0 1e 95 3d 9d ce bb bd
       0.043408882 0.055542275 0.072812796 -0.09170268
000170 83 4b 02 3e c1 8d 6b be a3 88 59 be 4a d5 0a bd
       0.12724118 -0.23003294 -0.21243529 -0.033894815
000180 93 93 89 3e 7e 94 76 3e b6 35 07 bf 04 15 36 bc
       0.26870403 0.24080083 -0.5281633 -0.011113409
000190 ff 5f b8 3d 4e 5f fb be 8b 8b ac be 81 69 23 3d
       0.09002685 -0.4909615 -0.33700213 0.03989554
0001a0 ac bc fe 3e 2b a3 24 bf 3c 0f 19 3f 1c 07 cc be
       0.4975332 -0.64311475 0.5978887 -0.39849174
0001b0 22 d8 68 3e 74 41 fc bd ed 6f 88 3e ad cd a9 3d
       0.22738698 -0.12317172 0.26647893 0.08291183
0001c0 61 79 d9 bd d0 d5 cf bc f8 a0 49 be e7 2e b1 be
       -0.10618854 -0.025370508 -0.19690311 -0.34606096
0001d0 41 a4 9f bd 2d 2b 24 3d b2 c8 ab 3d 72 00 21 be
       -0.07795001 0.040080238 0.08387889 -0.15722826
0001e0 1d bd 8c be 15 2a a0 be 7c 4e af be 82 2b 90 3d
       -0.27488032 -0.31282106 -0.34239566 0.070395485
0001f0 59 ad 3b 3f 4c 39 e7 3d 9c 3d 89 3d 9b 6e 05 3e
       0.7331138 0.112902254 0.06701204 0.13030474
000200 f6 ea 86 3c cc f3 1c be 00 5c 7d be 1a a0 32 be
       0.01646946 -0.15327376 -0.24742126 -0.17443886
000210 b6 14 50 3e e9 e9 8c 3e f3 b4 a0 3d bf 7e b0 3e
       0.203204 0.2752221 0.07847013 0.344717
000220 c9 b6 cc bf d2 18 9c 3d 42 39 7a 3e a1 b9 ab 3e
       -1.5993282 0.076219216 0.24435905 0.3354006
000230 78 30 4a bf 29 79 b2 3d 36 70 60 3d d6 7b c1 be
       -0.7898021 0.08714516 0.054794513 -0.37789792
000240 f3 be 3a bf 0c 9e 8b 3e ad 1f 87 be f8 d4 90 be
       -0.72947615 0.27269018 -0.26391354 -0.28287482
000250 e3 67 92 be d0 9f 05 3f 33 2e 8e 3b 8c a0 a0 be
       -0.28594884 0.5219698 0.0043390035 -0.31372488
000260 19 2e 3a be 96 e6 0e bf a6 66 a8 3d 86 4c c1 3d
       -0.18181647 -0.55820596 0.08222704 0.09438424
000270 cb 73 62 bc 41 2e c0 be 55 d9 06 bd a1 b6 21 3e
       -0.0138215525 -0.3753529 -0.032922108 0.15792324
000280 51 54 75 be 4e d6 f6 3d dc 5f 54 3d de 87 05 3e
       -0.23957945 0.12052594 0.05184923 0.1304011
000290 19 88 b4 3e 7f ce f7 3e b4 36 08 3f a7 e0 94 3e
       0.35260084 0.48399732 0.5320847 0.29077646
0002a0 f6 ca 61 3d 61 30 dd be cf 61 17 bd 6a f3 95 3d
       0.0551252 -0.43200973 -0.036958512 0.07321818
0002b0 46 c0 ba 3d d5 e7 29 3e ef 30 25 3d 16 29 56 be
       0.091187045 0.16592343 0.04032987 -0.2091411
0002c0 57 75 86 3e 84 b9 07 be 56 74 c9 be b7 d7 6b 3c
       0.26261398 -0.13254362 -0.3934657 0.014394692
0002d0 93 a3 a3 bd 24 86 06 3e 42 25 2c be 33 06 99 bd
       -0.07990184 0.13137108 -0.16811088 -0.074718855
0002e0 b0 33 c7 bd c8 5a 8f be e7 91 a0 3e 12 d4 b0 3d
       -0.097266555 -0.27998948 0.31361315 0.08634199
0002f0 39 62 04 3e 94 94 64 be ac e0 7d 3d ed 21 8a 3e
       0.12928094 -0.22322303 0.061981842 0.26979008
000300 ac a4 6d 3e 22 b1 47 3e 3a cc 87 3d c3 c9 92 3e
       0.23207349 0.19501165 0.0663075 0.28669557
000310 5e a6 f9 3d 29 32 85 3d be 60 ac be 70 d0 45 3d
       0.12189935 0.06503708 -0.33667558 0.048294485
000320 3b 2a 33 bd 14 25 44 bc 4d 51 87 3d 37 e3 99 be
       -0.043741446 -0.011971731 0.06607304 -0.30056164
000330 5b 2c 7b bf 86 6f 26 be 80 f2 30 3e 29 ce e9 bd
       -0.98114556 -0.1625348 0.17280006 -0.11416275
000340 cf 6f 9b 3e f3 00 d4 3d dc 9c 31 3d a8 2b c7 3d
       0.3035874 0.103517435 0.043362483 0.09725124
000350 15 c4 f3 3d 29 53 da 3d 46 a4 61 3e a0 ed b3 3c
       0.11902634 0.10660393 0.22035322 0.021963894
000360 86 f1 3c bf ca 94 12 3c 3b a9 0c be 3f 3b c4 3d
       -0.73806036 0.008946607 -0.13736431 0.09581613
000370 02 72 68 3e 74 0e 50 3d a6 cb c6 be b0 5d 55 3e
       0.2269974 0.050795034 -0.38827246 0.2083652
000380 65 8f 68 3e 66 20 0f be 2e 10 fd bd 72 50 6a be
       0.2271095 -0.13977203 -0.12356602 -0.2288225
000390 1d 11 56 be 97 99 2e be f7 43 0c be ac 11 1a 3e
       -0.20904966 -0.17050777 -0.13697802 0.15045804
0003a0 95 a0 89 3e 0c f8 7d 3d f6 82 ab bc f4 bc a1 3d
       0.26880327 0.062004134 -0.02093647 0.07897368
0003b0 f6 f1 52 bf 7d 58 e4 bd bf 04 5d 3d 9d 51 3a 3d
       -0.82400453 -0.1114969 0.053959604 0.04548799
0003c0 25 27 24 3e e2 85 71 3d 18 69 d1 be c5 38 d1 3d
       0.16030557 0.05896557 -0.40900493 0.10215906
0003d0 58 29 2f be ab b6 2f 3d 72 3d 68 be a6 82 64 be
       -0.17105615 0.042898815 -0.2267969 -0.22315463
0003e0 ca 47 eb bd 14 7f 32 bc 82 45 a8 3d 34 53 ab 3d
       -0.11488302 -0.010894556 0.082163826 0.08365479
0003f0 d4 70 c5 be 83 e7 a3 bc c0 81 6b 3e 9b 7d db 3d
       -0.38562644 -0.020007854 0.22998714 0.10717317

fc3.bias f4 [31]
000000 86 65 16 40 0b 7f 27 3f 91 c0 a0 3d 0b b1 96 bf
       2.3499465 0.6542823 0.07849229 -1.1772779
000010 f2 e3 98 3e 1a 7d 86 c0 81 62 a6 bd 35 42 d0 bf
       0.29861408 -4.202771 -0.08124257 -1.6270205
000020 1b 5d a9 bd 92 03 d8 3e 20 87 88 3e 71 88 3d 3f
       -0.082697116 0.42190224 0.26665592 0.7403632
000030 0a cc 70 3e b8 91 71 c0 dd 5d dd 3f 14 45 c2 3c
       0.23515335 -3.774519 1.729427 0.02371458
000040 2b c4 79 3f 67 58 79 c0 64 0a 6c bf e4 54 d5 be
       0.97564954 -3.8960207 -0.92203355 -0.4166633
000050 8e 4b a2 bf 8b 7d e1 3f 18 13 54 c0 c8 52 fa bf
       -1.2679307 1.7616438 -3.3136654 -1.9556513
000060 9c f3 90 3e 52 1e fe 3e 23 bb b8 3f 01 79 a9 3f
       0.2831086 0.49632508 1.443211 1.3240052
000070 ec 8f 11 40 c1 63 f2 3f ea 89 9f c0
       2.2744093 1.8936692 -4.985585
