OID_dataset/ckn/ckn_oid_PBS.pt (torch, 787415 bytes, 6 tensors)

fc1.weight f4 [256, 190]
0.58310676 0.1386055 -0.9076371 0.44705904 -0.85382277 0.27813488 0.31211808 0.4252847
-0.43293 0.13776794 -0.030139431 -0.32328933 0.60940284 0.46084428 -0.034798626 0.014110332
-0.64316845 -0.56993055 0.28189903 0.70282406 1.4161606 0.80866313 -0.1703886 0.21227197
0.22076099 0.23087963 0.47176215 -0.7053141 0.37527573 0.96252334 0.16099283 0.45889708
0.67949563 0.01185787 -1.3649653 -0.53453994 0.29270187 0.76348585 0.15215576 0.67424333
0.78700626 -0.37464532 -0.75498974 0.71949273 -0.42239183 -0.39253137 0.18999848 0.77243924
-0.58512396 0.31016684 0.81827295 0.04785308 0.19577262 0.010739336 -0.28024635 -0.9823256
0.8517077 0.049583714 0.23830245 0.015501106 -0.20511456 -0.9493424 0.7898876 0.05105753
0.24587156 -0.015457259 -0.28598255 -0.9096308 0.76471996 0.0694726 0.20451537 -0.07783356
-0.21856846 -0.9386712 0.8833274 0.06057279 0.2613853 -0.06535755 -0.20090388 -0.9305375
-0.3676818 0.13720188 0.5322863 0.23231411 -0.13325837 -0.975377 -1.6146618 0.20926045
-0.061388202 0.15379012 0.18315454 0.3628236 0.29544812 -0.15126573 -0.5560198 0.49612868
0.5208459 0.19330813 1.0065273 -0.09341529 -0.5483471 -0.34988123 -0.12903479 -0.36599413
0.018673483 0.5451215 0.4416993 -0.82768434 0.58365023 0.6111726 1.2388932 -0.65989256
0.9845306 -1.0490651 1.612854 0.47800642 -0.21303251 -0.09958218 -0.62754303 -0.06741373
1.748657 -0.17617305 -0.07066149 0.45276123 -0.22377674 -0.7090624 0.28559238 -1.0487752
0.29746953 -0.005804542 0.8058566 -0.14053231 0.49352938 0.9141706 -0.32134873 -0.9012516
0.8664744 -0.09757063 0.42549124 0.90013707 -0.34340915 -0.8865842 0.8406114 -0.16649914
0.4296746 0.856043 -0.31899413 -0.9286188 0.73673236 -0.0912877 0.4100098 0.90555835
-0.43036246 -0.9320981 0.81360596 -0.115927 0.4750218 0.83672696 -0.33733687 -0.9075667
0.7257886 -0.058019098 -0.40690315 -0.40814105 0.60262483 0.05329064 0.7764381 0.031984262
-0.32735902 -0.42336887 0.5960154 -0.0079026045 0.7511026 -0.04500274 -0.4266455 -0.31844828
0.53894025 -0.038669247 0.8330516 -0.019392494 -0.36889204 -0.38031092 0.5878883 -0.031897906
0.76076585 -0.06279328 -0.33640411 -0.40821442 0.53756183 0.059493747 0.27506143 -0.011239221
0.26885623 -0.1276511 -0.006989432 0.010617205 0.39703625 0.030906707 -0.60692424 0.8757386
-0.41845047 0.11079203 -0.41466683 -0.108157285 -0.29268035 0.1089095 0.28015426 -0.4069728
0.06381604 0.42211327 -0.2505002 0.11692675 -0.51151973 -0.4630715 -0.030747207 0.08303359
0.059633214 -0.19203615 -0.019553605 0.5604446 -0.25117254 0.07867389 0.48516878 -0.5799508
-0.38959086 -0.56331635 0.00875703 -0.279349 0.12286891 0.54615754 0.4450142 0.16924213
0.24494709 0.71279997 -0.668985 0.012444656 -0.87006646 0.36968774 -0.003691614 -0.28130582
0.12585199 0.5080193 0.063222446 -0.803404 0.0181829 0.061662905 0.026798336 0.5033484
0.09563458 -0.8575404 -0.0069651427 0.120711155 0.061215322 0.39651024 0.069588356 -0.89289314
00000000: 7c46 153f 9aee 0d3e e85a 68bf ece4 e43e
00000010: 2194 5abf b267 8e3e f1cd 9f3e ebbe d93e
00000020: 00a9 ddbe 0a13 0d3e f8e6 f6bc 2e86 a5be
00000030: d301 1c3f c8f3 eb3e 0189 0ebd 062f 673c
00000040: b0a6 24bf f8e6 11bf 1255 903e 47ec 333f
00000050: c044 b53f 8c04 4f3f 597a 2ebe d35d 593e
00000060: 2b0f 623e b66b 6c3e cf8a f13e 778f 34bf
00000070: 2424 c03e ee67 763f 4edb 243e 8ff4 ea3e
00000080: 6df3 2d3f 8347 423c 2fb7 aebf 9cd7 08bf
00000090: 05dd 953e cf73 433f b8ce 1b3e 369b 2c3f
000000a0: 3e79 493f 83d1 bfbe 0247 41bf ad30 383f
000000b0: be43 d8be dff9 c8be f68e 423e 94be 453f
000000c0: afca 15bf 30ce 9e3e 567a 513f 9701 443d
000000d0: 9e78 483e 0af4 2f3c 737c 8fbe b179 7bbf
000000e0: 8409 5a3f 4b18 4b3d 8f05 743e 5af8 7d3c
000000f0: 8d09 52be 1b08 73bf 1336 4a3f b321 513d
00000100: c1c5 7b3e 7140 7dbc 4e6c 92be 90dd 68bf
00000110: b0c4 433f a747 8e3d 7a6c 513e 3467 9fbd
00000120: 69d0 5fbe c14c 70bf bf21 623f 2d1b 783d
00000130: 4bd4 853e 2eda 85bd bfb9 4dbe b537 6ebf
00000140: ca40 bcbe a67e 0c3e ea43 083f c0e3 6d3e
00000150: e274 08be 4fb2 79bf 3dad cebf 5f48 563e
00000160: 3272 7bbd 287b 1d3e dd8c 3b3e 04c4 b93e
00000170: fa44 973e 67e5 1abe 5057 0ebf 9404 fe3e
00000180: 2856 053f 91f2 453e e3d5 803f 8450 bfbd
00000190: 7a60 0cbf a223 b3be b221 04be 9563 bbbe
000001a0: 22f9 983c 158d 0b3f 6926 e23e 1fe3 53bf
000001b0: 1a6a 153f cf75 1c3f 0d94 9e3f b8ee 28bf
000001c0: 330a 7c3f c447 86bf 0072 ce3f 42bd f43e
000001d0: 3225 5abe bef1 cbbd a9a6 20bf 3610 8abd
000001e0: fed3 df3f b566 34be f9b6 90bd 52d0 e73e
000001f0: bb25 65be 1d85 35bf 2a39 923e 443e 86bf
00000200: ed4d 983e 0734 bebb 9e4c 4e3f b4e7 0fbe
00000210: e2af fc3e 1607 6a3f d287 a4be 6db8 66bf
00000220: 44d1 5d3f 1cd3 c7bd fdd9 d93e 626f 663f
00000230: 53d3 afbe 2ff7 62bf 4f32 573f c07e 2abe
00000240: 4ffe db3e a225 5b3f 3353 a3be f6b9 6dbf
00000250: 7e9a 3c3f 0cf5 babd ceec d13e acd2 673f
00000260: 7858 dcbe fb9d 6ebf 7b48 503f 236b edbd
00000270: 0f36 f33e bd33 563f 6bb7 acbe 4b56 68bf
00000280: 48cd 393f 6fa5 6dbd 9c55 d0be ddf7 d0be
00000290: 9f45 1a3f 4947 5a3d a6c4 463f ee01 033d
000002a0: 9a9b a7be cec3 d8be 7794 183f ed79 01bc
000002b0: 4348 403f cb54 38bd 4771 dabe a70b a3be
000002c0: fdf7 093f a563 1ebd df42 553f 02dd 9ebc
000002d0: 6bdf bcbe 1db8 c2be d97f 163f 61a7 02bd
000002e0: 8dc1 423f c399 80bd 293d acbe 7b01 d1be
000002f0: a79d 093f b7af 733d dad4 8c3e b624 38bc
00000300: 86a7 893e f8b6 02be 9b07 e5bb c9f3 2d3c
00000310: 5648 cb3e 1030 fd3c 635f 1bbf 6830 603f
00000320: 243f d6be efe6 e23d 364f d4be 9181 ddbd
00000330: 33da 95be f20b df3d 6170 8f3e bd5e d0be
00000340: fcb1 823d 3b1f d83e 9041 80be 4b77 ef3d
00000350: f5f2 02bf b517 edbe 91e1 fbbc 840d aa3d
00000360: f541 743d 20a5 44be e22e a0bc 4c79 0f3f
00000370: b099 80be c71f a13d 0b68 f83e a877 14bf
00000380: 7478 c7be 8035 10bf a579 0f3c d506 8fbe
00000390: b2a2 fb3d fbd0 0b3f e7d8 e33e cf4d 2d3e
000003a0: 69d3 7a3e 0f7a 363f 9a42 2bbf ace4 4b3c
000003b0: adbc 5ebf b647 bd3e 01ef 71bb 5107 90be
000003c0: 58df 003e 8e0d 023f c57a 813d e2ab 4dbf
000003d0: 4ef4 943c 3e92 7c3d 2f88 db3c 71db 003f
000003e0: 10dc c33d c587 5bbf da3b e4bb 6937 f73d
000003f0: ebbc 7a3d 6403 cb3e 5784 8e3d a594 64bf

fc1.bias f4 [256]
-1.0988613 -0.84701544 -0.56420547 -0.805353 -1.2261989 -1.0739416 -1.2007668 -1.0103452
0.37283248 -0.14135452 -1.6758666 -0.04583799 0.08833267 -0.5905869 0.7185528 0.5023185
0.2113678 -1.4789591 -1.3350135 -0.8488516 -1.2494879 -1.9126058 -1.6426848 -0.19187047
-0.31694552 -1.3977951 -0.15310575 -1.1573741 -0.7810077 -1.1487014 -0.7814739 -0.92207354
-1.3531206 0.42074382 -0.44334173 0.59752655 -0.10769045 0.2086995 -0.93713874 -1.4147666
-0.6660534 -0.27886927 0.035157405 -1.7550637 -2.0117931 -0.83576095 0.36172825 0.16997378
-1.4439847 -0.22514407 -0.4711124 5.4030833 -0.38685557 -0.17852506 0.26474068 -0.03776717
0.20769483 -2.1731822 0.67038673 0.027795939 0.009108997 -0.8812886 -1.4357631 -0.67056227
-1.3057429 -1.2717073 -1.604566 0.21896349 -0.4005363 -1.1314391 -1.3420635 -0.60340935
-0.40929464 -0.3712426 -1.1961824 -0.28967667 0.018311638 -1.6029841 -1.0690728 -0.8281534
-0.16158852 -0.093953915 -0.82347274 -0.35633627 -1.2657558 -0.18539807 -0.41455972 0.8616749
-0.34689236 -0.52211744 -1.2163125 0.33690193 -0.0143682845 -1.0865544 -0.63383144 -0.21982963
0.68015456 -1.4011025 0.40876293 -0.06765371 -0.43083602 -0.19389683 1.0716264 -0.041758455
-0.77751493 -0.34558153 -1.1131449 -0.74852246 0.72703236 -1.5338174 0.6366556 1.0074981
-0.18831523 -0.9391145 -1.6005641 -0.33208713 -0.7211879 -0.5376083 -1.3732853 -0.7774856
-0.48819426 -1.3972878 0.21260682 -1.1358973 -0.9378353 -0.53002644 -1.637758 -0.9319698
-1.6505696 -0.6269066 0.31334242 0.15208194 -0.31152126 -0.34148565 -0.40856603 0.13733922
0.10381248 -0.33970317 -0.09850301 -1.5605145 -0.75765765 -1.2801013 -0.71074104 -1.3421996
-1.5808533 -0.63307494 -1.4188086 -1.5770788 -1.2387279 -0.99784034 -0.4416547 -0.67859817
-0.37723532 -0.4776975 -0.2583971 -1.3707054 -1.3772312 -0.10326926 -1.1144116 -0.5059652
-0.5113855 -0.70201445 -0.3121176 0.91114646 -1.1867156 0.23631671 -1.3675709 -0.40311554
-0.8674233 -0.6364164 -1.6957399 -1.0214748 -1.1328694 -0.26095182 -0.7786425 -0.63492054
0.72813725 -0.11595817 -0.6411634 -1.3658382 -0.14895913 -1.3766966 -2.1658664 0.22056866
1.2272047 -0.16166745 -0.15879504 -0.11069356 -1.0761462 -0.6767109 0.14695475 -0.22379701
-1.7037693 0.33567598 -0.7193962 -0.54415554 1.8609562 -1.0759522 0.20625086 -0.411988
-1.8040068 -0.64800864 -0.16882655 1.0490795 -0.075803004 0.312685 -1.1570023 0.48710367
-0.021725886 -1.4134091 -0.0410355 -0.83314997 -1.2890447 -0.0043852604 -0.83477527 -1.9000638
0.027046554 -0.53689736 0.28738764 0.22364494 0.042540926 -0.34373724 -1.2781047 -0.2943209
-0.5408608 0.9007894 -0.017144252 -0.67810786 -0.9985895 -0.23819283 -1.167356 -1.5297512
-1.3627398 0.55926245 0.608684 -0.5487751 -1.7767018 -0.16266473 0.37699738 -0.14246799
0.23565601 -0.3875996 -1.8203776 -0.06172024 -1.0406778 -0.8474992 -0.1325898 -1.1663164
-0.6117672 -0.73791724 -0.32923624 -1.0430567 -0.9353815 -1.1795546 -1.5343941 -1.5954833
00000000: 7da7 8cbf 01d6 58bf c56f 10bf 9d2b 4ebf
00000010: 16f4 9cbf eb76 89bf bab2 99bf fe52 81bf
00000020: e6e3 be3e 3dbf 10be cc82 d6bf 9ec0 3bbd
00000030: c2e7 b43d b430 17bf 14f3 373f f297 003f
00000040: cd70 583e 884e bdbf b9e1 aabf 574e 59bf
00000050: 38ef 9fbf 44d0 f4bf 7f43 d2bf b179 44be
00000060: af46 a2be f3ea b2bf c1c7 1cbe d624 94bf
00000070: 1ff0 47bf a608 93bf ac0e 48bf 030d 6cbf
00000080: 0e33 adbf bc6b d73e b0fd e2be 80f7 183f
00000090: d08c dcbd 52b5 553e 53e8 6fbf 1217 b5bf
000000a0: 7a82 2abf f4c7 8ebe 3601 103d eda5 e0bf
000000b0: 38c1 00c0 6ef4 55bf 7234 b93e 9b0d 2e3e
000000c0: 7ed4 b8bf 2b8c 66be a535 f1be 0fe6 ac40
000000d0: ef11 c6be 46cf 36be 178c 873e c0b1 1abd
000000e0: f4ad 543e 6b15 0bc0 779e 2b3f 4fb4 e33c
000000f0: e73d 153c 219c 61bf 16c7 b7bf f8a9 2bbf
00000100: 9522 a7bf 4ec7 a2bf 6b62 cdbf f737 603e
00000110: 1813 cdbe ffd2 90bf bdc8 abbf 0979 1abf
00000120: 118f d1be 8313 bebe 811c 99bf 8050 94be
00000130: 4a02 963c 952e cdbf 61d7 88bf dc01 54bf
00000140: 7677 25be e96a c0bd 1ccf 52bf b571 b6be
00000150: 4904 a2bf fed8 3dbe 2c41 d4be ba96 5c3f
00000160: e09b b1be 7da9 05bf 21b0 9bbf 697e ac3e
00000170: f468 6bbc 3714 8bbf c742 22bf 051b 61be
00000180: 9c1e 2e3f 5457 b3bf 6049 d13e 078e 8abd
00000190: 8a96 dcbe e48c 46be 0e2b 893f ea0a 2bbd
000001a0: 380b 47bf 10f0 b0be 887b 8ebf 2b9f 3fbf
000001b0: cb1e 3a3f 2154 c4bf ddfb 223f b3f5 803f
000001c0: b5d5 40be cf69 70bf 49df ccbf 5307 aabe
000001d0: c59f 38bf b3a0 09bf d0c7 afbf 4c09 47bf
000001e0: 99f4 f9be 54da b2bf 9ab5 593e 1565 91bf
000001f0: f915 70bf d0af 07bf 0ea2 d1bf 9395 6ebf
00000200: dd45 d3bf f37c 20bf 6b6e a03e 5ebb 1b3e
00000210: b77f 9fbe 35d7 aebe 912f d1be a7a2 0c3e
00000220: a39b d43d 93ed adbe f2bb c9bd f0be c7bf
00000230: daf5 41bf 5cda a3bf 20f3 35bf 32cd abbf
00000240: 6759 cabf 3311 22bf 859b b5bf b8dd c9bf
00000250: a38e 9ebf 7772 7fbf 9120 e2be 9cb8 2dbf
00000260: fd24 c1be c494 f4be a04c 84be 4673 afbf
00000270: 1d49 b0bf d57e d3bd 0aa5 8ebf ef86 01bf
00000280: 29ea 02bf 38b7 33bf e1cd 9fbe e540 693f
00000290: 4ce6 97bf 02fd 713e 900c afbf 2965 cebe
000002a0: 740f 5ebf 2fec 22bf 010e d9bf b0bf 82bf
000002b0: dd01 91bf 7a9b 85be 1d55 47bf 278a 22bf
000002c0: 3467 3a3f 7a7b edbd 4923 24bf c9d3 aebf
000002d0: be88 18be 9837 b0bf 8e9d 0ac0 c0dc 613e
000002e0: 0b15 9d3f 278c 25be 2b9b 22be 4eb3 e2bd
000002f0: 29bf 89bf ed3c 2dbf 4e7b 163e 0b2b 65be
00000300: 1d15 dabf b9dd ab3e 592a 38bf c74d 0bbf
00000310: d033 ee3f cdb8 89bf 6d33 533e 17f0 d2be
00000320: b2e9 e6bf e5e3 25bf dee0 2cbe 3d48 863f
00000330: 9b3e 9bbd 4018 a03e a718 94bf a765 f93e
00000340: 7cfa b1bc 97ea b4bf d714 28bd 5149 55bf
00000350: 6bff a4bf 3bb2 8fbb d5b3 55bf 4a35 f3bf
00000360: bc90 dd3c 1b72 09bf 7924 933e 2e03 653e
00000370: 653f 2e3d 54fe afbe ef98 a3bf 3bb1 96be
00000380: da75 0abf 229a 663f 1a72 8cbc 7a98 2dbf
00000390: 90a3 7fbf d2e8 73be ec6b 95bf e3ce c3bf
000003a0: 426e aebf d32b 0f3f b7d2 1b3f 867c 0cbf
000003b0: f76a e3bf 9591 26be cd05 c13e 21e3 11be
000003c0: cf4f 713e 7473 c6be 2202 e9bf 5dce 7cbd
000003d0: ee34 85bf b5f5 58bf 9fc5 07be db49 95bf
000003e0: c69c 1cbf 25e8 3cbf a791 a8be e282 85bf
000003f0: 2975 6fbf a5fb 96bf 0767 c4bf cc38 ccbf

fc2.weight f4 [512, 256]
-0.11195934 1.3152971 1.059466 0.5579438 0.99431884 -0.5606938 2.9333203 3.6957805
0.7532341 -0.2249524 0.049141083 0.01512354 0.9000331 0.27992472 0.4963235 -0.7906314
1.501918 0.38020706 1.1343122 0.91050667 3.636062 1.1974386 0.33413678 -0.04992156
-4.7503786 3.4505627 0.7590271 0.18500555 -0.8790064 0.028202454 0.42618844 1.5048071
0.4821653 0.07662815 1.3529773 -3.2983043 -0.42221972 -0.30364108 0.5175688 0.02636382
1.1157442 0.09472656 -0.9039253 0.19364703 0.7489085 2.3754685 -0.2986837 -0.69626004
0.54789174 1.8716354 1.2661318 -0.5302141 2.0679507 1.5440786 -0.34998906 -0.5813386
0.85007167 -0.9587763 -0.27501017 1.111807 0.052010674 3.0622983 0.4506162 0.22583175
0.54149 0.6988412 0.3197836 -0.14640732 0.84666556 0.8735222 -0.21313474 2.9871192
-0.8640004 0.14323789 1.4034235 1.3017244 0.40193635 1.6270909 0.31017518 0.6371229
0.005110632 0.041759934 3.4670584 0.14716178 0.15746443 0.09911088 1.3559268 -0.5942633
1.8090924 2.8474698 0.90103954 -0.6007979 0.9486196 1.9663806 1.7434186 0.69112563
-1.1027325 0.17176165 -0.25572047 -0.0059216446 0.7547896 1.2050809 -1.5017749 0.5398762
-0.6970231 -1.6837976 1.2973336 0.53262246 0.12376299 2.289664 0.19466577 0.070745155
-0.057980284 1.3380499 -2.1393952 0.3638276 0.056781486 1.126884 0.6170582 2.1582336
-0.045311 4.0031624 1.1554645 0.11541322 2.884376 0.03382977 1.6179465 -0.33059153
0.65009564 -0.43732098 -2.1649916 -0.6099969 -0.6458795 0.49570483 0.3195171 -0.61168605
-0.3253708 0.06649224 0.06557848 0.111306205 -0.6755208 0.40857038 1.75837 0.007974576
-0.89168763 2.027643 1.038737 0.020886902 1.2837255 -0.44179663 0.8826054 -1.0154643
1.216655 1.4677961 0.07210997 3.7242918 0.7392828 1.1704383 1.0301318 0.26144868
1.6458224 1.5150726 -1.4861012 -0.8430547 -0.03035487 1.3570806 1.5538653 0.07651075
2.114491 4.1189885 1.701246 -0.100227155 1.5914817 -0.9471961 1.3927088 0.31763592
-0.0888863 0.044743884 0.62838954 1.1927693 -0.007823838 5.9875135 -0.2026627 2.458597
0.09562939 1.8764201 -0.59539413 0.52144885 0.8254225 0.9065755 -0.7686407 -0.0074966736
2.1397786 0.4522803 0.9294272 -0.79167217 0.6325566 -0.30737194 0.08539875 -0.014121971
0.12954605 0.009926996 -0.026551371 0.9604651 -0.024341201 0.01206808 3.2855513 -0.4263744
1.340196 3.8319738 2.2884622 0.43577084 -2.2627044 0.1612264 1.189161 0.038533095
1.0394106 1.1270018 -0.41429976 -0.5921847 -0.30064684 1.2973614 1.7607496 0.68499357
1.4973726 0.5471012 -0.031755075 1.7049066 -0.5511698 -1.4925499 2.2564447 1.1428287
-0.5045864 -0.072803825 0.19042706 0.5522068 0.46944895 -0.0258711 -0.40802595 0.07720986
0.79642606 1.2100207 0.69842285 -3.188998 -0.15429145 -3.0604234 0.2599185 0.11501176
0.5787758 -0.32998925 0.13134156 0.6522093 0.73871607 2.5999107 1.9923016 -0.009676314
00000000: f04a e5bd a85b a83f 959c 873f 68d5 0e3f
00000010: ae8b 7e3f a189 0fbf 85bb 3b40 ab87 6c40
00000020: f3d3 403f ec59 66be 2948 493d b9c8 773c
00000030: 9268 663f 4b52 8f3e 1d1e fe3e d266 4abf
00000040: d93e c03f 80aa c23e 2431 913f f716 693f
00000050: 3db5 6840 ab45 993f fa13 ab3e 8d7a 4cbd
00000060: 1a03 98c0 05d6 5c40 9a4f 423f 1872 3d3e
00000070: 9006 61bf d508 e73c 5f35 da3e 859d c03f
00000080: 5fde f63e 38ef 9c3d 5c2e ad3f 6b17 53c0
00000090: 2f2d d8be d876 9bbe 647f 043f f0f8 d73c
000000a0: b5d0 8e3f 0000 c23d a667 67bf 684b 463e
000000b0: 78b8 3f3f ad07 1840 12ed 98be 193e 32bf
000000c0: a242 0c3f c091 ef3f 9b10 a23f 1cbc 07bf
000000d0: 4e59 0440 5ea4 c53f c431 b3be 9bd2 14bf
000000e0: 4c9e 593f 5d72 75bf 22ce 8cbe b14f 8e3f
000000f0: 2509 553d b2fc 4340 2bb7 e63e 7040 673e
00000100: 179f 0a3f 42e7 323f adba a33e cdeb 15be
00000110: 13bf 583f 279f 5f3f fe3f 5abe f62c 3f40
00000120: 212f 5dbf f4ac 123e 62a3 b33f e89e a63f
00000130: 9aca cd3e 8444 d03f 48cf 9e3e 7d1a 233f
00000140: 1777 a73b 770c 2b3d 49e4 5d40 94b1 163e
00000150: 5b3e 213e a5fa ca3d 028f ad3f a421 18bf
00000160: 5790 e73f f23c 3640 87aa 663f e4cd 19bf
00000170: bcd8 723f 5cb2 fb3f 5728 df3f 9ced 303f
00000180: 5726 8dbf 49e2 2f3e cbed 82be 5b0a c2bb
00000190: e439 413f 1740 9a3f 293a c0bf 5435 0a3f
000001a0: 1b70 32bf ae86 d7bf 070f a63f f259 083f
000001b0: 7377 fd3d db89 1240 7756 473e d6e2 903d
000001c0: bc7c 6dbd 3845 ab3f daeb 08c0 9c47 ba3e
000001d0: b493 683d bc3d 903f 87f7 1d3f 8020 0a40
000001e0: 0798 39bd e819 8040 43e6 933f c45d ec3d
000001f0: 9e99 3840 1691 0a3d df18 cf3f 4b43 a9be
00000200: ab6c 263f 89e8 dfbe 398f 0ac0 c228 1cbf
00000210: 5c58 25bf 06cd fd3e bf97 a33e 7597 1cbf
00000220: 0097 a6be 152d 883d 034e 863d 82f4 e33d
00000230: eeee 2cbf 2330 d13e 4512 e13f cca7 023c
00000240: a445 64bf e7c4 0140 56f5 843f 021b ab3c
00000250: 1e51 a43f 2b33 e2be 6df2 613f bcfa 81bf
00000260: 5abb 9b3f bee0 bb3f 64ae 933d cc5a 6e40
00000270: a341 3d3f ecd0 953f 5cdb 833f 9adc 853e
00000280: 4faa d23f e6ed c13f 9038 bebf 6fd2 57bf
00000290: c7aa f8bc d1b4 ad3f 0fe5 c63f abb1 9c3d
000002a0: d253 0740 c1ce 8340 6ec2 d93f e543 cdbd
000002b0: acb5 cb3f 727b 72bf 4844 b23f 2da1 a23e
000002c0: 050a b6bd 5d45 373d 23de 203f aaac 983f
000002d0: 8e2f 00bc b699 bf40 d086 4fbe a759 1d40
000002e0: 57d9 c33d 892e f03f c06b 18bf ac7d 053f
000002f0: e44e 533f 5515 683f a3c5 44bf a8a6 f5bb
00000300: 22f2 0840 4991 e73e f1ee 6d3f 07ab 4abf
00000310: 3bef 213f db5f 9dbe 8ae5 ae3d d75f 67bc
00000320: b8a7 043e d7a4 223c 4382 d9bc 0ae1 753f
00000330: 3367 c7bc 32b9 453c 7946 5240 bf4d dabe
00000340: 8b8b ab3f 0f3f 7540 2a76 1240 5b1d df3e
00000350: 26d0 10c0 8918 253e 6d36 983f e1d4 1d3d
00000360: 680b 853f 9841 903f 191f d4be 6b99 17bf
00000370: 62ee 99be f00f a63f 3e60 e13f bd5b 2f3f
00000380: e8a9 bf3f d30e 0c3f 9c11 02bd 613a da3f
00000390: 7719 0dbf e00b bfbf 9769 1040 3648 923f
000003a0: 932c 01bf 2c1a 95bd 50ff 423e 6d5d 0d3f
000003b0: 9d5b f03e a1ef d3bc c7e8 d0be 3420 9e3d
000003c0: 94e2 4b3f f5e1 9a3f d7cb 323f 8b18 4cc0
000003d0: 94fe 1dbe fadd 43c0 0a14 853e 498b eb3d
000003e0: a72a 143f 5af4 a8be 677e 063e 30f7 263f
000003f0: 7f1c 3d3f f064 2640 bd03 ff3f 6789 1ebc

fc2.bias f4 [512]
-0.30394334 -0.09539024 0.20610137 -0.9364563 0.12279477 -1.0918077 0.05425301 -1.1756133
-0.32668546 -0.674799 -0.0040787286 -0.8346063 -0.22936048 0.75711095 -1.0749618 -1.3126436
-0.5560977 -0.50762355 -0.22572134 0.41968513 -0.60758215 -0.9867981 0.04475077 -0.9638563
-0.13199398 0.21407263 0.2438302 -0.10210455 -0.30898947 -0.39752334 -0.33355963 -0.54629874
-0.021298697 -0.07321031 -0.7954662 -0.90192604 -0.120353274 -0.19180083 -0.3935027 -0.49320793
-1.0122926 -0.35761282 0.13541219 -0.43944666 -0.8415317 -0.93349445 -0.17403431 -0.40844294
0.016315889 -0.76815265 -1.2995667 -0.0115782535 0.17266521 -0.44136944 -0.08864253 -0.90955335
-0.19245537 0.51322716 -0.7882266 -0.26521283 -0.22710635 0.46030238 0.56174576 -1.1417131
-0.27995893 -0.47500098 0.03704665 -0.8482977 -0.1269796 -0.5492078 -0.01886141 -1.2213557
0.056643393 -0.068033636 0.14325671 -0.6400693 0.030173752 -0.1233599 -0.67560494 -0.15654397
-0.7088834 -0.09534363 -0.7546028 -0.8336675 -0.6450636 -0.22160405 -0.15494837 -0.002615408
0.29567102 -0.87442714 -0.09783609 -1.0032715 -1.2956183 -0.18102819 -0.24041748 0.13871378
0.23909415 0.18135628 0.27600896 0.47208366 -0.2257656 0.079360455 0.43391645 -0.32221508
-0.29856694 0.18782087 0.064920716 0.039950356 -0.5766755 -0.19296996 0.4163727 -0.40895498
-0.22638866 0.17277865 0.006361703 -0.21569458 -0.056885097 0.07156358 -0.007921592 -0.009694666
-0.3340242 0.15968484 -0.03287207 -0.23729639 -0.19091168 0.2097485 -0.29763103 0.02447339
-0.3754565 0.77250916 -0.73701173 0.4677544 -0.28826126 0.39356068 0.09659719 -1.1357607
-1.6474425 -0.33246568 -0.37920398 -0.4203055 -0.36570278 -0.24295391 0.27602673 0.10762623
-0.078853495 0.25121525 0.46598428 -1.0415881 -0.37061438 -0.03691859 0.27682117 -0.40349707
-0.15462025 -0.082213506 -0.8291833 -0.10466192 -0.33727944 -0.5491378 -0.025582017 0.0051964005
-1.1282502 0.6220298 0.23631155 -0.3684794 -0.41658977 -0.15322728 0.10596716 -0.046587914
-0.0946254 -0.048978887 0.07483291 0.23174584 0.014675505 -0.046390895 -0.17204185 -0.4376544
-0.76632804 -0.5001019 -0.43686825 -0.3417161 -0.46605122 -0.053000584 -0.4738161 -0.07639913
-0.029400527 -0.13484064 -0.38562772 -0.16721897 0.0063021434 0.06806385 -0.23325208 -0.7307342
0.30481455 -0.6012451 -0.19412349 -0.23992404 -0.79035 -0.32955632 0.46653587 -1.5130883
-0.67092174 -0.22578321 -0.085402735 -0.18947597 -0.898194 -0.12861861 0.19878253 -0.5569142
-0.325245 -0.18708736 0.23296273 0.84868735 -0.06165245 0.31457627 -0.6785807 -0.23148836
-0.30110624 0.29071552 -0.015905544 0.14807518 1.0359645 -0.31216893 -0.11157668 0.11673748
-0.028107878 -0.07334974 -0.45424473 -0.36034057 -0.13005148 -0.63453865 0.33284685 -0.3286075
-0.17826046 -0.026358474 0.52254975 -0.70459753 -0.380171 -0.34420416 -0.115032755 -0.11228705
-0.9187932 0.16437984 0.10576073 -0.37762824 -0.58221877 -0.30910662 0.28846106 -0.28183007
-0.7854216 0.13639113 -0.13249943 -0.04542883 0.32552782 -0.5133746 -0.017474014 0.21677426
00000000: 769e 9bbe f55b c3bd 3d0c 533e 9abb 6fbf
00000010: d37b fb3d 5bc0 8bbf 6738 5e3d 7f7a 96bf
00000020: 5143 a7be a1bf 2cbf dba6 85bb c2a8 55bf
00000030: 79dd 6abe 06d2 413f 5998 89bf b504 a8bf
00000040: 6b5c 0ebf 9ef3 01bf 7f23 67be f8e0 d63e
00000050: 818a 1bbf cd9e 7cbf 954c 373d 49bf 76bf
00000060: 6e29 07be db35 5b3e a0ae 793e 311c d1bd
00000070: de33 9ebe 2e88 cbbe 54c8 aabe 3cda 0bbf
00000080: 9b7a aebc 49ef 95bd aca3 4bbf a0e4 66bf
00000090: c77b f6bd 7067 44be 3079 c9be c085 fcbe
000000a0: ce92 81bf 0719 b7be 7ea9 0a3e 27ff e0be
000000b0: 9f6e 57bf 7ef9 6ebf 0d36 32be 6f1f d1be
000000c0: e6a8 853c a7a5 44bf 3458 a6bf b7b2 3dbc
000000d0: 26cf 303e 2dfb e1be 378a b5bd 7dd8 68bf
000000e0: 0513 45be db62 033f 38c9 49bf fac9 87be
000000f0: 918e 68be c1ac eb3e 92ce 0f3f a823 92bf
00000100: c756 8fbe 5433 f3be 3abe 173d 0a2a 59bf
00000110: f106 02be e298 0cbf 3e83 9abc 6255 9cbf
00000120: e702 683d 3855 8bbd e3b1 123e 95db 23bf
00000130: f22e f73c 1ea4 fcbd 72f4 2cbf 104d 20be
00000140: 6279 35bf 8543 c3bd a62d 41bf 3c6b 55bf
00000150: e322 25bf 2cec 62be c9aa 1ebe 4467 2bbb
00000160: 3162 973e 75da 5fbf 4a5e c8bd 336b 80bf
00000170: d2d6 a5bf 745f 39be 0030 76be fc0a 0e3e
00000180: 19d5 743e 76b5 393e 0c51 8d3e f3b4 f13e
00000190: 192f 67be bc87 a23d 4c2a de3e 60f9 a4be
000001a0: c4dd 98be 1d54 403e 27f5 843d fca2 233d
000001b0: 01a1 13bf eb99 45be cd2e d53e 8c62 d1be
000001c0: 6ed2 67be e3ec 303e d575 d03b 0adf 5cbe
000001d0: 5900 69bd ed8f 923d 91c9 01bc 60d6 1ebc
000001e0: 3805 abbe 6c84 233e dda4 06bd d3fd 72be
000001f0: 5a7e 43be 50c8 563e 1863 98be 6b7c c83c
00000200: d63b c0be 29c3 453f cdac 3cbf 817d ef3e
00000210: fb96 93be c980 c93e bfd4 c53d 9b60 91bf
00000220: 65df d2bf f138 aabe 0627 c2be 4832 d7be
00000230: 653d bbbe e9c8 78be 6053 8d3e 246b dc3d
00000240: f17d a1bd 499f 803e 7e95 ee3e c252 85bf
00000250: 2bc1 bdbe f337 17bd 81bb 8d3e 2b97 cebe
00000260: c554 1ebe 8e5f a8bd 5b45 54bf fd58 d6bd
00000270: e4af acbe 4b94 0cbf 6191 d1bc 9146 aa3b
00000280: 816a 90bf 583d 1f3f a8fb 713e 55a9 bcbe
00000290: 414b d5be 9de7 1cbe 4f05 d93d f8d2 3ebd
000002a0: f6ca c1bd 169e 48bd ff41 993d c84e 6d3e
000002b0: 8871 703c 6104 3ebd bd2b 30be 3d14 e0be
000002c0: 132e 44bf ae06 00bf 32ad dfbe 6af5 aebe
000002d0: 449e eebe 2417 59bd 0698 f2be 2677 9cbd
000002e0: 60d9 f0bc aa13 0abe ff70 c5be 733b 2bbe
000002f0: 3682 ce3b 0f65 8b3d a2d9 6ebe 6611 3bbf
00000300: a710 9c3e 33eb 19bf 4fc8 46be a6ae 75be
00000310: 6154 4abf 9bbb a8be cadd ee3e e1ac c1bf
00000320: 87c1 2bbf b733 67be a1e7 aebd fd05 42be
00000330: 0bf0 65bf 99b4 03be a68d 4b3e ee91 0ebf
00000340: 8386 a6be d493 3fbe c88d 6e3e 9343 593f
00000350: 4887 7cbd 2410 a13e 77b7 2dbf 490b 6dbe
00000360: 992a 9abe aad8 943e 584c 82bc 05a1 173e
00000370: 7c9a 843f 9bd4 9fbe 5082 e4bd 0f14 ef3d
00000380: 7e42 e6bc 6338 96bd c492 e8be 8f7e b8be
00000390: 372c 05be 2071 22bf e76a aa3e 3e3f a8be
000003a0: e989 36be baed d7bc d2c5 053f 8160 34bf
000003b0: c6a5 c2be 873b b0be 4b96 ebbd c1f6 e5bd
000003c0: 0836 6bbf 3053 283e 1599 d83d 7d58 c1be
000003d0: 4a0c 15bf 3943 9ebe 2bb1 933e 084c 90be
000003e0: 6411 49bf 1eaa 0b3e eead 07be 9513 3abd
000003f0: 95ab a63e 856c 03bf aa25 8fbc 12fa 5d3e

fc3.weight f4 [31, 512]
0.2326352 0.18305221 0.38860294 0.13757941 0.0028343434 0.17856593 -0.11852294 0.37935752
0.060772248 0.020750593 -0.07409116 -0.061141256 0.47988224 -0.025254104 0.044409715 0.2723836
-0.17217124 0.10082165 -0.03679899 -0.114414476 0.070165165 0.16497838 0.1748961 -0.022217263
0.25432682 0.20298265 0.118797734 -0.07968919 0.09719625 0.218051 -0.046500508 -0.22867735
0.017876185 -0.01846741 0.09405351 -0.533465 0.1026721 -0.13886522 0.45008206 0.11735301
0.07596788 -0.20079336 0.101195514 -0.24764618 -0.08296568 0.17645611 0.10129536 0.16072978
0.11958811 0.13169737 0.054364145 -0.09838548 0.13409185 -0.0070826327 0.20241487 -0.068865776
-0.13132212 0.13031235 -0.12588903 -0.36260158 0.21382236 0.0760194 0.09674972 0.1743707
-0.13836914 0.089958645 -0.01628929 0.059328374 -0.003760057 -0.10560602 -0.08328573 0.33744022
0.1533754 -0.071050435 -0.025558835 -0.27552676 0.24682349 0.108477935 0.22451581 0.2568969
-0.11227486 -0.025136072 -0.019629763 0.19749151 0.10282345 0.23464711 -0.08748692 -0.12810494
0.11413671 0.02004199 0.13400462 0.34159982 0.6108746 -0.15547903 -0.0073197787 -0.06295586
0.5081998 -0.30518916 -0.0050612753 0.107150875 -0.10337391 0.07048281 -0.02954067 0.35737598
0.12151768 0.10753535 0.04182315 0.062135614 0.08925307 -0.061118025 -0.12746939 -0.12701862
0.32833758 -0.015285667 -0.14776328 0.29118833 -0.1031859 0.014805647 -0.13227822 -0.025577225
0.015883153 0.113740675 0.01951847 -0.097394355 -0.18908982 0.15058614 -0.23622254 0.17658935
-0.17722593 0.08829069 -0.013915522 0.080452345 0.116600476 0.07335252 -0.1620294 0.14723551
0.94417405 -0.15558766 -0.15303786 0.13424431 0.021469457 0.0656445 0.11696758 0.20223276
0.0094957715 0.09081511 0.09906481 0.34151238 -0.09672043 0.09999971 0.07780837 0.3369665
-0.0016510398 0.020484155 -0.06939259 -0.024098983 -0.12456112 -0.06577107 -0.019788032 -0.010793479
0.122637846 0.07897736 0.19407594 0.09380478 -0.07273477 0.2055295 0.03714795 0.18719731
-0.108211175 0.020014068 -0.29608893 0.29235893 0.15512097 -0.023373041 -0.25885668 -0.2538471
0.0933532 -0.06186088 -0.03156966 0.13338204 -0.09394365 -0.4336631 -0.16098674 -0.28817847
-0.11138611 0.3827949 -0.27839762 -0.05883883 0.15912382 0.1545658 -0.03294414 0.18868509
0.21538724 -0.14768678 -0.14946336 0.31704396 -0.22327639 -0.26794535 0.40886265 0.56049234
0.07307151 -0.08412824 0.21941318 0.0020134337 0.15785179 0.17893969 0.07821063 -0.047605924
-0.16753112 0.30598587 0.13812754 0.037933826 0.11262208 0.038465623 -0.18396786 -0.11280239
-0.04446992 -0.09714225 -0.008416997 0.12812747 0.037005927 -0.082073666 -0.15323545 -0.1500285
0.12744069 -0.07788979 -0.5330292 -0.0048154476 -0.15776277 -0.028734341 0.051475488 0.24063371
-0.1989006 0.1412905 0.073307976 0.14773248 -0.43263575 -0.15280229 0.1374738 -0.026436232
-0.46896482 0.0928731 0.071775265 0.03859923 0.21000813 0.11930678 0.27807105 -0.1059661
0.091253094 -0.1004132 0.074982874 0.14680935 0.08070982 0.21961811 -0.07540962 0.035408627
00000000: ec37 6e3e 0a72 3b3e f7f6 c63e 9ee1 0c3e
00000010: 64c0 393b fdd9 363e 28bc f2bd 263b c23e
00000020: 52ec 783d 26fd a93c 1bbd 97bd 416f 7abd
00000030: 20b3 f53e b2e1 cebc f6e6 353d dd75 8b3e
00000040: a84d 30be 957b ce3d 8aba 16bd 2352 eabd
00000050: c1b2 8f3d 18f0 283e f717 333e fa00 b6bc
00000060: 2037 823e afda 4f3e 3a4c f33d 1634 a3bd
00000070: d40e c73d c348 5f3e 5177 3ebd 652a 6abe
00000080: 1471 923c f748 97bc 209f c03d 2a91 08bf
00000090: c045 d23d af32 0ebe 2871 e63e c656 f03d
000000a0: 0c95 9b3d c69c 4dbe 983f cf3d f696 7dbe
000000b0: e9e9 a9bd e9b0 343e f173 cf3d 5996 243e
000000c0: 9cea f43d addb 063e f0ac 5e3d 547e c9bd
000000d0: 604f 093e 6e15 e8bb d845 4f3e 8009 8dbd
000000e0: 4e79 06be 9a70 053e 0ee9 00be eaa6 b9be
000000f0: 40f4 5a3e 0fb0 9b3d b824 c63d 3c8e 323e
00000100: a4b0 0dbe 3d3c b83d 1e71 85bc 4f02 733d
00000110: 4a6b 76bb f847 d8bd b591 aabd f7c4 ac3e
00000120: 710e 1d3e e482 91bd c360 d1bc d811 8dbe
00000130: 4cbf 7c3e ae29 de3d 79e7 653e fe87 833e
00000140: 5df0 e5bd 2aea cdbc 99ce a0bc 373b 4a3e
00000150: 1a95 d23d 5547 703e 582c b3bd f12d 03be
00000160: 82c0 e93d 192f a43c 8238 093e 2ce6 ae3e
00000170: 4762 1c3f e535 1fbe c1da efbb 00ef 80bd
00000180: 6219 023f c141 9cbe 0ed9 a5bb eb71 db3d
00000190: b3b5 d3bd 4b59 903d 46ff f1bc fcf9 b63e
000001a0: 43de f83d 7e3b dc3d c04e 2b3d ea81 7e3d
000001b0: 50ca b63d e556 7abd 5687 02be 2b11 02be
000001c0: dd1b a83e bc70 7abc 424f 17be a316 953e
000001d0: 2153 d3bd 6293 723c f173 07be 5487 d1bc
000001e0: 631d 823c dff0 e83d 33e5 9f3c b176 c7bd
000001f0: c3a0 41be 4133 1a3e 52e4 71be d7d3 343e
00000200: b77a 35be c0d1 b43d eefd 63bc 33c4 a43d
00000210: 3bcc ee3d d939 963d 09eb 25be e8c4 163e
00000220: 64b5 713f 5f52 1fbe f5b5 1cbe 5777 093e
00000230: b7e0 af3c a070 863d b38c ef3d 1b16 4f3e
00000240: 2794 1b3c 46fd b93d 7ee2 ca3d b6da ae3e
00000250: 5c15 c6bd a6cc cc3d ff59 9f3d e086 ac3e
00000260: b467 d8ba 63ce a73c b41d 8ebd 3b6b c5bc
00000270: e719 ffbd fcb2 86bd 831a a2bc 22d7 30bc
00000280: 8d29 fb3d e2be a13d d8bb 463e b81c c03d
00000290: f8f5 94bd 5376 523e 7328 183d a7b0 3f3e
000002a0: d29d ddbd 8bf4 a33c f898 97be 12b0 953e
000002b0: 08d8 1e3e d278 bfbc dd88 84be 3ff8 81be
000002c0: f62f bf3d d661 7dbd 304f 01bd 4d95 083e
000002d0: 8765 c0bd 1709 debe b5d9 24be 218c 93be
000002e0: 671e e4bd b1fd c33e 228a 8ebe fc00 71bd
000002f0: 5bf1 223e 7f46 1e3e 6ff0 06bd aa36 413e
00000300: 798e 5c3e 343b 17be ec0c 19be 9653 a23e
00000310: 91a2 64be 2230 89be 7256 d13e 6d7c 0f3f
00000320: 84a6 953d 6d4b acbd d9ad 603e d0f3 033b
00000330: e6a3 213e f73b 373e e52c a03d 6efe 42bd
00000340: 478d 2bbe 2eaa 9c3e 4e71 0d3e 8060 1b3d
00000350: 68a6 e63d 218e 1d3d 1262 3cbe f004 e7bd
00000360: 1726 36bd 84f2 c6bd 72e7 09bc d933 033e
00000370: 8793 173d 3d16 a8bd c1e9 1cbe 12a1 19be
00000380: d07f 023e af84 9fbd 9a74 08bf e7ca 9dbb
00000390: 908c 21be 4864 ebbc f6d7 523d af68 763e
000003a0: 99ac 4bbe 75ae 103e 7e22 963d 2f47 173e
000003b0: 6f82 ddbe 3478 1cbe efc5 0c3e cc90 d8bc
000003c0: 281c f0be 4034 be3d e9fe 923d 3a1a 1e3d
000003d0: 5f0c 573e 1d57 f43d 545f 8e3e c104 d9bd
000003e0: e7e2 ba3d 70a5 cdbd 9f90 993d 3155 163e
000003f0: 314b a53d 92e3 603e 5c70 9abd a308 113d

fc3.bias f4 [31]
2.304645 -0.69859517 0.00037077582 0.5031262 -3.272902 -1.7694999 0.2354321 -0.6543895
-1.1310885 -0.046168018 1.0155258 -1.167202 -0.093099624 -1.7324731 2.2241213 -1.8547219
-0.9802601 -0.5029788 -0.43920845 -0.081289746 -0.7566023 2.5140865 -1.0520934 -1.3026257
-0.48023012 0.8958276 -4.175052 0.79460156 -1.1799446 2.071984 -2.980279
00000000: 4e7f 1340 22d7 32bf b064 c239 e1cc 003f
00000010: 3a77 51c0 f97e e2bf 1d15 713e 1286 27bf
00000020: 82c7 90bf ad1a 3dbd c0fc 813f e066 95bf
00000030: 04ab bebd aec1 ddbf 0158 0e40 8767 edbf
00000040: 53f2 7abf 38c3 00bf eedf e0be 3d7b a6bd
00000050: b0b0 41bf cbe6 2040 ffaa 86bf 70bc a6bf
00000060: b9e0 f5be f554 653f 079a 85c0 026b 4b3f
00000070: 6d08 97bf 639b 0440 e4bc 3ec0
