OID_dataset/ckn/ckn_oid_last.pt (torch, 787415 bytes, 6 tensors)

fc1.weight f4 [256, 190]
000000 f6 93 1b 3e fd af 0b be 2a e0 1e 3d 18 2d 91 3d
       0.15193161 -0.13641353 0.038788 0.07088679
000010 e8 88 23 be b6 98 51 bd 14 08 63 3d c2 1c 1d 3d
       -0.15970194 -0.051171027 0.055427626 0.038357504
000020 17 0d 49 3c 37 f8 8b bd 29 ab 6a 3d 5d 47 19 bd
       0.012271187 -0.068344526 0.057292137 -0.037421573
000030 f5 9f 04 3e 8a 89 01 bd 74 33 5c bd e2 4e 6f 3e
       0.12951644 -0.031625308 -0.053760007 0.23369935
000040 27 ef f0 3c 90 86 88 bd 08 1b 71 3d 02 8c 0d bd
       0.029410912 -0.06666291 0.05886367 -0.03455735
000050 f7 3f be 3d a6 43 3f 3d 32 1c 0f bd 90 0d bc bd
       0.09289544 0.046695374 -0.034939 -0.09182274
000060 c1 fe 2a 3d 85 39 4c 3d 21 15 81 3b fc 09 98 bd
       0.04174686 0.049859542 0.0039392863 -0.07423779
000070 56 94 ab bc 33 32 44 3d d1 1c d1 bd dd 9b 0d 3e
       -0.020944756 0.047899436 -0.102105744 0.13828988
000080 ec 2a 3a 3e 0b 23 00 be 0a 9d 01 be 30 0f 50 bd
       0.18180436 -0.12513368 -0.12657562 -0.050795734
000090 5e 34 fa bd 53 d5 42 bc d3 dd 19 be c9 61 6f 3d
       -0.122170195 -0.011891681 -0.15026025 0.058442865
0000a0 be 18 92 3c c5 47 dc bd 09 c6 70 3d 81 6e 25 bd
       0.017834064 -0.107558765 0.05878261 -0.040388588
0000b0 03 74 ed bd e9 78 5b 3d d0 6e a2 3d 2b 94 b2 3d
       -0.11594393 0.053582106 0.07931292 0.08719667
0000c0 6c a6 15 be 37 10 3a 3d c6 be 99 be 7b be 51 be
       -0.14614266 0.04542562 -0.3002836 -0.20482819
0000d0 c0 e6 3b 3b b7 37 dd bd ed 6f 21 be 47 11 58 be
       0.0028671473 -0.108016424 -0.15765353 -0.21100341
0000e0 0b 16 59 be b2 68 1f be 1f 90 c5 bd 48 08 03 be
       -0.21199815 -0.15567282 -0.096466295 -0.12796128
0000f0 a3 e7 00 be e6 05 ef bd 8d de b0 be 1c 74 04 be
       -0.12588362 -0.11671047 -0.34544793 -0.12934917
000100 fb 8b 69 bd 88 45 b4 bd 0f 3f d2 bd 12 70 65 be
       -0.05701826 -0.088023245 -0.10265934 -0.22406033
000110 cd 3c 9b be c6 64 ad bd a1 0c 70 bc 09 b6 7c bd
       -0.30319825 -0.08466487 -0.0146514485 -0.06169704
000120 3c d8 36 be b5 f9 18 be 04 0f 87 be 15 94 f3 bd
       -0.17855924 -0.14939006 -0.26378644 -0.11893479
000130 d3 44 c3 3c e1 fe 96 bd 3d 26 cf bd cd 50 3e be
       0.023836529 -0.07372833 -0.10114715 -0.1858551
000140 28 93 f9 3c 24 bf f1 bd 69 46 22 3d 66 49 a6 bd
       0.030465677 -0.11804035 0.03961793 -0.081194684
000150 d5 39 00 be 19 a9 f8 3d 26 c8 11 bb 9e 62 1c 3e
       -0.12522061 0.12141628 -0.0022244542 0.15271994
000160 5a fc cb 3c 44 37 32 bd 82 28 91 3d fd 2e a3 bc
       0.024900604 -0.043509737 0.070878044 -0.019919867
000170 0a cc 67 be ad 77 1c bc ec 26 8c bd 15 8b 8a bd
       -0.22636428 -0.009550017 -0.06843361 -0.06764809
000180 52 73 d4 3d 2f c5 0b bd 6d cf ff bc 0c 92 c8 38
       0.10373558 -0.034123596 -0.031226838 9.5639465e-05
000190 4b 87 08 3d 5b 1a b2 bd 7d ad 48 be ac b5 31 bd
       0.03333215 -0.08696433 -0.1959743 -0.043386146
0001a0 6e f7 80 3d be 80 d2 3d 6a 55 1a 3d f5 fa 2e be
       0.062971935 0.10278462 0.037679113 -0.1708792
0001b0 2b c2 11 3c d7 2d d0 3d c7 d0 bc bd 35 36 cd 3c
       0.008896391 0.10164993 -0.092195086 0.025050262
0001c0 bc 81 4b bd 5a 42 82 bd 41 73 c6 bd 97 fb 39 be
       -0.04968427 -0.06360312 -0.09689952 -0.1816238
0001d0 3d 6c 92 3d 8d 68 d5 3d 0b 70 fc 3d 8f 62 87 3e
       0.07149551 0.10420332 0.12326058 0.26442382
0001e0 17 42 e3 3b a3 db 08 3e 3f 61 f0 3d bd 36 73 bd
       0.0069353688 0.13365035 0.11737298 -0.059378374
0001f0 54 c3 d6 bd 38 fa dc bd 0f ee 43 be cf 34 27 3d
       -0.10486475 -0.10789913 -0.19133781 0.040821847
000200 59 aa d3 bd 3d 57 db 3c 72 a8 0c be bf 02 77 bc
       -0.103352256 0.026774997 -0.13736132 -0.015076338
000210 39 90 d4 bd 7d 13 4b be 07 ef 1f be 15 77 5d bd
       -0.10379071 -0.19831653 -0.15618525 -0.054068644
000220 7e 3d 66 be b7 2f a1 bd bb 55 64 bd 5e 09 46 be
       -0.22484395 -0.07870429 -0.05574582 -0.19339511
000230 8b a9 08 be 43 34 83 bc 20 1a 74 be e5 74 11 bd
       -0.13345926 -0.016016131 -0.23838091 -0.03551187
000240 25 0b 09 be 91 24 0a be 93 b5 4b be c1 38 be bb
       -0.13383158 -0.13490511 -0.19893484 -0.0058051054
000250 be ee 3d be f6 61 93 bd 56 9f f1 bd f9 d3 5c be
       -0.18548104 -0.07196419 -0.11797969 -0.21565236
000260 bb e3 55 be d5 ed 8b bb ca e8 48 be 3f 69 8f bc
       -0.20887654 -0.004270295 -0.19620052 -0.01750624
000270 9a 29 07 be f0 34 58 be 8a 31 51 be 8c c7 da bd
       -0.13199463 -0.21113944 -0.20429054 -0.10682592
000280 5b e0 bd 3d 0b c4 57 3e 45 22 37 be 12 70 1a bd
       0.09271308 0.21070878 -0.17884167 -0.037704535
000290 b5 de ad bd e4 45 63 3e ea a1 1b bd 68 14 87 3e
       -0.084897436 0.2219463 -0.03799621 0.26382756
0002a0 b2 9e 5e bd 1e a8 c9 3b 37 48 0c be 6c 35 42 3e
       -0.054350562 0.0061540743 -0.13699423 0.18965691
0002b0 fe 98 ab 3d b6 e2 92 3e 9e f1 1d be c0 5b 13 bd
       0.0837879 0.28688592 -0.15424201 -0.03597617
0002c0 35 6a d9 bd 56 c5 2c 3e c3 6d 5f bc bf 9e 80 3e
       -0.106159605 0.16872153 -0.013637009 0.25121114
0002d0 1d 1d 16 be 56 b3 84 bd 29 8b d1 bd 78 d9 95 3e
       -0.14659543 -0.06479518 -0.10231621 0.29267478
0002e0 ed fc 8f 3d 85 56 22 3e bd 88 bb bd 1d a4 68 bd
       0.07030664 0.15853317 -0.0915694 -0.056797136
0002f0 e4 14 4d be 32 bc 94 3e da c9 3a be 8f 08 9d be
       -0.200275 0.29049832 -0.18241063 -0.30670592
000300 36 5c a4 3f 69 a6 db 3e d4 73 a2 be 73 24 58 bf
       1.284064 0.42900398 -0.31728995 -0.8443062
000310 dd 5e 99 3e 81 ee ef be 44 a9 2c bf f3 eb cd 3e
       0.29955187 -0.46861652 -0.6744578 0.40219077
000320 a1 9e c9 3f 7d 2f a3 3e 93 74 c5 bf b3 99 01 bf
       1.5751535 0.31872168 -1.5426201 -0.5062515
000330 5c d4 53 bf ad 93 6c 3e ab a4 02 c0 4b bb 62 bf
       -0.8274591 0.23103209 -2.0413005 -0.88567036
000340 45 86 e5 bd fa 25 8a 3e 69 5d 13 3e 6d 81 8d be
       -0.112072505 0.269821 0.14391102 -0.27637807
000350 cc 78 0c bf b2 bf a2 be e1 11 ca be 73 02 24 3f
       -0.5487182 -0.31786877 -0.39466766 0.6406624
000360 4a 11 3a 3f df 32 27 bf 91 24 3c bf e0 19 39 3f
       0.7268263 -0.65312 -0.73493296 0.7230511
000370 af 73 49 bf 6a 80 05 3f 8b ea d2 3f b8 28 89 bf
       -0.78692144 0.5214907 1.6477827 -1.0715551
000380 69 21 8b 3c 89 7e 15 bf 7a fd 0e 3f ff 0f 14 c0
       0.016983705 -0.583962 0.55855525 -2.3134763
000390 dd d1 98 bf 98 38 5c 3f 1b a1 1b bf 6f 1c e5 3e
       -1.1939045 0.86023855 -0.607927 0.44748256
0003a0 3c c0 04 c0 e0 71 4f 3f fd 52 66 bf cc 5f f7 3e
       -2.074233 0.81033134 -0.8997038 0.48315275
0003b0 91 52 52 bf 13 7c 89 3f f0 5a c6 be 75 94 1b bf
       -0.82157236 1.074099 -0.38741255 -0.607734
0003c0 1c ad 96 3e 26 13 85 be 4a 5c c7 3f 34 ea 16 3f
       0.29428947 -0.25991172 1.5575039 0.58951116
0003d0 a9 3b 3e bf e0 9a 78 bf c3 fd 9b 3e 07 3b 1f be
       -0.74309784 -0.9711132 0.30467042 -0.15549861
0003e0 f9 d2 bc 3f 36 87 12 3f 77 ff 32 bf 35 c0 6f bf
       1.4751884 0.57237566 -0.6992106 -0.9365266
0003f0 d1 e0 98 3e b1 4e 7d be b7 dc b9 3f f9 9b 1d 3f
       0.2985902 -0.2473705 1.4520482 0.6156612

fc1.bias f4 [256]
000000 67 d1 59 bd eb 44 b0 bf 19 3c fb be b2 68 11 be
       -0.053178217 -1.3771032 -0.49069288 -0.14200094
000010 b9 fc e3 be 61 6e b5 bf 29 3d 85 3e e5 91 07 be
       -0.4452875 -1.417431 0.26023224 -0.13239248
000020 88 08 a6 bd b4 f3 4c 3e 2f 42 4d bf 17 21 ae 3c
       -0.08107096 0.2001484 -0.80179113 0.021256013
000030 aa 7b 14 3e 74 60 7f bf f1 de 8a bf eb 31 86 bf
       0.14500299 -0.9975655 -1.0849286 -1.0483984
000040 51 4c b9 bf 1e 2c c8 be be f0 a8 be 58 87 bf bf
       -1.4476415 -0.3909616 -0.32996172 -1.4963179
000050 7d 34 20 3f 29 b0 85 bf 91 9c 1e ba cc c1 d3 3f
       0.6258009 -1.0444385 -0.0006050552 1.6543517
000060 a5 94 9c 3f fc ac d2 be 2b 58 50 be cf 02 92 be
       1.2232863 -0.41147602 -0.20346133 -0.28517768
000070 a6 41 f2 bd 59 5f 80 be 1a 81 67 bf a4 65 d9 bf
       -0.11828928 -0.25072744 -0.9043137 -1.6984143
000080 4b 89 3d bf e5 eb 17 bf dc 70 ba 3e 2c 15 86 bf
       -0.7403762 -0.5934432 0.3641423 -1.0475211
000090 db a1 29 bf 1c 00 32 be be 47 d9 be 2d bb 79 bf
       -0.66262597 -0.17382854 -0.42437547 -0.9755123
0000a0 fc 06 b2 b9 b0 90 10 3f 42 f3 86 bf 04 42 b1 be
       -0.0003395601 0.56470776 -1.0542986 -0.34620678
0000b0 c9 cb b2 3d 38 67 81 bf 03 3e f0 bd 47 94 14 bf
       0.08730275 -1.0109625 -0.11730578 -0.58038753
0000c0 a4 aa 2c 3e 2e 43 8e bf 56 f1 74 bf 3b c6 33 be
       0.16861969 -1.1114252 -0.9568075 -0.17556088
0000d0 9e 23 a0 bf d5 10 9d be 61 1a f1 3d 5b bc ab bf
       -1.251087 -0.30676904 0.117726095 -1.3416857
0000e0 dc cc 28 40 ed 1e bf be 5b 4f b8 bd 19 d1 4d bf
       2.6375036 -0.37328282 -0.08999511 -0.8039718
0000f0 3f 54 e7 bf 6b 0a ec be 6b 82 59 bf 47 67 56 bc
       -1.8072585 -0.46101698 -0.8496463 -0.013086147
000100 1d 5d f1 3d 47 65 9b 3e b5 ba 4d be 3f 16 a6 bf
       0.11785338 0.30350706 -0.20090754 -1.2975539
000110 34 50 57 be e3 2f 20 bf a2 b1 a8 bf e8 8e 99 bf
       -0.21026689 -0.6257307 -1.3179209 -1.1996737
000120 9d b0 04 3f b0 52 a4 bf ee c8 a9 bf df 6e 14 3f
       0.5183199 -1.2837734 -1.3264444 0.57981676
000130 4a ff 96 be 90 6e b9 3d b6 be af bd d3 5e f2 bf
       -0.29491645 0.09054291 -0.08581297 -1.8935188
000140 c6 74 e3 bd 76 b2 3d bf 57 35 a9 be bf 30 b8 bf
       -0.11106257 -0.74100435 -0.33048508 -1.4389876
000150 47 22 93 be 3e 1b 9b bf 0c b1 a7 bf 00 9b 35 bf
       -0.2873709 -1.2117689 -1.3100905 -0.70939636
000160 67 4c fb be fb cb 83 bf f6 a2 83 bf 33 d4 6c bf
       -0.49081728 -1.0296625 -1.0284107 -0.9251129
000170 0d 4a 7e 3e 7c b8 54 bf 1c 27 c1 bf ae 9a 5d 3f
       0.24832936 -0.83094 -1.509006 0.8656415
000180 ad 99 75 bf 83 e1 9a bf a6 57 70 3f fe ca 98 be
       -0.95937616 -1.2100071 0.9388374 -0.2984237
000190 90 62 d4 3d ea 28 b9 bd 95 6c 12 bf b4 41 5b be
       0.10370362 -0.09041007 -0.57196933 -0.21411783
0001a0 b3 aa 3b bf e2 65 77 3b 87 23 c6 bf 83 f8 eb be
       -0.7330734 0.0037749936 -1.5479592 -0.46088037
0001b0 80 04 05 bf 79 78 98 bf e6 41 c2 3e 93 66 59 be
       -0.5195999 -1.1911765 0.37940902 -0.21230535
0001c0 eb 3e 82 bf 7b 63 83 be ca 9e 7c be 21 0e 9c bf
       -1.0175451 -0.25661835 -0.24669948 -1.2191812
0001d0 65 87 27 be 25 24 51 bf bc 45 98 3f b6 a0 34 bf
       -0.16360243 -0.8169578 1.1896281 -0.70557725
0001e0 de 9b 27 bf db 73 8c 3f 07 ad d8 bd 98 ca 82 bf
       -0.6547221 1.0972856 -0.10579877 -1.0218077
0001f0 92 47 2c 40 f3 a4 b2 bf 37 82 1f 3e e2 32 90 be
       2.6918683 -1.3956589 0.15577017 -0.2816382
000200 ce 10 e2 bd fb dc 5a bf b5 b7 db bf 1a b2 33 bf
       -0.110383615 -0.8549344 -1.7165438 -0.70193636
000210 b1 2d 6a be 01 8f 8d bf aa a0 31 bf df 66 86 bf
       -0.22868992 -1.1059266 -0.6938578 -1.0500144
000220 6c af 96 be 11 46 ea be 49 61 14 bf b5 13 05 bf
       -0.2943071 -0.4575658 -0.57960945 -0.51983196
000230 a9 f3 d7 be ef f2 cf bf d8 85 a2 be 12 a3 74 bf
       -0.42178085 -1.6246012 -0.3174274 -0.95561326
000240 f4 4c 00 bf 6b d3 bc bf 3d 4b 94 bf 76 76 a7 be
       -0.5011742 -1.475202 -1.1585461 -0.32707566
000250 c1 76 25 3e 05 92 ec be 60 e6 35 be af 37 fa be
       0.16158582 -0.46205154 -0.17763662 -0.48870608
000260 87 00 7d bf de 4c 23 bf e2 8f 94 bf 85 46 fa bf
       -0.9882893 -0.63789165 -1.160641 -1.9552771
000270 98 df d7 bf 9b 67 3e bf 22 b6 74 bf d9 b6 02 be
       -1.686511 -0.7437684 -0.9559041 -0.12765063
000280 ba 67 15 3d 9d 56 27 3e 9b 97 c7 bf 9e 49 da 3f
       0.036475874 0.16341634 -1.5593141 1.7053716
000290 b1 4b cc bc 75 10 c6 bf 41 f7 9d be 2d 72 9a be
       -0.024938436 -1.5473772 -0.30852702 -0.30165234
0002a0 b5 e9 44 bf cd 03 09 3f c8 3b 39 bd f4 5a b7 be
       -0.7691911 0.53521425 -0.045223027 -0.3581158
0002b0 31 86 a0 bf 92 0c 8b be fb bd 10 3e a7 ba b6 bd
       -1.2540952 -0.27158028 0.14134972 -0.0892232
0002c0 c6 e8 13 bf c5 f0 6c bf 3f 29 ca be 21 6b 05 bf
       -0.5777706 -0.92554885 -0.39484593 -0.5211659
0002d0 43 26 8a bf 63 09 00 3e 64 af 67 bf dc e5 c2 bf
       -1.0792927 0.12503581 -0.90502 -1.5226398
0002e0 94 89 44 3f 14 09 4e bf 77 02 f4 3b 3d 40 13 bf
       0.7677243 -0.804826 0.007446583 -0.57519895
0002f0 27 50 15 bf b2 c9 bd be 88 27 4e bf 4a 9f 7b bf
       -0.5832543 -0.37067944 -0.8052907 -0.9828993
000300 71 a2 37 bd d6 f4 b7 bf ae 83 a3 be ad e6 bf be
       -0.04483265 -1.4371593 -0.319364 -0.3748068
000310 53 cc e8 be 58 93 4d bf 73 e7 38 3f 0e 30 02 bf
       -0.45468387 -0.80302954 0.72228163 -0.50854576
000320 c5 e6 9d bb 79 1f 81 be 38 55 8b be f8 5b 81 be
       -0.0048187696 -0.25219324 -0.27213454 -0.2526548
000330 e6 19 51 bd b5 76 ca 3e ef ff 2a 3f d1 8d 33 be
       -0.05105009 0.3954369 0.66796774 -0.17534567
000340 e6 88 a3 bf 67 a8 a3 bf 5e eb 8c bf 15 62 06 be
       -1.2776153 -1.2785767 -1.1009328 -0.13123353
000350 87 17 98 bf 28 2d a5 bf 5f e0 3f bf 37 07 0c bf
       -1.188218 -1.2904406 -0.7495174 -0.5469851
000360 47 40 2d bf 68 7d a7 be c2 fb bf be 31 67 dc bf
       -0.67676204 -0.32712865 -0.37496763 -1.7218992
000370 8b fd ce be b4 39 e4 be d8 ea 94 bf ed 5b ad bd
       -0.40427813 -0.44575274 -1.1634169 -0.08464799
000380 d7 d7 43 bf 5f 1e 6e bf 8d 18 65 bf 1f 07 d7 be
       -0.7650122 -0.9301509 -0.89490587 -0.4199762
000390 95 85 b0 be 52 dd 4b bf 71 dc 58 bf 32 ff 82 bf
       -0.34476915 -0.79634583 -0.84711367 -1.023413
0003a0 6a f5 88 bd 26 31 49 be f4 43 ca bd a2 1e bb bd
       -0.06687434 -0.19647655 -0.09876242 -0.09136702
0003b0 ed 96 77 be 8b f7 a5 bf 45 14 69 bd b7 12 13 bf
       -0.24178667 -1.2966169 -0.056904096 -0.5745043
0003c0 bc ee de be 62 d0 bb bd bd 03 84 be 1b ba c3 bf
       -0.43541515 -0.09170605 -0.25784102 -1.529117
0003d0 73 be f2 be ca 4e b8 bf 24 ef dc bf 11 aa ae be
       -0.47410926 -1.4399045 -1.726048 -0.34114125
0003e0 79 a6 f1 3e 4c 3c 7d bf c1 ea af bf 78 b4 5e bf
       0.4719732 -0.9892013 -1.3743516 -0.86994123
0003f0 73 a3 b6 bf be fd 85 bf 9f 29 c0 bf d1 3b 51 bf
       -1.4268631 -1.0468061 -1.5012702 -0.817319

fc2.weight f4 [512, 256]
000000 27 25 2e bd 4f 8d 7a bc c0 f5 c4 3f c6 05 b5 bf
       -0.0425159 -0.01529248 1.5387497 -1.4142387
000010 f8 c6 83 bf 68 28 3d 3e 72 de 35 3f 14 ed bd 3d
       -1.0295095 0.18472445 0.7104255 0.09273735
000020 8e a6 0c be 22 47 24 bd 5b cf ae 40 5f a3 87 bf
       -0.1373541 -0.0401069 5.462812 -1.0596732
000030 07 e4 91 3f b5 86 72 3f 5c 70 a5 3f d3 1b 18 3f
       1.1397713 0.94736797 1.2924914 0.59417456
000040 c6 fb e2 3f c7 6f bf 3f 7e 8e 98 3f 9c 4a 11 3f
       1.7733085 1.4955987 1.1918485 0.5675447
000050 c3 5d 32 bf d7 d1 d5 3f f9 fe 83 3d c2 f1 14 be
       -0.6967432 1.6704663 0.064451165 -0.14545348
000060 e8 82 17 be df 90 7b bf 6d 43 0e bf cc b8 6a 3f
       -0.1479603 -0.9826793 -0.55571634 0.9168823
000070 6b 5b 7d 3b bb ed f1 be 7d 52 07 bf 70 a0 fb 3f
       0.0038659226 -0.47251686 -0.5286024 1.9658337
000080 5b d7 42 be 50 ea 0c 40 94 ce 48 be 3f e0 f4 3f
       -0.19027464 2.2018013 -0.19610053 1.9130934
000090 6c e6 1c 3f 1e fd bd bc 01 70 22 3f 0d b2 4b 40
       0.61289096 -0.023191985 0.63452154 3.1827424
0000a0 19 8e 20 3c 81 48 16 40 2d b3 06 40 f6 dc 50 3e
       0.009799504 2.3481753 2.104686 0.2039679
0000b0 65 21 73 3e c3 09 0f 40 f4 1e d5 bf 98 2c 91 3e
       0.23743208 2.2349708 -1.6650071 0.28354335
0000c0 2b 19 18 c0 3b 5f fd 3f 78 20 28 be b9 41 97 be
       -2.3765361 1.9794687 -0.16418636 -0.2954233
0000d0 de 66 23 3b 09 6b 42 3f 54 69 08 bf c5 98 21 40
       0.002493314 0.7594457 -0.5328572 2.5249493
0000e0 84 b8 bf be ff d2 b6 3f ca 0a 17 be a2 f5 dd 3f
       -0.37445462 1.4283141 -0.1475021 1.7340586
0000f0 cb 68 26 3f 8c 76 05 3f fc dd a1 3f 5a 81 53 3d
       0.6500365 0.52134013 1.2645869 0.05163703
000100 86 87 20 3f e2 14 6f be 0f c8 57 3e 62 f5 db 3f
       0.6270679 -0.2334781 0.2107241 1.718426
000110 ee 04 3c bd a5 48 50 40 b1 5a c9 3e d3 46 fb 3f
       -0.04590314 3.2544339 0.39327005 1.9630989
000120 cb cc 4a 3e 2d 48 a7 40 f9 f6 2d be ae 10 fd 3e
       0.19804685 5.2275605 -0.16988744 0.49426788
000130 60 fd 3e be 2e a3 94 3f 85 6c 41 bd 5d 6e dd 3f
       -0.18651342 1.1612298 -0.047222633 1.7299305
000140 db 10 b6 3e 03 13 fe 3e 8c 24 ac 3e 39 c8 57 40
       0.35559735 0.4962388 0.33621633 3.3715956
000150 77 e8 84 3e a1 93 1d 3e 37 c6 f8 3f 8c a1 c5 3f
       0.25958607 0.15388347 1.943549 1.5439925
000160 b9 cc 53 40 95 d6 b9 3f 67 6e 29 3f 8f cd c4 3e
       3.3093703 1.451861 0.66184086 0.3843808
000170 2c ed 22 3e 65 6b 9c 3f e1 31 87 3f 7a 84 bf bf
       0.15910786 1.2220274 1.0562097 -1.4962304
000180 20 8c 84 3f b6 2b f1 3f e3 65 85 3e e3 ee 2f 3f
       1.0355263 1.8841465 0.26054296 0.6872389
000190 91 95 8a 3f ad a2 c8 3c 56 dd f0 bf 3e 5b 00 3e
       1.0826894 0.024491632 -1.8817546 0.12534806
0001a0 ae 78 55 3f f7 59 94 3e 9a e4 0e 40 61 1b 09 3f
       0.8338727 0.28974888 2.2327027 0.535574
0001b0 fd ba 89 bf 11 a1 07 3f f5 9a 11 be 73 ae cb be
       -1.0760189 0.5298014 -0.14219268 -0.39781532
0001c0 ec 94 35 40 90 c5 80 3f 7a 16 1f c0 6e 8d bc 3f
       2.8372145 1.0060291 -2.4857469 1.4730661
0001d0 64 bd 61 3e 1a 13 98 3f 4b 08 86 bf b4 53 5c 3e
       0.22044903 1.1880829 -1.0471281 0.21516305
0001e0 1b 60 56 40 07 a9 26 be 7b ee a4 3e 45 cc 46 40
       3.3496158 -0.16275416 0.32213196 3.1062176
0001f0 51 97 12 bd 24 d0 2d 40 32 7c 07 3f 03 c3 7e 3f
       -0.035788838 2.715829 0.5292388 0.99516314
000200 88 50 9e 3f 5e c1 df b9 b3 96 e7 be 45 6d 0d 3f
       1.2368326 -0.00042677944 -0.45232162 0.5524486
000210 82 dc 90 be 65 48 87 3f 89 75 24 3f 8e ba a8 3f
       -0.28293234 1.0568968 0.64241844 1.3181932
000220 1a f0 7a be 18 6e 0b 3e 8e d6 98 3f 6e 71 0f 40
       -0.24505654 0.13616216 1.1940477 2.2412982
000230 74 60 9b be 2c 36 d0 3f 7e 3e 9e be 9e 81 26 40
       -0.30347025 1.6266532 -0.30907053 2.6016612
000240 13 18 03 3f ec 6d 74 3f 99 8a 5f 3d 25 cd a1 3f
       0.5120861 0.9548023 0.054575536 1.264073
000250 b2 d1 26 3f 21 77 a7 3e 5a 87 97 bf 03 7c 21 3f
       0.6516372 0.32708076 -1.1838181 0.6307985
000260 65 9f 94 40 06 2d a8 3f bd 83 72 bf 28 fe 3d 3f
       4.6444573 1.313874 -0.94732267 0.74215937
000270 90 bb f2 bf d3 d1 f6 3f 0e 52 b2 3f 1f f7 04 3f
       -1.896349 1.9282783 1.3931291 0.51939577
000280 91 da 16 3f 63 15 c9 be 55 4b 39 3f 0d 23 24 be
       0.58927256 -0.3927413 0.7238057 -0.16028996
000290 01 75 71 3e e6 92 55 be 93 5a 9e 3f 5a bb 9c 3e
       0.2357979 -0.20856819 1.2371391 0.30611688
0002a0 95 10 42 3f b1 6e 5c 3e 93 d8 9e 3f 75 e0 1f 3f
       0.7580655 0.215266 1.2409843 0.6245187
0002b0 e0 b2 41 40 a5 2d 22 bf 55 49 d0 be d8 04 dd 3d
       3.0265427 -0.633509 -0.40680948 0.107919395
0002c0 41 df fb 3e a0 ac 6c 3f 2c 36 35 3e 8c a6 b8 bf
       0.49193767 0.92450905 0.17696446 -1.4425826
0002d0 29 5a cc 3f 42 c9 a6 3e d1 63 e3 3f e6 3e d1 3f
       1.5965015 0.32575423 1.7764837 1.634732
0002e0 de 68 a5 3e 16 56 d6 3f 65 60 a7 bb 6d c3 e7 3f
       0.3230657 1.6745021 -0.0051079267 1.8106514
0002f0 d9 a8 21 40 42 48 f4 bf 3b 70 97 3f e9 74 66 3f
       2.5259306 -1.9084551 1.1831125 0.9002214
000300 80 d6 cc bf fc fd c6 3f bb f9 b4 bb 58 79 ed be
       -1.600296 1.554626 -0.0055229343 -0.4638164
000310 e8 bd a9 3e d6 ff 15 be 18 22 9a 3e c5 74 08 bf
       0.331527 -0.14648375 0.30104136 -0.53303176
000320 a6 fc b7 3e 4f 21 89 bf 93 3b c2 bf 60 da 80 3d
       0.35934943 -1.071329 -1.5174431 0.06291652
000330 98 3a ba bd b2 42 0f 3d f7 26 97 be 52 21 10 c0
       -0.09093207 0.034975715 -0.29521915 -2.2520337
000340 03 b4 66 40 12 c7 f9 3f c9 08 91 bf 4f 5f 3b 3f
       3.604737 1.9513876 -1.1330806 0.73192304
000350 38 f9 17 3f a5 ad f7 3e 21 d1 42 40 da bb 9f 3f
       0.5936465 0.48374668 3.0440142 1.2479203
000360 26 f2 04 40 d0 41 50 3f 02 c6 74 3f 72 22 4b 40
       2.0772796 0.8135042 0.95614636 3.1739774
000370 43 a8 86 3f f3 fa d6 3f 67 9b 44 be 5a 09 0c 3d
       1.0520099 1.6795334 -0.19199906 0.034188606
000380 18 88 a3 3f 6a 55 9c be ae 0c 88 3f ae e5 34 3f
       1.2775908 -0.30533916 1.062887 0.70662963
000390 be 54 51 bf 36 57 67 3f 4a 28 75 3d 87 98 43 3f
       -0.8176993 0.9036745 0.059852876 0.76404613
0003a0 62 ad a8 3d f8 43 d5 3d 0b 02 10 c0 b9 83 85 bd
       0.08236195 0.10413355 -2.2501247 -0.06519265
0003b0 cf b2 90 3f 04 68 3b 3f ec b6 66 bd fc bc b3 3f
       1.1304568 0.7320559 -0.05632679 1.4042048
0003c0 16 7f fa 3f 9f 93 ad 3d 4f 58 f4 bd 2a 35 08 3f
       1.9570034 0.08475422 -0.11930906 0.5320612
0003d0 09 40 c1 bf 98 86 10 40 47 bd 2a c0 82 a6 5b 3f
       -1.5097667 2.258215 -2.6678026 0.85800946
0003e0 1d 2c 93 3f 93 de 11 40 95 08 0a 40 8a 89 00 bf
       1.1497837 2.2792099 2.1567738 -0.5020987
0003f0 0d ff 9b 3f 7b 1c f2 3f ad 11 cf 3f a2 55 13 40
       1.218721 1.8914942 1.6177269 2.3021016

fc2.bias f4 [512]
000000 38 83 4c bf fe 44 6e 3e 95 6e 2f c0 ca 3f 5d be
       -0.79887724 0.23268506 -2.7411244 -0.21606365
000010 e8 11 9e bf d2 08 44 bf 0d 61 77 bf 4b 0f 1f be
       -1.2349215 -0.7657596 -0.9663246 -0.15533178
000020 f8 be ef be bf fa 1d c0 9a b6 c2 bd f1 67 62 bf
       -0.46825385 -2.4684293 -0.09507485 -0.8843985
000030 65 b6 59 bf 6b 2c c6 bf b2 92 c7 bf ec cf aa 3e
       -0.85043937 -1.5482305 -1.5591643 0.33361757
000040 ef 1f 3b bf 94 af df be 66 a6 53 bf 59 39 5a bf
       -0.730956 -0.43688643 -0.8267578 -0.85243756
000050 21 6a e8 be 21 85 cf be 6e 0d c6 be c5 2d 23 c0
       -0.4539347 -0.40531257 -0.3868212 -2.5496686
000060 96 66 94 bf 39 7e 79 bf 71 dc 5a bf 54 02 47 3e
       -1.1593807 -0.97458225 -0.85492617 0.19434482
000070 4d 84 9c bf 06 1d 9e bf 90 34 3e bf 49 56 84 be
       -1.2227875 -1.2352607 -0.74298954 -0.2584708
000080 f3 d0 65 bf 67 ea 07 be e4 d5 81 bf b6 50 00 3e
       -0.89771956 -0.13273011 -1.0143399 0.12530789
000090 d5 6c c6 be 4a 81 d1 bf 18 4c 37 bc 52 ab 31 c0
       -0.38754907 -1.6367581 -0.011187576 -2.7760816
0000a0 94 78 b4 be 0e 67 25 bf e7 2c 26 bf 53 41 a8 be
       -0.35248244 -0.64610374 -0.64912266 -0.32862338
0000b0 1a f9 9b be 22 a1 b8 bf e8 aa 75 bf b0 b2 38 3e
       -0.30463487 -1.4424174 -0.9596391 0.18036914
0000c0 c1 c4 d6 be d1 a6 04 be 7d cc b5 be 9e fd ca be
       -0.41946986 -0.1295426 -0.35507575 -0.3964662
0000d0 4b 57 8d bf 41 40 b5 3c ec 22 bb bf cc 8f 24 be
       -1.1042265 0.022125365 -1.4620032 -0.16070479
0000e0 ff dd 17 3f dd 6b 51 bf 80 12 dd bf a0 bd b8 be
       0.59323114 -0.8180521 -1.7271271 -0.36082172
0000f0 13 33 6e bf 4b 8f 62 bf 3a 6f 80 3d b3 d0 eb be
       -0.93046683 -0.884999 0.06271215 -0.46057662
000100 ba a9 8f be 80 4b 37 bf 14 05 ca bf 2b cd cc bf
       -0.2805918 -0.7159958 -1.57828 -1.6000112
000110 4b 79 58 be be 47 75 bf 5b da ff be ae d2 74 bf
       -0.2114002 -0.95812595 -0.4997128 -0.9563397
000120 5b 26 cb bf 17 f6 a4 be 1e c5 32 be fd cb 0b bf
       -1.587108 -0.32219002 -0.17458007 -0.54608136
000130 98 56 9b bf ba bd 0d bf 8a 94 77 be 7f 30 44 bf
       -1.2135801 -0.55367625 -0.24177757 -0.766365
000140 fd c4 e6 3c 5f ac 3a bf 17 d4 b0 be 6d bf c8 bf
       0.028170103 -0.7291927 -0.34536812 -1.5683419
000150 c7 87 14 bf c0 0c 9f bf 93 41 b6 be 6d 4a 5b bf
       -0.5801968 -1.2425766 -0.35596904 -0.8566044
000160 cf 90 67 be bd ce 71 bf 27 5e c9 bf db 1d 93 bf
       -0.22613834 -0.9445608 -1.5731858 -1.1493486
000170 07 41 b0 3e e7 f4 97 3e 76 15 d3 bf fa 7d de be
       0.34424612 0.29679033 -1.6490924 -0.43455487
000180 42 7c a7 bf 4d 13 a1 bf d3 83 1d c0 36 6a 97 bf
       -1.3084795 -1.2584015 -2.461171 -1.1829288
000190 bf 3c 03 c0 e8 0d d9 be 30 2b ba bf c3 41 53 bf
       -2.0505826 -0.42393422 -1.454443 -0.8252222
0001a0 97 c1 81 be a1 01 8c bf 47 24 46 bf 1d 87 85 bf
       -0.2534301 -1.0937997 -0.77399105 -1.0431858
0001b0 8e 08 20 bf 0c e6 00 bf 45 fb 84 3e 19 57 71 be
       -0.62513053 -0.50351024 0.25972953 -0.23568381
0001c0 95 7a 02 bf cc 96 ad be 16 bb 62 bf e8 f9 df bf
       -0.50968295 -0.3390411 -0.8856672 -1.749814
0001d0 21 fe fc be 10 05 5c bf f3 a8 56 3f 7a b6 f9 bd
       -0.49412635 -0.85945225 0.83851546 -0.12193008
0001e0 33 a8 15 bf 6c 5a 46 bd 1d 04 b6 bd ec 9c ab bf
       -0.58459777 -0.048426077 -0.08887503 -1.3407264
0001f0 03 f0 fd bf 02 b6 02 3f 29 74 7d bf dd 82 20 bf
       -1.9838871 0.5105897 -0.9900537 -0.6269968
000200 7f 5e 01 bf 6f 98 67 bf b4 ea 09 bf c7 51 33 bf
       -0.50534815 -0.9046697 -0.53873754 -0.7004666
000210 8b 0f 92 be 3d e3 c4 bf b2 94 c3 3d 6f 47 a2 bd
       -0.28527483 -1.5381848 0.09549846 -0.07923781
000220 e6 99 a7 be 8d 5b d9 be 54 7a 10 be bd 6d 63 bf
       -0.32734603 -0.4245266 -0.14109164 -0.8883932
000230 b5 1f 33 bf 67 4f 13 be 76 71 75 bf 6e 68 2f bf
       -0.69970256 -0.14385758 -0.9587625 -0.6851872
000240 fd b8 11 bd 3b 4d 06 bf e1 50 6a bf ef 19 b8 be
       -0.03557681 -0.52461594 -0.9152966 -0.35957286
000250 a0 85 01 c0 94 f8 35 bf d9 40 f0 bf 58 f7 d8 bf
       -2.0237808 -0.71082425 -1.876979 -1.6950483
000260 83 41 c6 bd ac 60 a8 bc 88 2a 00 3e 23 9f 6f bf
       -0.09680464 -0.02055391 0.12516224 -0.936022
000270 fc 4f f0 bf 7f 10 26 3f d0 0a 15 be ad 5c a3 bf
       -1.8774409 0.6486892 -0.14554906 -1.2762657
000280 81 bd c3 bf a2 2b ed 3d 30 01 51 bf c9 1b f1 bd
       -1.5292207 0.11580588 -0.81642437 -0.11772878
000290 5b 12 1e be b1 d1 90 bf ad 7d a1 bf 8f ae 44 bf
       -0.1543669 -1.1313993 -1.2616478 -0.76828855
0002a0 90 19 07 bf 7f 5a c4 bf d4 50 ba bf 28 ab 86 bf
       -0.5277338 -1.5340117 -1.4555917 -1.0520983
0002b0 7b d2 33 bf 0c fa 12 c0 a3 5e 92 3d e3 87 64 bf
       -0.7024304 -2.2965117 0.07146957 -0.89269847
0002c0 8b ac ae bf f7 75 16 3f 7e ed 36 be 16 32 45 be
       -1.3646406 0.5877375 -0.17864034 -0.19257388
0002d0 ae 1a 21 bf 8e a1 c8 bf 73 fb ba bd 9f 5b 3b bf
       -0.62931335 -1.5674303 -0.091299914 -0.7318668
0002e0 85 21 c2 3e 1a c6 3a bf b0 ea a3 be 99 3d 75 3d
       0.37916198 -0.7295853 -0.3201499 0.059873197
0002f0 70 b5 86 bf 00 45 bb bf dd 2d ee bf 99 8f 3e bf
       -1.052412 -1.4630432 -1.8607746 -0.7443786
000300 1d a0 05 be cc 4d 18 bf c0 2c 77 3e f5 da e4 be
       -0.1304936 -0.5949371 0.24138165 -0.446983
000310 22 0e b2 bf b5 f6 32 bf 6b 6f 0c bf a0 f2 cf bf
       -1.3910563 -0.69907695 -0.5485751 -1.6245918
000320 1b 22 43 bf d3 cb e2 be bf 61 0b bf 1c 1f 0c bf
       -0.76223916 -0.4429613 -0.54446024 -0.5473497
000330 88 e9 7b be a7 6e c1 bf b8 e8 9c bf 2a f1 2c be
       -0.24600804 -1.5111893 -1.225852 -0.16888872
000340 86 34 9f bc 02 4b 21 bf 6d e2 76 bf 39 c0 bc 3e
       -0.019434225 -0.6300508 -0.9643925 0.36865404
000350 0c 1c 97 bf e5 33 56 be 50 22 9f 3d 58 ce 7a bf
       -1.1805434 -0.20918234 0.077702165 -0.97971106
000360 01 42 23 bf bb ee 0a bf e3 52 42 bf 5d 7a c4 bf
       -0.6377259 -0.54270524 -0.75907725 -1.5349842
000370 38 a2 16 be 8d 72 49 bf 4e 7a 87 bf 04 db 29 bf
       -0.14710319 -0.78690416 -1.05842 -0.66349816
000380 b5 8d bb bf 06 9e 25 bf 60 cc fb 3e b9 f1 d4 be
       -1.465262 -0.6469425 0.49179363 -0.4159067
000390 ed 9c 95 bf 15 71 06 c0 a4 7c e8 bf 7c c2 ac be
       -1.1688515 -2.100652 -1.8163037 -0.3374213
0003a0 fd e0 e9 be c8 1e 0f be 3d ef 62 bf 81 c5 4c bf
       -0.45679465 -0.13976586 -0.886463 -0.7998887
0003b0 80 40 86 3d 69 5e 26 bd 26 97 95 bd 75 66 bf bf
       0.06555271 -0.04061738 -0.0730422 -1.4953142
0003c0 ae 87 9e bf 75 da a9 bf c3 00 83 bd af 32 08 bf
       -1.2385156 -1.3269793 -0.0639663 -0.5320234
0003d0 92 6d 6b bf 5a 7d 10 c0 2d a4 bf bf a9 55 0e bf
       -0.91964066 -2.2576509 -1.4971977 -0.5559946
0003e0 1d d4 ae bf 4e 0e 9b bf 3f df 4c 3f d8 0e 7c 3f
       -1.3658482 -1.211374 0.80028147 0.9846015
0003f0 5b 43 eb be 62 8e 8f bf 0c c5 68 be 62 39 e3 bf
       -0.45949826 -1.1215327 -0.22731417 -1.7751887

fc3.weight f4 [31, 512]
000000 86 25 f5 3d 43 5a ad 3d d3 f2 60 3f 28 12 b0 3c
       0.11970048 0.08464482 0.8787052 0.021493033
000010 34 25 0f be 07 b0 90 bd 48 47 c4 3e 96 39 32 3e
       -0.13979036 -0.070648246 0.38335633 0.1740478
000020 85 5d 8d 3d b9 6c 82 be f2 55 20 3c 1d 1e e6 3e
       0.06902603 -0.25473574 0.009786116 0.4494485
000030 46 68 13 3e 9c ef ab 3d 68 0c 4f be 13 99 e2 bd
       0.14395246 0.08395311 -0.20219576 -0.11064353
000040 30 a6 62 be c4 69 1b 3e 15 d0 e9 3d ba 82 58 be
       -0.22133708 0.15177065 0.114166416 -0.21143618
000050 80 99 ce 3d a3 58 ce bd de fc ab 3d f8 34 a7 3e
       0.100878716 -0.100755 0.0839784 0.326576
000060 68 13 35 3e cc e9 d7 bd 67 e2 86 3e df b6 87 bd
       0.17683184 -0.1054264 0.26344606 -0.06626677
000070 91 83 3f 3f 46 fc 22 3e 48 d3 31 3e 5b 2f 04 3f
       0.7481013 0.15916547 0.17365754 0.5163476
000080 6f 03 8c 3e 37 82 3b be 10 1b 15 be c9 6c 52 3f
       0.2734637 -0.18311392 -0.14561105 0.8219724
000090 0f 67 12 3e 7a b4 0a 3e c4 39 68 3e 94 2f 91 bc
       0.14297126 0.13545409 0.22678286 -0.017722882
0000a0 c1 55 8c 3d fe cc 11 3e c7 cf cb 3e 1d 4e e8 bd
       0.06852294 0.14238355 0.3980696 -0.11343024
0000b0 94 4f 11 be a3 22 70 3e 1b e0 42 3e 3a fc 79 3d
       -0.14190513 0.23450713 0.19030802 0.061031558
0000c0 1b 9e 40 3e c8 41 2f 3e 0d 8a a1 3d 4f fa cd bd
       0.18810312 0.17114937 0.07887659 -0.10057508
0000d0 c6 76 6e be 66 df 76 bd cb 95 61 3e 1b 2f 9c bd
       -0.23287496 -0.060271643 0.22029798 -0.07626172
0000e0 a6 2c 84 3c f0 0e 2f 3c 52 0e e8 3e 14 21 b1 bd
       0.016134571 0.010684714 0.45323426 -0.08648887
0000f0 64 e6 3d 3f cb 5b 20 3f 78 bf 4b be 0b 8e 15 be
       0.74179673 0.62640065 -0.19897258 -0.14604966
000100 3b 4d 45 3e 25 e6 21 be 4c a1 82 bd ee a8 6c be
       0.19267742 -0.1581045 -0.06378421 -0.23111317
000110 8a 8d 49 3e 03 7d ca 3d 55 19 0c be f2 51 a4 bd
       0.19682899 0.09887125 -0.13681538 -0.08023442
000120 90 dd 5d 3e d6 4d 83 bd b6 ec 2d 3e a2 e5 63 be
       0.2166655 -0.064113304 0.1698483 -0.22255567
000130 7b 10 9d 3e bb bc 79 bd b5 af 1e be 7b 3f fb 3c
       0.30676636 -0.060971003 -0.15496714 0.030669918
000140 25 63 ab bd 5d c3 66 3e 70 25 a3 bd 8c 17 2d be
       -0.0836852 0.22535463 -0.07966125 -0.16903514
000150 7c 23 cc 3d 33 1c 60 3e a0 ea 1d 3e fd 19 bb bd
       0.099677056 0.21885757 0.15421534 -0.09135816
000160 d9 f6 cb 3e bd b1 39 3e 46 e9 5c 3e 45 ee ec 3d
       0.39836767 0.18134208 0.21573362 0.11568884
000170 94 55 7d bd fa 35 b4 bd de 07 ed 3e a7 b5 28 be
       -0.06184919 -0.08799358 0.46295065 -0.16475545
000180 10 7d 09 be 2d 75 8b 3e 3e c3 9f bd 58 67 5f be
       -0.13426614 0.27237836 -0.07800911 -0.21816766
000190 c3 9d cd 3e ea c3 b1 bd d4 6e 97 be df d3 01 3f
       0.40159425 -0.08679946 -0.29576743 0.50713915
0001a0 31 e3 16 be 3e e8 14 3e 8d 69 90 bd a7 1b 10 3e
       -0.14735104 0.14541718 -0.07051382 0.14073049
0001b0 54 1b 02 3f f6 2d 8a bd c7 36 81 bd 60 b6 ef 3c
       0.5082295 -0.067470476 -0.06309276 0.029261768
0001c0 72 9a 20 3d 3a cc d8 3d 09 4f 5b 3e 5e 3b 71 3e
       0.03920979 0.10585828 0.21416868 0.23557803
0001d0 43 82 17 be 46 3a 21 be 4b c5 3d bd 39 21 9d bc
       -0.14795785 -0.15744886 -0.04633073 -0.01918088
0001e0 56 63 49 3c 8e 3e 7b 3d 46 37 11 be ff 7f a9 3d
       0.01229175 0.061338954 -0.14181241 0.082763664
0001f0 5c d2 7d bd ce 77 0b be 2c 33 96 3e 6b ab 9c 3d
       -0.061968192 -0.1361992 0.29335916 0.07649883
000200 17 d4 9c bd 70 66 60 3e fa 3e 93 3d 8e a7 9b bd
       -0.076576404 0.21914077 0.07189746 -0.07600318
000210 ce e0 c4 3c a1 6a 00 3f ba 13 11 be a2 6b 73 3c
       0.024032976 0.501627 -0.14167681 0.014857205
000220 ed b1 76 bc 46 cd 35 be d9 e8 ea 3a 09 91 ae 3e
       -0.015057069 -0.17754087 0.0017922177 0.34095028
000230 61 32 eb 3d ef 4e 43 3d c7 7c 2f 3e 17 5d 29 be
       0.114842184 0.0476827 0.17137443 -0.16539417
000240 8f 73 b8 3b dd af 70 3e b5 dc 15 be c5 b6 2d 3e
       0.00562901 0.23504587 -0.14634974 0.16964252
000250 c7 f0 4b be d7 e2 21 3e d4 18 8e 3e 59 0f 6e 3f
       -0.19916068 0.15809189 0.27753317 0.9299217
000260 c7 5c 94 3d 6b 32 a9 3d fd 4f ad bd 52 ff 2a 3e
       0.072442584 0.082615696 -0.08462522 0.1669896
000270 bc 97 02 be 3e f9 14 3d 47 7d 83 3d 47 85 1b be
       -0.12753195 0.03637051 0.06420379 -0.1518756
000280 51 bf c0 be d8 1d c2 bd 36 0b 56 3e 2b d9 3e bd
       -0.37645963 -0.094783485 0.20902714 -0.046593826
000290 d2 ea b9 bd 4a b9 36 3e 82 47 28 3e 26 b2 bc bd
       -0.090779915 0.1784412 0.16433528 -0.092136666
0002a0 2b 18 58 3e c3 45 31 3e 62 52 20 3f 1e 5e 38 3e
       0.2110297 0.17311768 0.62625706 0.18004653
0002b0 80 06 0e 3e 23 83 63 3d 26 35 f9 bd f5 72 10 3f
       0.13869667 0.055544984 -0.121683404 0.5642541
0002c0 ad db 2b be da 84 ec bd 8f 13 4c 3e a6 cc 8f be
       -0.16783018 -0.11548777 0.19929336 -0.28085822
0002d0 05 68 71 3e 31 c3 8b be eb 54 d5 bc ae e5 9f 3e
       0.23574837 -0.27297357 -0.026041469 0.3122992
0002e0 3a 46 69 be 66 50 fb 3d c6 c5 9d 3d 53 02 4b 3e
       -0.22780696 0.12271194 0.07703738 0.19825105
0002f0 fd d5 a2 be 16 5e 91 3e 58 43 1d 3e 33 62 26 3c
       -0.31803885 0.28392094 0.15357721 0.010155248
000300 b4 72 ec 3c f1 f2 90 3d 86 9f a8 bd ea c9 47 3c
       0.028863288 0.070775874 -0.08233552 0.012194136
000310 1d 69 fe 3e a5 bf d1 3d 0e 24 22 be 7d 49 ba be
       0.4968957 0.102416314 -0.15834066 -0.36384192
000320 95 23 89 be b7 e8 21 3e 32 c2 5a 3e 34 4e 08 be
       -0.2678496 0.1581143 0.21363142 -0.13311082
000330 01 a9 a3 3d ba 18 74 3d 74 44 b7 bd ab 80 d4 bd
       0.07991219 0.059593894 -0.08948603 -0.10376104
000340 01 1a 50 3e 0a bc e3 bd f2 3b 23 be cd 22 d6 3d
       0.2032242 -0.1111985 -0.15940836 0.104558565
000350 ec 24 30 be af 04 09 3e 46 86 a6 3d ca 93 0a 3e
       -0.17201585 0.13380693 0.081310794 0.1353294
000360 91 75 94 3e e9 a8 c0 3e 7c f9 30 be a2 d8 88 be
       0.28995946 0.37628868 -0.1728267 -0.26727778
000370 78 82 10 be fd 6f 98 bc db 7f 97 be 81 2f e1 3d
       -0.1411227 -0.018608088 -0.29589733 0.10995389
000380 bc 02 b2 bc 79 d2 33 3f f5 33 08 be 06 c1 4e 3e
       -0.02172982 0.7024303 -0.1330107 0.2019082
000390 e6 96 15 3f 95 41 34 3e 5f f3 f7 3d ac 62 49 be
       0.5843338 0.17603143 0.12106966 -0.19666547
0003a0 b0 14 40 3e d6 65 1c bc 3f 38 f9 3e 75 6a 06 3e
       0.18757892 -0.009545764 0.48675725 0.13126548
0003b0 05 82 f5 3d 93 5c 03 3d fe 3c 8b bd ee 8c 97 3f
       0.1198769 0.032070708 -0.06798743 1.1839883
0003c0 32 84 18 3d f6 c4 37 be a9 a3 95 3e 8d b0 c2 3e
       0.037235446 -0.17946228 0.29226425 0.38025323
0003d0 5a 29 00 3e f2 92 3d 3c 7b 04 dc 3e d8 e0 dc 3d
       0.12515774 0.011570679 0.42972168 0.10785073
0003e0 23 56 4e be db 22 15 bd a1 07 68 bd fa ca b0 bd
       -0.20150046 -0.036410194 -0.0566479 -0.08632465
0003f0 42 ba 8d bd fd 96 ff bd ec 9a f9 3d 75 88 26 3f
       -0.069202915 -0.124799706 0.12187752 0.65051967

fc3.bias f4 [31]
000000 22 95 43 3f 6c d2 86 bf 6b 38 0e bf 64 47 ea 3f
       0.76399434 -1.0532966 -0.55554837 1.8303037
000010 49 56 5d 3d 3a 19 53 c0 59 ed 0c 40 81 b7 cd be
       0.054037366 -3.2984147 2.2019866 -0.40179065
000020 7c 11 63 bf 09 85 8c 3d c3 37 47 3d 03 02 d9 bf
       -0.88698554 0.06861312 0.048637163 -1.6953739
000030 3f ba 1a 38 ba f4 a6 be ee 82 04 40 fd f6 8c be
       3.6889916e-05 -0.32608587 2.0704913 -0.27532187
000040 a3 e7 89 3e 1d 0a c2 bf 93 f3 2e bf 20 f5 e4 3e
       0.26934537 -1.5159336 -0.68340415 0.44718266
000050 29 ca e5 3d 78 f2 15 40 74 38 06 3e 7c ae 79 be
       0.112201996 2.342924 0.13107473 -0.24382967
000060 ab 35 ef 3b 06 d5 dc 3e 13 7d 76 c0 63 6c b8 3e
       0.007300099 0.43131274 -3.851384 0.36020193
000070 5b a8 44 bf f7 f0 eb 3f d2 a0 79 c0
       -0.7681939 1.8432912 -3.9004407
