VG_dataset/ckn/CKN+EPBS.pt (torch, 828503 bytes, 6 tensors)

fc1.weight f4 [256, 190]
000000 47 c7 aa bf ec 4d cc be 19 10 48 bf 05 2a af bf
       -1.3342065 -0.399032 -0.78149563 -1.3684698
000010 15 ab c0 bd 94 3e 4f c0 e4 70 76 bf 1e d8 3a bf
       -0.09407631 -3.2381945 -0.9626601 -0.7298602
000020 fd 9f 46 bf 16 f9 a0 bf 33 b9 cf bf 60 19 0d c0
       -0.7758787 -1.2576015 -1.6228393 -2.2046738
000030 43 89 00 c0 c8 1b cf 3e 0c 9c be 3e d9 46 ff bf
       -2.0083778 0.40450883 0.3722843 -1.9943496
000040 eb 10 65 bf 4e 1d 9e 3f 69 f9 6a 3e 4b e1 a0 bd
       -0.8947894 1.2352693 0.22946705 -0.07855471
000050 4f a6 33 be 04 74 df 3e 04 91 6b be a1 6c af 3f
       -0.1754391 0.436432 -0.23004538 1.3705026
000060 04 d2 d9 bd a9 11 df 3d c7 02 61 3f 7a 48 1f bf
       -0.106357604 0.1089204 0.8789486 -0.62219965
000070 30 9e 1d bf 09 1b 80 3f 3c 2b cf be 1a d0 93 be
       -0.615695 1.000825 -0.40462673 -0.28869706
000080 7e e8 9b bf 3b 65 7e bf 1c da f0 3e 54 83 c0 bf
       -1.2180326 -0.99373215 0.47041404 -1.5040078
000090 7d b9 be be fe 17 c3 3e db 01 8d bf d7 c4 8e be
       -0.3725089 0.38104242 -1.1016191 -0.27884552
0000a0 a7 47 00 c0 77 f7 c8 bf 25 3a 04 3f 8a 15 24 3f
       -2.0043733 -1.570052 0.5165122 0.64095366
0000b0 bf f1 ce 3f a1 fe e2 3f 30 bf 1e 3f 0e 8f 06 bf
       1.6167525 1.7733957 0.6201048 -0.52562034
0000c0 07 7f 8b be 4f 6c 07 40 e9 13 9e be 2a e7 8f be
       -0.27245352 2.1159856 -0.30874565 -0.28106052
0000d0 ba 30 43 bd a8 d4 08 be ea d4 ec 3c 70 3c bf bd
       -0.04765389 -0.13362372 0.02891012 -0.093376994
0000e0 48 b6 42 be 0d 60 a3 be 34 28 b7 3d 5e 98 74 bd
       -0.19014847 -0.31909218 0.08943215 -0.05971562
0000f0 f1 78 00 3e 37 04 ac bd bc 1a 75 be 54 bf a1 be
       0.12546135 -0.083992414 -0.2393598 -0.31591284
000100 0f 84 10 3c fa 58 83 bd 97 e3 10 3b 03 a9 1e 3c
       0.008820548 -0.06413455 0.002210831 0.00968385
000110 95 79 83 be 50 36 ac be cd 58 2b 3d 6e 52 cf bd
       -0.25678697 -0.33635187 0.041832734 -0.10123144
000120 99 1c 65 3d c7 e3 cd bd 10 28 68 be e9 e8 87 be
       0.055935476 -0.10053211 -0.22671533 -0.26544884
000130 f8 54 55 bd 74 73 12 bd 6c 3e bc 3d 84 14 03 bd
       -0.052082986 -0.035754636 0.091915935 -0.032001987
000140 08 b7 35 3f d2 68 9b bf dd 64 d4 3f 1a 47 94 be
       0.7098241 -1.2141364 1.6593281 -0.28960496
000150 02 31 a9 be 03 84 3f 40 14 28 ea 3f eb f0 82 be
       -0.33045202 2.9924324 1.8293481 -0.2557443
000160 9f 04 20 3f 25 4e fa 3d f1 e5 c9 3f fe 3b 18 3f
       0.6250705 0.12221936 1.5773298 0.5946654
000170 20 23 22 c0 c1 44 18 bf c8 24 65 c0 b4 44 b4 3f
       -2.5333939 -0.5947991 -3.58037 1.4083467
000180 83 75 5b bf c2 33 88 bf dc f4 ae 3f 9e 95 b8 bf
       -0.85726184 -1.0640795 1.3668475 -1.442066
000190 d8 c0 ae bf d8 de ab bf 68 ca 09 bf bd 19 a3 bf
       -1.3652601 -1.3427382 -0.5382447 -1.274223
0001a0 73 e0 fb bf 2b ee f3 3d 2f 43 c3 bf ce 7a a5 3e
       -1.9677871 0.11910661 -1.5254878 0.32320255
0001b0 a8 9c 87 bf d5 0b 0c c0 e9 9c 9c be 48 a0 07 40
       -1.0594683 -2.1882222 -0.30588463 2.1191578
0001c0 bb 36 52 3f 80 0d 9a bf d1 30 81 3e b1 bd 82 3f
       0.8211476 -1.203537 0.25232556 1.0214139
0001d0 79 e1 c4 bc 04 b0 cb 3f 55 2b bb 3f 1c c4 38 bf
       -0.024033295 1.5913091 1.4622599 -0.7217424
0001e0 dc 69 8a 3f 8d 5a b9 3e 8c 02 ee bf 3d de ef bf
       1.0813556 0.36201897 -1.8594527 -1.8739697
0001f0 e2 04 80 bf 4c 52 d0 3d a7 06 3a 3f da 3a 63 bf
       -1.000149 0.10171947 0.726664 -0.88761675
000200 8d e5 00 c0 aa a7 18 c0 01 cf a2 be 0c 97 c5 be
       -2.0140107 -2.3852334 -0.31798556 -0.38591802
000210 62 80 2e bd 98 d6 e3 ba 22 ac 0d bd bb 22 2e be
       -0.042602904 -0.001738268 -0.034587987 -0.17005436
000220 22 2e 98 be f5 28 d5 be 36 30 b1 3d 05 aa 07 3e
       -0.29722697 -0.4163281 0.08651774 0.13248451
000230 5a 9a 69 bc 8b a3 0e be 62 0f 99 be 2b 7f d0 be
       -0.014257992 -0.13929574 -0.2989455 -0.4072202
000240 6e 8d 3b bd c7 2b f4 3d d8 c4 d2 bd 47 08 d8 bd
       -0.045789175 0.11922412 -0.10291451 -0.10548454
000250 ec 46 9c be e1 9d c0 be 69 50 59 3d 2a 64 07 3e
       -0.3052286 -0.37620452 0.0530552 0.13221803
000260 9f 5f 66 bd 1a de 85 bd 05 58 d3 be a5 d9 e9 be
       -0.056243535 -0.06536503 -0.4127809 -0.45673862
000270 bd c3 9a 3d 53 af d1 3d 26 96 ac bd e6 ac 06 be
       0.07556865 0.102385186 -0.08427076 -0.13151893
000280 6f 86 1d be d8 bf 4e be c2 0b b0 3d 91 0a 8c 3c
       -0.15383314 -0.2019037 0.085959926 0.017094882
000290 60 5f e0 38 9d 82 53 be 27 ce ea bd 48 a1 12 be
       0.00010698917 -0.20655294 -0.11465102 -0.14319336
0002a0 66 fc 03 bd 5b 67 88 3c 19 bf 07 bd cb 3b c1 bd
       -0.032223128 0.016650846 -0.03314123 -0.09435233
0002b0 0a 80 f4 bd 6b b6 c7 bd af d6 91 3d d3 76 51 bd
       -0.11938484 -0.0975159 0.07121026 -0.05113871
0002c0 53 4d e5 bd 9c db 55 be c9 60 81 be b6 02 b2 bd
       -0.11196389 -0.20884556 -0.25269154 -0.08691923
0002d0 1b 0c 1d 3b ba 9e f1 bc 78 da e5 bd d7 d6 08 be
       0.0023963514 -0.029494632 -0.1122331 -0.13363205
0002e0 77 d2 14 be aa 38 3f be 68 76 20 3d d5 01 70 bd
       -0.14533411 -0.1867396 0.03917542 -0.058595497
0002f0 6b e7 b9 bd 66 30 3b be 6c 96 c9 bf f5 52 20 bf
       -0.090773426 -0.18280181 -1.574903 -0.6262658
000300 6e cf 8a bf 23 bf 54 3f 9a ad 22 c0 08 82 82 be
       -1.0844553 0.8310415 -2.5418458 -0.2548983
000310 5f 41 b4 3e f2 6a 99 be c0 ed ae 3f 76 90 98 bf
       0.35206124 -0.29964405 1.3666306 -1.1919086
000320 d0 8f 8a 3f ae e4 6f be 0d 73 b4 bf 36 78 56 3e
       1.0825138 -0.23427078 -1.4097611 0.20944294
000330 62 c0 36 bf 98 84 b9 3f cd de 1a bf f3 f4 7d 3e
       -0.713873 1.4493589 -0.60496217 0.24800472
000340 be 0e 08 bf 0f e2 e8 3d 62 b3 a2 bf b0 fb 6f bf
       -0.53147495 0.11371242 -1.2710993 -0.9374342
000350 e6 25 12 c0 a4 03 8b bc 88 49 f0 bf cd db f6 3d
       -2.2835631 -0.01696951 -1.877244 0.120536424
000360 22 6b 22 bf d1 4a 2a 3f 34 44 c1 bf 81 7d 6c be
       -0.6344472 0.6652041 -1.5098939 -0.23094751
000370 25 e8 4e bf 9c d0 d5 3f 95 41 1e be 3f ed 80 3f
       -0.80822974 1.6704288 -0.15454705 1.0072402
000380 2c 74 f7 bf 8d ad 87 3f f2 18 61 3f b7 33 70 bf
       -1.9332328 1.0599838 0.8792869 -0.9382891
000390 f5 54 15 40 a1 92 6a bd df 8e de bf 9f c3 b9 3f
       2.3333104 -0.057268742 -1.7387351 1.4512824
0003a0 53 2b a2 3e 7d 8f 8a 3e b6 f0 7a be fe dd 17 3e
       0.3167368 0.27062598 -0.24505886 0.14830777
0003b0 a8 e4 14 bf ef 06 ba 3e 59 8a c2 3f 55 d0 e4 3e
       -0.581614 0.36333415 1.519847 0.44690195
0003c0 54 64 ee bd 87 96 a3 be ad d4 3a 3e 91 5f 5d 3e
       -0.1164023 -0.3195078 0.18245192 0.21618487
0003d0 99 d7 6d 3d 5b a1 a7 3d 90 2c ed bd c7 12 af be
       0.058066938 0.08185073 -0.11580765 -0.34194013
0003e0 82 d5 5a 3e c7 00 88 3e 38 6f 00 3e a6 c2 f5 3d
       0.2137051 0.26563093 0.12542427 0.12000017
0003f0 36 a9 24 be a2 c4 81 be b8 9e 69 3e 36 fb 64 3e
       -0.16080174 -0.2534533 0.22814453 0.22361454

fc1.bias f4 [256]
000000 c9 55 27 bf f9 b5 2a c0 5a 4d 06 c0 b1 d1 d0 bf
       -0.6536527 -2.6673567 -2.0984712 -1.6313993
000010 81 38 45 c0 ae d0 a4 bf a4 a0 88 40 14 64 76 bf
       -3.0815737 -1.2876184 4.2696095 -0.9624646
000020 a2 bf 80 bf 15 bc 84 c0 7d 01 85 c0 a8 ea 33 c0
       -1.0058482 -4.147959 -4.1564317 -2.8111973
000030 65 5d 1c c0 2c ea 27 be c3 44 16 c0 19 81 37 c0
       -2.4432003 -0.16397923 -2.347947 -2.8672545
000040 50 95 12 c0 95 2b b1 3e ec 55 19 c0 aa 90 3c bf
       -2.2903633 0.34603563 -2.3958693 -0.7365824
000050 ea c7 aa be 81 0a 02 bf 05 7b 03 c0 f6 22 2c c0
       -0.33355647 -0.5079728 -2.0543835 -2.6896338
000060 c4 fe fd bf 04 cc 80 bf f2 10 39 c0 a9 61 ae 3f
       -1.9843373 -1.0062261 -2.8916593 1.3623554
000070 79 65 12 c0 0f 9c 2a c0 54 95 16 c0 5f 3a 09 3f
       -2.2874434 -2.665775 -2.3528643 0.5360469
000080 a2 3e 98 c0 ff 40 47 c0 cd 21 1c c0 80 34 dd be
       -4.7576456 -3.113342 -2.439563 -0.43204117
000090 3e 5f 5d bf d3 fe ca bf b7 74 01 c0 38 27 8c be
       -0.86473453 -1.5859016 -2.0227487 -0.27373672
0000a0 58 14 f9 bf 05 0d 71 bf 67 79 fe bf d9 39 80 bf
       -1.9459333 -0.9416049 -1.9880799 -1.0017654
0000b0 70 4d 62 c0 18 84 17 bf 81 55 4b c0 73 c8 e2 be
       -3.5359764 -0.59185934 -3.1770937 -0.44293556
0000c0 3b ca cb bf 7e 4a f2 bd 42 e9 d7 bf 7d 93 0d c0
       -1.5921091 -0.118306145 -1.686806 -2.212127
0000d0 64 25 35 c0 e6 ef 57 c0 95 f2 4a be 07 4c 7e be
       -2.8304071 -3.3740172 -0.198191 -0.2483369
0000e0 2d 30 e0 bd 6c 98 6d bf 1b 17 e9 bf 8e 60 30 c0
       -0.10946689 -0.928107 -1.8210176 -2.7558932
0000f0 0a 9f 2f bf 61 d5 0c 41 9a 09 0d c0 4e d3 b2 bf
       -0.6860205 8.802094 -2.203711 -1.3970735
000100 c3 e0 1c c0 7a 2d 21 3f 6e 46 e6 bf 41 7e 40 c0
       -2.4512184 0.62960017 -1.7990243 -3.007706
000110 f7 da 80 c0 fe 6b 43 c0 1d b7 59 c0 6f 82 9f bf
       -4.026729 -3.0534663 -3.4018013 -1.246168
000120 26 a1 c0 bd b8 51 3c c0 a4 06 f2 bf 93 32 cd bf
       -0.094057366 -2.9424877 -1.8908277 -1.6031059
000130 36 44 36 c0 77 6b d4 bf 88 59 ba 3f 23 4a 25 c0
       -2.8479133 -1.6595296 1.4558573 -2.58265
000140 cc 64 40 bf fd bf 37 bf 02 b8 17 c0 0b 57 e5 3f
       -0.75153804 -0.71777326 -2.370606 1.7917188
000150 18 b6 90 bf b3 53 5e c0 83 be f9 bf dc 53 f8 bf
       -1.1305571 -3.4738586 -1.9511265 -1.9400592
000160 1f 66 58 c0 fd 56 5b c0 89 b4 0f c0 a6 af ff 3e
       -3.381233 -3.4271843 -2.245394 0.49938697
000170 54 b0 27 bf 97 0c 0c c0 c3 71 5b 3d 9d 24 d3 bf
       -0.6550343 -2.1882684 0.05357529 -1.6495548
000180 61 ad 17 c0 e7 82 c5 bf 11 ec 38 c0 c2 32 8c c0
       -2.3699572 -1.5430573 -2.8894083 -4.381196
000190 87 94 8e bf 12 10 7a 3d 15 91 a2 be b1 df cd bf
       -1.1139077 0.061050482 -0.31751314 -1.608389
0001a0 7a be 24 c0 8b 80 14 3f 0f f9 2b c0 07 dd 3e c0
       -2.5741258 0.5800864 -2.6870763 -2.9822404
0001b0 17 74 95 bf 41 df 95 be 6c c8 4b bf a1 b6 1f 40
       -1.1676053 -0.29271892 -0.79602695 2.4955218
0001c0 7a a0 85 be 22 39 22 c0 6d 60 94 bf 96 4b 4a bd
       -0.26098996 -2.534737 -1.1591927 -0.04938849
0001d0 c0 f9 28 c0 22 6a e6 bd 6b 39 09 c0 c5 6d b4 bf
       -2.6402435 -0.11250712 -2.1441295 -1.4095999
0001e0 b2 c8 80 3e 3c 20 73 c0 fb 03 76 bf 63 88 64 3f
       0.25153118 -3.7988424 -0.96099824 0.8927061
0001f0 6d 39 23 c0 7f 0a 4d bf 94 1a 12 c0 9b af 48 c0
       -2.55038 -0.8009414 -2.2828722 -3.135718
000200 aa a7 bb bf 16 f9 db bf 8b 71 13 c0 9a 92 46 c0
       -1.4660542 -1.718539 -2.303805 -3.1026978
000210 f2 29 e5 bf 61 b9 57 c0 f7 30 5d bf 44 28 7a 3f
       -1.7903426 -3.3706896 -0.8640284 0.9771769
000220 34 64 90 bd c6 95 88 3e 1f 18 ba bf 0f 18 7a be
       -0.07050362 0.26676768 -1.4538611 -0.2442324
000230 9b 9e a1 bf e8 17 e3 bf 0f c8 e2 bf 60 03 08 42
       -1.2626528 -1.7741671 -1.7717303 34.003296
000240 0e ee b9 bf ba 7a f5 bf e2 b1 d4 3a 2d ae 60 c0
       -1.4525774 -1.9178078 0.001622733 -3.5106308
000250 b6 cb 27 bf 95 2c 19 c0 b7 12 91 bf 48 00 23 be
       -0.65545213 -2.393346 -1.1333836 -0.15918076
000260 5b 89 48 c0 b1 92 9f bf 2b 75 3f 3e ba f2 1d bf
       -3.1333835 -1.2466642 0.1869704 -0.61698496
000270 0c 2b 85 bf c9 71 f5 bf ce fd 12 40 18 e6 0e c0
       -1.0403762 -1.917535 2.296741 -2.2327938
000280 06 a0 29 c0 ab ff fa bf ae 09 73 bf 59 b1 06 c0
       -2.650392 -1.9609274 -0.94936645 -2.1045744
000290 b4 31 a8 bf b1 01 fd 3b 95 14 58 bf ca ad 8e bf
       -1.3140168 0.007721149 -0.84406406 -1.1146786
0002a0 76 e4 e4 be ba 4e c2 bf 8e 85 be bf e6 6d 01 c0
       -0.44705552 -1.5180275 -1.4884508 -2.0223327
0002b0 74 7d c5 bf ab 92 39 40 e1 8d 67 c0 23 5d 6e c0
       -1.542891 2.899577 -3.6180346 -3.7244346
0002c0 2e a7 c2 be e8 c9 2d bf a6 2b a5 bd 49 53 fc bf
       -0.38018173 -0.6788621 -0.08064966 -1.9712917
0002d0 c8 0b f2 bf 86 02 ce bf 68 b2 6f c0 5e d2 ee bf
       -1.8909845 -1.609452 -3.745264 -1.8657949
0002e0 e1 66 c5 bf 6d 53 19 40 fe 57 f7 bd 0a 92 e2 be
       -1.5422021 2.395717 -0.1207733 -0.44252044
0002f0 23 f8 98 bf 27 93 cb bf 99 f4 d5 bf f9 80 90 bf
       -1.1950725 -1.5904282 -1.671527 -1.1289359
000300 fc b3 06 c0 a8 24 c8 bd 75 87 d9 3d 48 e3 3c c1
       -2.1047354 -0.097726166 0.106215395 -11.805489
000310 d2 b7 b3 bf 55 b0 67 bf 37 96 b3 bf 0f 70 0a c0
       -1.4040473 -0.90503436 -1.4030217 -2.1630895
000320 b4 c6 9e bf fb 19 4f 3f 7b 1e 87 bf f4 d3 81 bf
       -1.2404389 0.8089902 -1.0556177 -1.0142808
000330 4d e7 24 c0 5c 49 a2 bd 20 31 15 c0 06 39 2f c0
       -2.5766175 -0.079241484 -2.3311234 -2.7378554
000340 c8 81 9a c0 ff 7a 22 3f 8b 2c 3a c0 f2 25 7a c0
       -4.8283424 0.6346893 -2.9089687 -3.908566
000350 f8 2d 14 c0 8a 89 43 bd 30 cc 85 c0 1c 73 b5 bf
       -2.3153057 -0.04773859 -4.181175 -1.4175754
000360 0b 2a 94 c0 9d be a8 bf 8b a6 22 c0 da c3 df be
       -4.630132 -1.318317 -2.541415 -0.4370411
000370 09 09 49 c0 22 a8 a0 bf 8f c6 af bf f0 1f c0 bf
       -3.1411765 -1.255131 -1.373247 -1.5009747
000380 ee 3c e7 bf b3 81 1d c0 d0 72 01 3f 1a 8d 25 c0
       -1.8065469 -2.4610412 0.50565815 -2.5867372
000390 35 d6 ac bd e5 09 da 3f fb 26 03 40 0a c8 ec bf
       -0.08439294 1.703427 2.0492542 -1.8498547
0003a0 0c 63 bf bf 86 32 4b c0 90 df c5 bf d3 0d 19 c0
       -1.4952102 -3.1749587 -1.5458851 -2.3914688
0003b0 ac 6d 56 c0 1d 2c 94 bf 7d ff ae 3f 60 d6 0e c0
       -3.3504438 -1.1575962 1.3671719 -2.2318344
0003c0 7e a2 a7 3e 06 46 c3 bf 8e 63 8a bf f1 d3 51 bf
       0.3274116 -1.5255744 -1.0811632 -0.8196402
0003d0 54 e6 c6 bf 3f 02 14 c0 63 48 29 c0 bb 72 6b c0
       -1.553904 -2.312637 -2.6450431 -3.6788776
0003e0 64 a9 38 c0 9a 55 66 bf 68 46 d9 be 41 e1 34 c0
       -2.8853388 -0.8997437 -0.42436528 -2.8262484
0003f0 b4 c0 1e c0 e3 53 fc bf 79 68 14 c0 91 46 46 c0
       -2.4805117 -1.97131 -2.3188765 -3.098057

fc2.weight f4 [512, 256]
000000 ee dd d2 bf 74 86 86 be 3a c0 18 40 05 f5 0f c0
       -1.6473978 -0.26274455 2.3867326 -2.2493298
000010 a5 af e3 3e 33 46 11 c0 7c 5c f3 be 2e f7 70 c0
       0.44469944 -2.2699096 -0.47531497 -3.7650867
000020 31 ec 21 40 0d ad 38 3e ea 15 73 3f 09 a3 ab 3f
       2.530041 0.18034764 0.94955313 1.3409129
000030 6d c6 32 40 71 71 06 be f9 f9 66 40 a7 81 56 c0
       2.793361 -0.13129212 3.6090071 -3.3516634
000040 a8 97 91 bf df 5a 7e 3f 40 6d de 3f 59 60 1b bf
       -1.1374407 0.9935741 1.737709 -0.6069389
000050 9c 0a f1 3f db f5 22 3f cc 58 0d 3f 13 72 82 3f
       1.8831363 0.63656396 0.5521362 1.0191063
000060 4b 01 70 40 42 49 bf be b7 29 92 3f 4b 91 51 3f
       3.750079 -0.3736058 1.141898 0.81862324
000070 0c 03 89 bf 0b 57 0f 40 14 6e 1f 40 33 bd a9 bf
       -1.0704055 2.2396877 2.4910936 -1.3260864
000080 f0 61 a1 3f b3 49 82 3f ab a0 68 3f 45 32 a3 3d
       1.2608013 1.0178741 0.9087016 0.079685725
000090 3d ea f5 3e 58 37 e2 3f 8b 78 06 3f 46 7d b4 3e
       0.48030272 1.767314 0.52527684 0.35251826
0000a0 c9 d0 b3 3d 0d 01 ae 3f b7 5d d7 3e 28 ad 17 c0
       0.08780057 1.3594071 0.42063686 -2.3699436
0000b0 68 89 cf 3f f6 ac f2 bf f0 4f 4a 40 aa 85 84 c0
       1.6213808 -1.8959033 3.161129 -4.1413164
0000c0 bd ea 75 c0 a0 a6 b3 3d 5b f3 69 3f 7e de 09 40
       -3.8424523 0.087720156 0.91386956 2.1542048
0000d0 99 eb c8 3f fe 6a e4 3f c5 bf 8d 3f b8 69 0c 3f
       1.5696899 1.7845151 1.1074148 0.54848814
0000e0 b3 1e 28 3f 9d b0 86 3f e6 14 60 3e 93 fb fe 3f
       0.65671843 1.0522648 0.21882972 1.9920524
0000f0 a7 e2 fe be 8d 86 89 be 9a 3f 84 be df e6 25 c0
       -0.49782297 -0.26860467 -0.25829774 -2.5922163
000100 14 89 24 40 98 47 c9 be 2a 4a 6e 3f eb 9c 96 3f
       2.5708666 -0.39312434 0.93081915 1.1766638
000110 64 4f 60 c0 d6 2c cc 40 0d 7d 62 be 9a 86 92 bf
       -3.5048456 6.380473 -0.22118016 -1.1447327
000120 79 5b 6d 3e a3 c4 f8 bf 58 c4 2a 3e f3 1c 9f 40
       0.23179425 -1.9435009 0.16676462 4.972284
000130 05 8b ec 3f 85 b4 75 3f 65 89 bd bf 71 d9 87 bf
       1.8479925 0.95978576 -1.4807554 -1.0613233
000140 72 96 b4 3f 51 79 8e be 68 21 7f bd 36 08 8c 3d
       1.4108412 -0.27826932 -0.062287718 0.068375036
000150 34 a1 8e 3f a3 fd b1 3f eb 61 d9 3f 2b cf 80 3f
       1.1142945 1.3905529 1.6983007 1.0063223
000160 64 3f 74 bf d6 c7 a5 3f ea 73 b2 3f fa 19 96 3f
       -0.95409226 1.295161 1.3941624 1.1726677
000170 1e a0 0a 40 96 1e 7c 40 cf fd 59 be be d5 03 40
       2.1660228 3.9393668 -0.21288227 2.0599208
000180 51 1d f7 3f fd 5c 04 c0 16 49 5e bf ed a3 fc bf
       1.9305822 -2.0681756 -0.8683027 -1.9737526
000190 fd 2a 93 3e 26 12 81 be da e3 27 be 63 10 91 3f
       0.28743735 -0.2520916 -0.16395512 1.1333126
0001a0 e3 19 38 bf d4 36 04 bf c3 c2 04 40 a9 8d 55 c0
       -0.719145 -0.5164616 2.0743873 -3.3367712
0001b0 4b 1b 9c bf 16 6e 1e bf 9c b8 d9 be 1f 68 e6 3e
       -1.2195829 -0.6188673 -0.42523658 0.45001313
0001c0 e4 50 50 bf 21 3a 99 3f 8e c2 fe bc 0a 22 19 be
       -0.8137343 1.1970865 -0.03109863 -0.14954391
0001d0 43 b7 70 3f 2f d7 0e 3f d6 71 24 3e 9b 31 d6 3f
       0.94029635 0.55797094 0.1605905 1.6733888
0001e0 b3 08 68 3f 13 bc cb 3f aa a2 05 bd cd a5 a3 3e
       0.90638274 1.5916771 -0.03262583 0.31962433
0001f0 d8 17 1e 40 3c 5b 23 c0 98 aa 1f 40 00 fe 20 40
       2.4702053 -2.5524435 2.4947872 2.515503
000200 19 c0 82 c0 ee 2f 63 bf fa d5 82 3f 7b ac db 3f
       -4.0859494 -0.8874501 1.022155 1.7162012
000210 8d 27 22 bf 72 56 35 40 5f 32 de bf 48 67 92 3e
       -0.633416 2.8334012 -1.7359122 0.28594422
000220 5d 9e c1 3c 7d 0d ed 3f 6c c4 d8 be 1a 2e e7 3e
       0.023635084 1.8519741 -0.42337358 0.4515236
000230 b9 a5 e5 c0 b1 b1 60 be 66 5c 95 40 25 95 95 be
       -7.17648 -0.21942784 4.667529 -0.2921535
000240 22 00 ed be b8 ad 6c bf 78 cf 90 3d d5 c2 bd 3e
       -0.46289164 -0.92452574 0.070708215 0.37062708
000250 12 f1 47 be c9 93 bb bf 90 1e 5c bf 03 96 bf bf
       -0.19525555 -1.4654475 -0.85984135 -1.4967655
000260 84 de 89 40 1a fa eb be 76 9e 14 3c 19 37 13 40
       4.3084126 -0.4608925 0.009070983 2.300238
000270 8f a9 f6 3e eb 38 9e 3f 64 c2 c3 bd 77 85 25 3d
       0.48176238 1.236112 -0.095585614 0.040410485
000280 24 96 d6 3f d8 fb 85 be 2d 99 db bf b9 74 e8 3f
       1.6764569 -0.26168704 -1.715612 1.8160621
000290 c2 74 a0 3f 1c 23 81 3d 47 92 0e 40 c6 8d ea be
       1.2535632 0.06305525 2.227678 -0.4581129
0002a0 b7 d1 79 3d ff 3b 10 40 47 6f 8d bf 59 62 3a be
       0.060991015 2.2536619 -1.1049584 -0.18201579
0002b0 a2 3d ab 3f 65 bb e0 3c 29 cf 08 40 8f 65 37 3f
       1.3378184 0.027433107 2.137644 0.7163934
0002c0 25 01 40 3f 10 92 b1 3f f8 b0 96 3c 9d ff ea bf
       0.75001746 1.38727 0.018394932 -1.8359257
0002d0 4b 48 37 bf 4a bc 04 c0 40 8d 5f 3f e7 b9 81 3e
       -0.71594685 -2.0739923 0.87324905 0.25337145
0002e0 03 da 9c 3f df ad 7b be 8e 51 8e bd 09 b7 23 3f
       1.2254032 -0.24578045 -0.06949149 0.63951164
0002f0 8e 48 80 bf 88 84 87 be 5e c9 d4 bf 56 d4 8b 3e
       -1.0022142 -0.264683 -1.6623952 0.27310437
000300 d9 cd 13 3f e7 b7 d3 bd 8a 85 67 bf 70 eb 3e 3f
       0.57735974 -0.10337811 -0.9043814 0.74578
000310 3f 89 b1 3f 58 35 81 3e 24 a4 9c bf 62 6e 0a 40
       1.3870009 0.2523601 -1.2237592 2.1629872
000320 39 67 6f bf bc 20 03 c0 a5 e1 de 3f fd 6b 6f c0
       -0.9351688 -2.048873 1.7412611 -3.740966
000330 7d 3c 1f bf b1 47 75 3d ae 2f 9b 3f c0 32 8e 3f
       -0.6220167 0.059882823 1.2123926 1.1109238
000340 b6 91 b0 3f c0 af ea bf 0f 21 46 3f 67 f1 99 3f
       1.3794467 -1.8334885 0.77394193 1.2026795
000350 d5 45 04 c0 16 f5 bf 3b 21 80 0c 40 f4 a5 84 be
       -2.0667622 0.005858074 2.1953204 -0.25907862
000360 8c cb a6 3f 36 36 64 bc f0 e2 fb 3f 51 ff 9e 3e
       1.3030868 -0.0139289405 1.9678631 0.31054166
000370 75 c6 21 bf d3 39 83 40 74 1f 9b 3e 64 eb fb be
       -0.63193446 4.1008086 0.30297434 -0.49203026
000380 82 d6 08 40 63 3e d5 bf 8c c2 d8 bd b3 b3 00 3f
       2.1380925 -1.6659664 -0.10583982 0.502742
000390 00 08 b1 bc 5f 5b 24 3e dc 8d 60 3c ea b2 84 bf
       -0.02161026 0.1605048 0.013705697 -1.03671
0003a0 b9 f3 a8 bf 97 45 0f 3f af 33 e6 3f b8 a2 95 3c
       -1.3199378 0.5596556 1.7984523 0.018266067
0003b0 2b 00 6b 40 a3 5e a5 3f c0 bb 2e be ee 1e 0d 3f
       3.6718853 1.2919506 -0.17063808 0.5512532
0003c0 0a a2 95 3f 5a e7 9a 3f 2a a7 8b bf 3b 65 a2 be
       1.1690075 1.2101853 -1.091039 -0.31717858
0003d0 58 80 88 c0 d2 49 f5 3f 14 aa 93 3f ec fd 05 40
       -4.265667 1.9163153 1.1536279 2.0936232
0003e0 38 1e dc 3f bd f2 f4 be 2f b2 24 bf 3c 1a b5 be
       1.7196722 -0.47841445 -0.64334387 -0.35371578
0003f0 3b 01 7d 3d 26 20 47 3f 4e 3a 01 40 73 05 b7 3f
       0.06176875 0.7778343 2.0191836 1.4298538

fc2.bias f4 [512]
000000 75 f6 4d c0 a4 08 9e bf 2f 18 59 c0 76 5d 43 bf
       -3.2181675 -1.2346387 -3.392101 -0.76314485
000010 4a 57 8a c0 b1 e0 18 c0 20 36 82 bf 3c c1 32 c0
       -4.3231554 -2.388714 -1.0172768 -2.793044
000020 72 b3 76 c0 d6 7b 8c c0 7b 5f cf c0 a4 05 e8 c0
       -3.8547025 -4.3901167 -6.4804053 -7.2506886
000030 53 4a 83 c0 85 f5 37 c0 75 b5 88 c0 6b 1d 84 c0
       -4.102823 -2.8743603 -4.2721505 -4.128591
000040 e9 1c 74 bd 20 7b 1b bf 33 5d 71 c0 47 99 f0 bf
       -0.059597883 -0.6073475 -3.7713134 -1.8796777
000050 c9 d4 c1 c0 11 a2 4b c0 75 3c 0b c0 75 c0 31 c0
       -6.0572248 -3.1817667 -2.175565 -2.7773716
000060 a0 e5 8b c0 aa 6d 15 c0 6b 14 89 3f aa 1f 90 40
       -4.3717804 -2.3348184 1.0709356 4.5038652
000070 3e 72 83 c0 bd 77 aa bf 20 45 7b c0 ff 29 f0 bf
       -4.1076956 -1.3317791 -3.926094 -1.8762816
000080 0e 31 8a c0 33 0a 54 c0 4a 1a 03 bf d5 3e c5 3d
       -4.318488 -3.3131225 -0.5121199 0.09631125
000090 a4 73 15 be ff cc 9b 3e 00 16 3e c0 94 2b a6 c0
       -0.14594895 0.30429837 -2.9700928 -5.1928196
0000a0 b4 6a 32 c0 a6 7d a0 bd 06 d7 db bf 6c 4e d8 bd
       -2.7877626 -0.078364655 -1.7174995 -0.10561833
0000b0 78 86 e0 bf 19 92 65 c0 b8 8e 0d c0 20 0d 03 c0
       -1.7541037 -3.587042 -2.2118359 -2.047676
0000c0 c3 01 10 bf f0 a9 37 bf 14 ec 15 c0 f0 60 2d c0
       -0.5625269 -0.7174368 -2.342534 -2.7090416
0000d0 bd 03 06 c0 ab be 54 c0 d2 86 70 bf 07 d3 47 c0
       -2.0939782 -3.3241374 -0.9395572 -3.122255
0000e0 a7 3b 53 c0 ea 09 4c c0 d9 73 51 be 4f df 36 bd
       -3.300516 -3.188105 -0.20454349 -0.044646557
0000f0 31 0c a4 c0 89 05 b2 c0 df 06 1a c0 3c 19 c8 bf
       -5.126488 -5.5631757 -2.4066694 -1.5632701
000100 b1 d5 45 c0 ce 0f 01 c0 12 00 f2 bf 1d c2 51 c0
       -3.0911677 -2.0165896 -1.8906271 -3.2774727
000110 2e b2 81 c0 5c 8f da bf 05 de 8c c0 09 05 c2 c0
       -4.0530005 -1.7075 -4.402102 -6.0631146
000120 66 9e 7e c0 83 0e e5 bf 1a 9b c0 c0 e3 8f f6 bf
       -3.9784179 -1.7895054 -6.0189333 -1.9262661
000130 ac 3a 69 c0 ff 21 23 c0 dd 04 1c c0 56 65 32 c0
       -3.644206 -2.54895 -2.4377968 -2.787435
000140 49 a7 ba c0 ff f2 60 3f c0 45 03 c0 4f 2e 7c bf
       -5.8329206 0.8787078 -2.0511322 -0.9850816
000150 41 1d 87 c0 3f cb 5c c0 3f 37 61 c0 2e 54 6f c0
       -4.222321 -3.4499052 -3.518997 -3.739513
000160 e0 6f 3f c0 a6 e4 75 c0 30 47 1d c0 88 a9 9e c0
       -2.9912033 -3.8420806 -2.45747 -4.9581947
000170 96 3f 7f c0 34 b2 7a c0 dc 2c 07 c0 78 fd a0 bd
       -3.988256 -3.9171267 -2.112113 -0.07860845
000180 d3 74 3a c0 d6 01 49 bf 60 29 0f 3f f7 22 6a c0
       -2.9133804 -0.78518426 0.5592251 -3.658384
000190 90 83 05 c0 2d 39 be c0 40 47 38 bf 2a f2 66 bf
       -2.086155 -5.9444795 -0.7198372 -0.90213263
0001a0 4a bd a4 c0 2b 60 9a be c6 b0 1e c0 1a b4 c1 bd
       -5.1481066 -0.30151495 -2.4795394 -0.0945818
0001b0 37 52 4d bd 57 0e 97 c0 72 05 60 c0 b9 77 62 c0
       -0.050127234 -4.7205005 -3.5003324 -3.5385573
0001c0 ca 65 25 be 88 a7 33 c0 f7 71 01 c0 65 65 2e c0
       -0.1615211 -2.8071003 -2.0225809 -2.7249386
0001d0 40 b0 b6 bf 59 1c c7 bf 2f 9e d6 bf 1f b4 b5 bf
       -1.4272537 -1.5555526 -1.6767024 -1.4195594
0001e0 6a 86 75 c0 bd 7a b4 c0 6f 17 53 c0 fd 65 77 c0
       -3.836329 -5.6399827 -3.2983053 -3.8655999
0001f0 3e b8 a9 c0 ed 35 be bf e6 7b 2e c0 fc f2 86 c0
       -5.3037405 -1.4860207 -2.7263122 -4.217161
000200 a6 2c 3b c0 55 a8 7b c0 ec 80 19 c0 31 66 ad c0
       -2.9246001 -3.9321492 -2.3984938 -5.4187245
000210 df 2f ae c0 d7 ad 77 bf e3 61 a3 bf 77 da 22 c0
       -5.4433436 -0.96749634 -1.2764248 -2.544584
000220 60 00 78 c0 b7 33 b4 c0 59 7a 38 c0 e1 b5 24 c0
       -3.875023 -5.631313 -2.8824675 -2.573601
000230 bb d9 de c0 75 34 2b bd 93 b5 77 be 30 81 eb bf
       -6.9640784 -0.041798074 -0.24190359 -1.83988
000240 51 5c 02 3e 23 56 36 c0 ff 51 b6 bd d4 e3 e2 bf
       0.12730528 -2.8490074 -0.08902358 -1.7725778
000250 60 7b 38 c0 29 43 db bd b7 24 1e c0 3b 93 63 bd
       -2.8825302 -0.10706169 -2.470991 -0.05556033
000260 68 e8 ae c0 cf 5a 99 3f f6 06 80 bf 4b e1 0c be
       -5.46587 1.1980838 -1.0002124 -0.13757817
000270 d2 ea 39 c0 0e 69 c4 bf df 81 99 bf 00 73 4c 40
       -2.9049573 -1.534456 -1.1992759 3.194519
000280 4c 83 0e c0 5f 6f 60 be 3b ee 5d c0 a2 5c 51 c0
       -2.2267637 -0.21917485 -3.4676654 -3.2712789
000290 63 1a 02 c0 c2 95 36 bf 5d bb 3f c0 e9 95 5d c0
       -2.0328605 -0.7132226 -2.9958107 -3.4622748
0002a0 b6 45 5e c0 ec 87 41 c0 66 62 98 c0 ec f8 8a c0
       -3.4730048 -3.023921 -4.7620115 -4.342886
0002b0 ea 0a 99 c0 8d 16 8d c0 c5 db 7f c0 60 a5 de bd
       -4.7825823 -4.409003 -3.9977887 -0.108713865
0002c0 6a db 69 c0 e7 6c cc 3e 5b 3c 4a c0 15 ee 8f 3f
       -3.654017 0.39926836 -3.1599338 1.1244532
0002d0 45 3e ea be 55 2d e0 bf ff d3 8a be a2 f7 4c c0
       -0.45750633 -1.7513834 -0.27114865 -3.2026143
0002e0 b6 a2 a6 c0 43 bf 99 c0 7e 6f f2 bf e0 9e 82 c0
       -5.207362 -4.8045974 -1.8940275 -4.081894
0002f0 53 38 89 bf b8 f7 82 bf 87 71 1b c0 c7 9b 42 c0
       -1.0720314 -1.0231848 -2.4288042 -3.040758
000300 10 f1 9e 3e 85 32 8f c0 fa 50 d8 bf a3 cd 3f c0
       0.3104329 -4.474917 -1.6899712 -2.996926
000310 5a 89 ff c0 a7 53 4c c0 24 2d 40 c0 fd b4 b7 bf
       -7.9855165 -3.1926057 -3.0027552 -1.4352108
000320 c7 86 39 c0 2b 3f 84 c0 80 11 a0 c0 e8 89 2a c0
       -2.8988512 -4.132711 -5.002136 -2.6646671
000330 1d 14 09 c0 45 cd 88 c0 24 24 06 c0 47 ab d4 3f
       -2.1418526 -4.2750573 -2.0959558 1.661477
000340 e7 35 6d c0 24 a0 8e c0 17 0c 53 be c3 1f 1a c0
       -3.706415 -4.4570484 -0.2061008 -2.4081886
000350 17 52 88 3c 53 1c 6b c0 8a ff cb c0 fa 82 ca bd
       0.016640706 -3.6736038 -6.3749437 -0.09888263
000360 33 2c 1a c0 e2 82 61 c0 a6 84 2c c0 a4 71 40 c0
       -2.4089477 -3.5236135 -2.6955962 -3.006936
000370 4b 9e 46 c0 8b 15 4b c0 85 b0 7e bc ea 98 85 3e
       -3.1034114 -3.1731899 -0.015545015 0.26093227
000380 d2 43 95 c0 94 db e0 bf 8a 75 f7 bf 31 a4 64 c0
       -4.664529 -1.756701 -1.9332745 -3.5725214
000390 c3 96 d2 c0 a6 7b 81 c0 e9 4d 5d c0 6c ba 80 bf
       -6.5809035 -4.046344 -3.4578803 -1.0056891
0003a0 53 09 3d c0 6d fd dd bf f2 bf 9e c0 b9 1e 13 bf
       -2.953694 -1.7342964 -4.960931 -0.57468754
0003b0 af 30 16 c0 4e 11 da 3e b2 22 81 c0 55 c0 15 c0
       -2.3467214 0.42591327 -4.0354853 -2.339864
0003c0 eb 26 13 c0 f8 72 1b c0 35 d9 d5 bf 80 2f 65 c0
       -2.2992504 -2.4288921 -1.6706911 -3.5810242
0003d0 12 fd c2 bf 68 b8 86 c0 31 03 48 c0 fa 90 92 c0
       -1.5233481 -4.2100105 -3.1251948 -4.5801973
0003e0 29 05 80 c0 fb 91 2c bd d8 c4 ba bf a5 1d 5f be
       -4.00063 -0.042131405 -1.4591322 -0.21788652
0003f0 b6 bc 63 bf b4 e7 29 40 92 91 e0 bf ba 21 59 3f
       -0.88959825 2.654767 -1.7544425 0.8481709

fc3.weight f4 [51, 512]
000000 32 ba a1 bd fc 99 b1 3e 97 2d 79 3b 7e 2e 1d be
       -0.07896842 0.34687793 0.0038021558 -0.15349767
000010 ba cf 25 3c ff 42 82 3e 59 bd 67 bd 71 47 be 3d
       0.010120327 0.2544174 -0.05657706 0.0929097
000020 9e 73 6f be 17 55 cb 3c 7e 15 a7 3a b2 f3 e7 3c
       -0.23383948 0.024820847 0.0012747494 0.028314445
000030 4b c5 6c be ee e0 32 3e b4 20 b1 bd c5 46 8b 3d
       -0.23122136 0.17468616 -0.08648816 0.068006076
000040 92 bd 45 ba 75 0a 14 be e2 3c 63 3e 17 f4 ed bd
       -0.0007543202 -0.14457114 0.22191194 -0.11618822
000050 0b 45 b8 3c 66 16 04 3d 38 cb 9b 3d 4b 00 0b 3e
       0.02249386 0.032247923 0.0760712 0.1357433
000060 ee ab 1c 3d 9a 32 a8 3d f6 d1 96 bd 08 74 b4 bd
       0.038249902 0.082127765 -0.073642656 -0.08811194
000070 00 7b 3b 3d 0d cc 52 3e b5 e3 bb 3d 2b dc 4e 3e
       0.0457716 0.20585652 0.09174291 0.20201175
000080 d0 15 01 3e b5 6f 14 3f 4e 9f 0d be 1e 4a 01 be
       0.12605977 0.5798295 -0.13830301 -0.1262593
000090 48 c0 1e 3d e3 ed 05 be c2 46 6e 3e ef de cb bd
       0.038757592 -0.13079028 0.2326918 -0.099546306
0000a0 a3 a1 0a 3e a1 04 4e bd f9 77 29 3e 02 32 50 3e
       0.13538222 -0.050297383 0.16549672 0.20331576
0000b0 79 e8 0d be a2 fe 1c 3e dc 37 97 bd 56 3b ac 3d
       -0.13858213 0.1533151 -0.07383701 0.08409755
0000c0 c3 f6 0d 3e 24 24 3b 3e 65 c3 d1 3d 89 d4 4f bd
       0.13863663 0.18275505 0.10242347 -0.0507398
0000d0 91 12 1c 3e 21 d7 87 3e 74 0e 11 be ef 3a 11 3e
       0.15241458 0.26531318 -0.1416567 0.14182638
0000e0 85 d7 3f bd bb 1f 6b 3e 18 1f 7d bc c8 f7 12 bd
       -0.046836395 0.22961323 -0.015449308 -0.035880834
0000f0 b8 1c cb 3d 90 3d a9 3d 8f a7 a0 bd c5 54 f5 bd
       0.09917587 0.08263695 -0.07844459 -0.11979059
000100 6c 94 1f 3e 0b cd ce 3d b7 d9 7d 3e 06 4d 1c 3e
       0.15583962 0.100977026 0.24790083 0.15263757
000110 b4 b0 10 bd 8b 98 47 3e 5c 2a 2e 3e ac 4d 92 3a
       -0.035324767 0.19491784 0.17008346 0.0011162064
000120 de 9d b7 3e 0f 2a 5c be 08 73 bd 3c 6a bf 25 be
       0.3586263 -0.21500419 0.02312614 -0.161863
000130 c2 75 de 3d 42 ac 47 be c0 43 a8 3d e0 f5 4b 3e
       0.10862304 -0.19499305 0.08216047 0.19918013
000140 44 84 13 bc 9d ed 48 3e 1e 8e 10 3e 1f 33 62 3e
       -0.009003703 0.19621892 0.14116713 0.22089814
000150 1f aa f7 3d 8a bd be bc 52 10 f0 3e 46 09 68 3d
       0.12092995 -0.023283739 0.4688745 0.05664947
000160 0b 98 f2 3d fb 68 53 3e 49 dc 33 3e 00 29 92 3c
       0.11845406 0.20645516 0.17564501 0.017841816
000170 e7 e8 05 3e 0b 50 c0 3d 01 68 c9 3d 8b 5d 2b bd
       0.13077126 0.09390267 0.0983429 -0.041837256
000180 96 b5 7c 3d e1 9f 2e 3e 6f 73 f4 bd 20 a4 47 bd
       0.06169661 0.17053176 -0.1193608 -0.048740506
000190 63 d2 09 3e 7c a3 10 3e 4f 8e 6a 3e e8 3b cf bd
       0.13459162 0.14124864 0.22905849 -0.10118848
0001a0 5e aa 14 ba 49 5a 7b 3d fb ec 15 3e 35 7f 4a bd
       -0.00056711386 0.0613654 0.14641182 -0.04943772
0001b0 53 30 43 bd b4 95 ea b9 e1 35 85 3e 50 f3 e8 3d
       -0.047653507 -0.00044743496 0.2601767 0.11374533
0001c0 c7 97 4a b7 54 42 36 3e d9 9a 2d 3e f2 95 30 3e
       -1.2075477e-05 0.1779874 0.16953601 0.172447
0001d0 4a 02 1b 3e 5a 1f b6 3e e6 7f 30 3e d3 4f 95 3e
       0.15137592 0.35570794 0.1723629 0.29162464
0001e0 9a 36 17 be 26 f1 0a 3d 49 82 dd bd 7a d8 2a bd
       -0.14766923 0.033921383 -0.108158655 -0.041710354
0001f0 23 48 24 bd f6 25 31 3d c5 34 d4 3d 86 1d dd 3d
       -0.040107857 0.043249093 0.103616275 0.10796647
000200 45 22 d6 3d 90 bc a4 3d 6a 8e b4 3e a8 54 4e bd
       0.10455755 0.08043778 0.35264903 -0.050373703
000210 09 76 1e bd c9 97 5b 3e d6 a3 2b be 70 6f 51 3d
       -0.038686786 0.2144462 -0.16761717 0.051131666
000220 1a 47 7c 3d 91 d7 7f 3c 59 9c 29 be 6e d4 a4 3e
       0.061591245 0.01561536 -0.16563548 0.3219332
000230 db e4 a4 3c 19 8b 17 bd 97 1b ab bd c8 b5 ec 3d
       0.020128658 -0.03699789 -0.08354872 0.115581095
000240 90 11 c4 bd 2d 24 1b 3e 5a b3 39 3d 89 d7 3a be
       -0.09573662 0.15150519 0.04533706 -0.18246283
000250 11 af bf 3d d4 98 39 bd 48 26 0d 3e b9 45 98 bc
       0.09359563 -0.045311764 0.13784134 -0.018587934
000260 c4 35 e3 3d 79 1d f2 bd 49 e9 1f be 92 fe ce 3a
       0.11094239 -0.11822028 -0.15616335 0.0015792421
000270 f4 dd 1f 3e 88 a2 79 3e 53 c1 da bd e6 3d 8b bd
       0.15612012 0.24378407 -0.10681405 -0.067989156
000280 08 78 57 3e 01 a6 a0 3c 63 75 9c 3d b9 88 28 3e
       0.21041882 0.019610407 0.07639577 0.16458406
000290 c7 95 04 3e d9 bb d2 bd f6 3b e2 3d ec bf 93 3d
       0.1294776 -0.10289735 0.11046593 0.072143406
0002a0 f6 2d 01 3e ed 4a e8 bf 12 49 58 3d bd c9 db 3e
       0.12615189 -1.8147866 0.05280406 0.42927352
0002b0 9c ad 0d 3f 89 e0 45 3e 49 35 b8 3d 69 85 2b bc
       0.5534303 0.19323935 0.08994538 -0.010468819
0002c0 3f 9d 75 3d fc 02 c6 3d 21 c2 70 3d c5 5f 6c bd
       0.059964415 0.09668538 0.058778886 -0.05770852
0002d0 c0 03 10 bd 7e d0 bd 3d ef 7d 31 be 86 72 15 be
       -0.035159826 0.09268282 -0.17333196 -0.14594468
0002e0 6e 05 6a 3d a8 3d d4 bc 65 42 2e 3e 97 18 ae 3d
       0.057134084 -0.025908306 0.17017515 0.08500784
0002f0 3c 0d 31 3e 34 82 3d 3e 57 b0 1d 3d 8a 88 0b 3e
       0.17290205 0.185067 0.03849825 0.13626304
000300 3d 0c ea bd 78 01 87 3c 6a 14 47 3e 58 3a bc 3d
       -0.114281155 0.016480193 0.19441381 0.09190816
000310 5d a3 6c 3c ad 87 38 3e d0 26 48 be d7 06 af 3e
       0.014443246 0.18020506 -0.19546056 0.34184906
000320 77 36 2a 3e b2 49 c0 3d 46 a9 93 3d 10 29 1b 3e
       0.16622339 0.09389056 0.07210021 0.15152383
000330 54 38 02 3e 53 b8 58 3c 9c 7f e6 3d 40 b2 d3 bd
       0.127168 0.01322754 0.11254808 -0.10336733
000340 d1 56 83 3d 67 6a b5 bc 7e b8 4d 3d 8d d1 9c 3e
       0.06413043 -0.022145463 0.050224774 0.30628625
000350 dd 39 10 be 3a 30 b3 3d 9b d5 49 3d 6f d9 69 bd
       -0.14084573 0.08749433 0.049275976 -0.057092126
000360 db 17 c8 3c a5 3c 76 bb b4 5c d2 3d 40 e6 1b 3e
       0.024425438 -0.0037572768 0.10271588 0.15224552
000370 43 ca bc bd 53 73 46 3e 4a 66 67 bb ac a6 8c 3d
       -0.09218266 0.1937993 -0.0035308772 0.06867728
000380 53 08 27 be 4e b5 6d 3e a6 e6 21 3e 71 97 9b bd
       -0.16311769 0.23213693 0.15810642 -0.075972445
000390 ac 5b 5f 3c 26 e7 74 bd 23 43 6f 3c 39 57 4b 3e
       0.013632696 -0.059790753 0.014603409 0.19857492
0003a0 61 b7 01 be 6d 74 65 3c d0 cb 87 3c 5f 81 71 bd
       -0.1266761 0.014004809 0.016576678 -0.05896127
0003b0 0b 62 f6 3d 5c 7f c5 bd 13 71 54 bc 6f e8 b1 bd
       0.12030419 -0.096434325 -0.012966412 -0.08686911
0003c0 06 ec 12 be cb b8 0c 3e 56 a9 86 3d 7f c3 0b 3e
       -0.14347848 0.13742368 0.06575267 0.13648795
0003d0 b3 9f 5d 3e 9d cc 2b 3c b1 2f 3f 3e 77 91 41 bd
       0.21642952 0.010485795 0.18670537 -0.047257867
0003e0 ea 10 1e 3e 4e 12 6e 3e 93 3e 05 be 24 5e 85 3d
       0.1543614 0.2324917 -0.13012151 0.065120965
0003f0 4c 2b 54 3d d4 ed 8c bd 33 da cb 3e 50 fa e2 bd
       0.051799104 -0.068812996 0.3981491 -0.110828996

fc3.bias f4 [51]
000000 ab b8 00 3f 51 39 81 be 54 9a fb bf fe 3f 28 c0
       0.5028178 -0.2523904 -1.9656472 -2.6289058
000010 df ae af bf 06 56 eb bf d2 1c 60 bf cc 91 9f be
       -1.3725241 -1.8385627 -0.87543976 -0.31165922
000020 31 84 07 3f 22 0a 19 bf a5 35 b7 bf 15 23 b1 bc
       0.52936083 -0.59781086 -1.4313246 -0.021623174
000030 31 93 37 bf 99 44 c9 bf 46 97 dc bf 3c 83 51 3f
       -0.7170897 -1.5724059 -1.7233665 0.8184087
000040 c6 d4 7e bf d2 77 1b c0 20 fe ef bf 49 08 c3 bf
       -0.99543417 -2.4291883 -1.8749428 -1.5236903
000050 b2 4d 2b 3c e8 3c 14 3f 45 c4 9a be a6 1f 88 be
       0.010455536 0.57905436 -0.30227867 -0.26586646
000060 15 aa d4 bf f6 05 bb bd c0 69 1c c0 42 db ec bf
       -1.6614405 -0.09131996 -2.4439545 -1.8504412
000070 bb 64 9f bf 70 e0 77 3f a5 e4 6c be c7 c3 80 3f
       -1.2452615 0.9682684 -0.23134096 1.0059747
000080 4d 51 08 c0 ad 42 35 bf c6 36 16 c0 cb cf ed be
       -2.1299622 -0.70804864 -2.347093 -0.46447596
000090 10 03 9c bf 97 06 21 c0 00 d3 ab be 14 87 8b 3d
       -1.2188435 -2.5160272 -0.33559418 0.068128735
0000a0 1a 7b 03 bf c1 e7 c9 be 1f 39 0a c0 ec af c7 3e
       -0.51359713 -0.39434627 -2.1597364 0.39001405
0000b0 76 a8 aa bf 6c 1e b2 bf 0e a7 13 3f db d4 03 bf
       -1.333266 -1.3915534 0.5767678 -0.51496667
0000c0 9a 3f 40 3f c4 a5 42 3f d9 23 54 3d
       0.7509705 0.7603419 0.051792
